models/best_current_direction_model.pth (torch, 92813 bytes, 37 tensors)

lstm.weight_ih_l0 f4 [64, 6]
00000000: a0cb 96bd 7591 7fbc 5f64 053e be2b 653e
00000010: 9acb 33bd 83b4 e4bd 5bd9 bbbc aead 103e
00000020: 0768 a4bc 560e 97be 305e 133d 5d34 fabd
00000030: 91c1 133e 16c8 81be 6dde 133e 86c7 05be
00000040: 4871 a4be a5e4 86be 4854 88be f695 47bd
00000050: 84a3 e8bd 4049 d6bd 5f30 c93d bb8a 8abe
00000060: aa38 353d ae50 0e3e 2fe8 cabd 991e 3d3e
00000070: 7781 01be a443 5b3e 683c b0bd d33a 4fbd
00000080: cae9 693d 89fe 4c3e 10ac 1f3e 9699 b83d
00000090: 6f57 60be c301 303e 3a94 08be f881 983d
000000a0: 9eb2 cfbd d9c2 b93d b929 ff3d b56d dcbe
000000b0: 2618 6c3d 19b4 54be 33f4 67be ead0 5d3e
000000c0: c28f b83c 53cf 95bd 46c8 033e 71e7 01be
000000d0: 68b8 173e c5b2 b5bd 6898 933e 47af 873c
000000e0: 718a 91bc 1258 d5bc 34c1 5dbe fc0f e83d
000000f0: 5f88 713d 27b6 2e3e 0070 483e 31d8 463d
00000100: 1441 32bd 5d5b 9d3d 25b0 3c3e cee7 07be
00000110: 1b38 d6bd 81ba 84be 9e7c 68be e029 a3be
00000120: 926f a43c a43b 403e 048b 91bd 71dc 413e
00000130: ddda 28bd 9436 13be ef55 2b3e 9156 47be
00000140: 3eb2 8fbd 6ef8 09be 0a3d 853e 8dbd 21be
00000150: 1346 7e3d f63d 65be 48e0 c7bc 3b5f 8f3d
00000160: 2d31 373e 5dbf 2c3d 92ac f23d f901 09bc
00000170: 72bb 443e 6ae8 78bd 18c9 5d3e a979 863c
00000180: 17ab 6e3e 26ed fb3c 723e d0bd ff50 763d
00000190: 62ef 163e 0fc5 733e b73b 623e 6bc7 e23d
000001a0: 01fe 7f3e 4a9a 7d3d 02ff 5cbd 96d7 d7bc
000001b0: fdfa 1f3e ad6c 14bd 718e 8d3e ac76 90bd
000001c0: 39fa e5bd 0db9 f13d aa76 64bd c731 de3b
000001d0: ed3e 7fbe da52 81bd b1d6 08be 0e3e 80bd
000001e0: 34aa 68be 4abc 81bc 3bd7 72be 4b8e 773d
000001f0: c557 11be cdf7 ddbd 0312 e8bd 775c da3d
00000200: eef6 3c3d 975e 4d3e b5d6 26be 6dcc 7a3e
00000210: 20f1 7fbe 4a3b 38be da98 3e3e b4eb 85be
00000220: d101 2abe 53d6 80be cc12 253e fa44 93be
00000230: f4d3 d33d 76b0 143e b31c 3ebe 1aaa 3f3e
00000240: 1b55 08be 361a 853d 4d91 1abe 4d57 f3bd
00000250: 046b 97be 9a64 80be 8953 10bd 57a6 1bbe
00000260: e029 f6bd fc2f f13b 0949 143e fad8 09be
00000270: 806e bdbe 3ffa cabd 9005 853e 8807 6cbe
00000280: f2bb 11bc 649f 76be 008f 093e d8be 383e
00000290: fddc 83bd fd23 6ebd 365e 7ebe a934 c5bd
000002a0: 6b98 583e b732 b13d 99d4 5c3e b649 2e3e
000002b0: 8e54 983e e3af 3f3d 4a92 06be 825d c0bd
000002c0: cf1b 073e 074e 28bd 1d98 55be 4112 323d
000002d0: 0251 3a3d 8a0f f23c c97e 273d e475 47be
000002e0: 3aef 2d3d d81c a23d 25b8 35bd e750 36be
000002f0: 2495 3fbd 00eb 8f3e b1aa d43d bf35 1dbe
00000300: b398 3ebe d8d2 c93c ecaa 39be bced 78be
00000310: d256 e0bc 86aa 67be a76a 2a3e b972 2bbd
00000320: b7e5 3e3d 1271 a63d 01c4 523d fd0b 103e
00000330: 3967 2e3e 33aa 943c dc31 e4bd c63e 65be
00000340: b8b8 87be dbb6 32be 78f6 3a3e ce5f 403d
00000350: 6e5d 083e e625 a83d 4477 603e 8bfe a4bc
00000360: 614f 13be 5f26 90be c296 843d 1e2a 333d
00000370: e46e 57be 2d70 a43d 63d6 ac3d 47e0 c33d
00000380: fcb3 75be 065f d33d b37d b53e f65f ae3e
00000390: 5128 c43d d23b 2b3c b51e c5bd 4dd7 50be
000003a0: 7cfd 023e 505f 393e 3a66 5abd ed77 ecbd
000003b0: 2579 d53d 6422 cabb 616d 4fbe bde2 a53e
000003c0: 389b 953d 51c4 af3d f4a9 e43d 1481 613e
000003d0: f44c 563e 3e9d 493e 9b38 6a3d 367c 3bbe
000003e0: cc4b 6cbe c637 803d e405 a03e f945 bbbd
000003f0: 9a63 4ebd d85c a3bd d09f 02be 1cee fd3d
-0.07363057 -0.0155986445 0.1302657 0.22379968 -0.04389534 -0.111672424 -0.022930792 0.14128754
-0.020069135 -0.29503125 0.035978496 -0.12217019 0.14429308 -0.25347966 0.14440317 -0.13064393
-0.32117677 -0.26346317 -0.26626801 -0.048727 -0.11359313 -0.1046319 0.09823679 -0.27058968
0.044243492 0.13897964 -0.09907567 0.18468703 -0.12647043 0.21412522 -0.086052716 -0.05059321
0.057107724 0.20018972 0.1559298 0.09013669 -0.21908353 0.17188172 -0.13337794 0.074466646
-0.101414904 0.09070367 0.1245913 -0.4305245 0.057640217 -0.20771827 -0.22651748 0.21661726
0.022529487 -0.073149346 0.12869367 -0.12685944 0.14816439 -0.08871988 0.28827214 0.016563071
-0.01776621 -0.026042972 -0.21655732 0.11331174 0.058967944 0.17061673 0.19573975 0.04854602
-0.043519095 0.07683442 0.18426569 -0.1327202 -0.1045992 -0.2592354 -0.22703788 -0.31867886
0.020072732 0.18772751 -0.07106593 0.18931748 -0.04122435 -0.14376289 0.16732 -0.19466616
-0.07016419 -0.13473675 0.26023132 -0.15794964 0.062078547 -0.22386917 -0.024398938 0.07000586
0.17889853 0.042174686 0.118493214 -0.008362287 0.1921213 -0.060768522 0.21658742 0.016415434
0.23307453 0.03075273 -0.101681605 0.060135838 0.14739755 0.2380564 0.22093092 0.11073192
0.24999239 0.06191472 -0.053954132 -0.026347917 0.15623088 -0.036236454 0.27647737 -0.07053885
-0.11229367 0.11802874 -0.05577723 0.0067808363 -0.24926348 -0.06314631 -0.13363148 -0.06261836
-0.22721177 -0.015836854 -0.23714916 0.060438436 -0.14193638 -0.1083828 -0.113315605 0.106621675
0.046133928 0.20055614 -0.16292842 0.24492045 -0.24994326 -0.17991367 0.18612996 -0.2615639
-0.16602255 -0.25163516 0.16120452 -0.28763562 0.10343161 0.1452044 -0.18565635 0.18717232
-0.13313715 0.0649914 -0.1509449 -0.11881886 -0.29573834 -0.25076753 -0.035235915 -0.15200172
-0.12019706 0.0073604565 0.14480986 -0.13461676 -0.36998367 -0.09911012 0.25980806 -0.23049748
-0.008894907 -0.2408424 0.13433456 0.18041551 -0.064386345 -0.05813979 -0.24840626 -0.09629185
0.21151893 0.08652251 0.21565475 0.17020306 0.2975201 0.046798598 -0.13141742 -0.09392835
0.13194202 -0.041090038 -0.20858808 0.04347444 0.04548741 0.029548425 0.040892396 -0.19478565
0.042464472 0.07915658 -0.044365067 -0.178043 -0.04677309 0.28108978 0.10384119 -0.15352534
-0.18612938 0.024636671 -0.18131608 -0.24309438 -0.02738515 -0.22623643 0.16642247 -0.041857455
0.046605792 0.08127035 0.051456455 0.14067073 0.17031564 0.018147564 -0.111423224 -0.22387227
-0.26508117 -0.17452566 0.18258083 0.046966366 0.1331689 0.082103536 0.21920496 -0.020140907
-0.1438575 -0.28154275 0.06474067 0.043741338 -0.21038395 0.08029208 0.084393285 0.09564262
-0.2399444 0.10320859 0.35447463 0.34057587 0.09578002 0.010451274 -0.096249975 -0.2039463
0.12792009 0.18102765 -0.053320147 -0.115463115 0.10423497 -0.0061686505 -0.20256568 0.3239955
0.07304996 0.08582366 0.111652285 0.22021896 0.20927793 0.1968889 0.05718289 -0.18309101
-0.23075789 0.06260638 0.31254494 -0.091442056 -0.050387956 -0.07976693 -0.12756276 0.123989314

lstm.weight_hh_l0 f4 [64, 16]
00000000: c633 153e b240 47be ccbe ecbd 6497 11bd
00000010: 8c0c ba3d 85fb 5c3e 31e9 91bd a032 933e
00000020: e019 aa3d 3a4a 373e ee7e 1ebe 5a5a ddbc
00000030: 4562 0b3e c800 2ebe 9868 27be fc7c 4b3e
00000040: f661 393d 98e6 933c 1f69 d7bd 2806 643d
00000050: 400d 4e3e c52a cd3d f4df 6dbe 70c7 0d3e
00000060: 972b a53d 17df 9cbe 89e4 aebd 18c4 483e
00000070: 5221 1dbe d9ec b5bb c6b8 9f3e 68ae a63d
00000080: 0edd e5bd d185 5d3e a6fa 473e 48d7 52be
00000090: c5db f13d b917 283d 2343 e93d 22e9 643e
000000a0: 0e30 0cbd 736a 4a3e 179c 42be 6b85 ddbd
000000b0: b174 bb3b 81c4 0b3e f1e8 6c3d 336a 313c
000000c0: f44d 7f3d 3d6b 253e 193d 95be a113 ebbd
000000d0: 125b 23be 88af 9c3d a078 2e3e 0fc2 6d3e
000000e0: b733 ad3c 4f5f 60be 82ac 153e 691b 123e
000000f0: 4342 143e 7db0 433e ce41 16be 487b 05be
00000100: f221 10be 4956 283e d0d8 30be 2fb7 56be
00000110: a5cb 7cbe 606f 22bd 06d4 a4bd 72e4 423d
00000120: e34e 4d3e 6a10 7d3d 7e61 b9b7 9d97 8fbd
00000130: b8ae 153d 7b96 693e 57bf 553e f1d3 683e
00000140: d54b 3e3e bdd9 09bd 4694 3d3e 2074 023d
00000150: 475d 893d 2cde c43d b8e5 d93d b4ec 28be
00000160: 1587 253c 8bb8 613e 16dc 823c c3d8 333e
00000170: c6ca 983d 20c1 abbd ac21 6b3e 6888 4c3e
00000180: c7f3 7a3e 0c91 b6bd 5946 703e eacf 90bc
00000190: 586f aa3d dcf9 7fbc 5d6a e7bd 37b2 c3bc
000001a0: a3fe 303e d8e3 003d 43b8 623e 9b66 ad3d
000001b0: d181 2ebe f770 ab3d a7f5 e3bc dbfe 25be
000001c0: 8a18 a83d e8f6 153d 2f1d 10be 3155 41be
000001d0: 1709 48be 8910 37bd c746 e83d 7613 a83d
000001e0: 7984 103d baa8 863d 49ed 5cbe 3291 f03d
000001f0: 2513 38be 85cc e7bd ab1c 3f3d 6f0a 06be
00000200: 5408 7b3e 4bc2 42bd 4a1f a13d 06b0 1ebe
00000210: c975 e7bb 3c5c cb3d 251a 54be 7524 913d
00000220: 4b05 c53c 05cd 6b3d b2fa 853e fda6 d03c
00000230: 7ceb c8bc f4da a83d 39d0 c23d 49bd e03d
00000240: fd8e f63d 9365 1ebc 9b1c 603e 63b6 4dbd
00000250: 8826 193e 5f10 4a3e 846f 333e 770e 613e
00000260: 4f25 873e f817 c43d afea 35be b738 543b
00000270: 6639 ad3c c112 2cbd 8570 d53d 5e5b 853c
00000280: e999 e33b c6a6 0fbe e9d8 abbd 87f8 cc3d
00000290: 39e1 2b3e 3245 3bbe c113 eebd fdd0 fcbc
000002a0: 932b 543e 2d25 983d 8f15 413e 501d b6bd
000002b0: 5905 1c3e fdcc 443e b0e0 dd3d a027 fabd
000002c0: 0b32 a23e 7297 1f3e cff8 433e 8a15 2cbd
000002d0: bd0d 883e 8ead 29be 3879 bb3c f0c6 b5bd
000002e0: 2e9d 61be 940a ddbd 1653 d43c 029f 313e
000002f0: d857 b83e d005 7c3e 5a7c 1fbe 0e4d 1f3d
00000300: 18b4 91be 0d30 24be 8736 53bd 490b 3b3d
00000310: de1d 45be b118 813e 284a 183e 76db 113e
00000320: f786 c33d db5c 363d dbd7 66bd d56d 4e3b
00000330: 4445 9abe f934 1a3e 3ad9 38be a366 1abb
00000340: ed01 583e 02dd 8bbe af38 aebd 8872 dd3d
00000350: d93d cd3d 752e 073e cf4a c13d 0645 343e
00000360: eeaf 7abe ea9b 8e3e 88f6 50be a43c 46bd
00000370: eab1 713c 9f59 a4bc 58cb 9abd 4cb8 2d3d
00000380: 0807 123e c4d0 823e ee37 f43d 6be2 0d3d
00000390: 21b4 64bc 8ae3 853e 8eb1 463d d89b 3e3d
000003a0: fcd3 173e 60d7 493e ee39 7bbe 552b 383e
000003b0: d79d a43d ffca 493e 5688 723e c8ff 0ebe
000003c0: b945 b0bd 387e 2c3e e4c9 8ebd 5379 a1bd
000003d0: 7f7e 28be e18c 953d 555f 483e 3192 8b3e
000003e0: 1a25 6c3d 545c 953e 32e0 2cbb f1b1 513c
000003f0: b1b6 1a3e 4e0b ea3d fbd3 5abe 418a cd3c
0.14570531 -0.19458273 -0.11559829 -0.035544768 0.090844244 0.21580322 -0.07124556 0.2874956
0.083057165 0.17899409 -0.15478107 -0.027020622 0.13611706 -0.16992486 -0.16348493 0.19871897
0.04525944 0.018054292 -0.10518097 0.055669934 0.20122242 0.10017923 -0.23229963 0.1384561
0.08064955 -0.30638954 -0.08539683 0.19606054 -0.15344742 -0.005551916 0.31195658 0.08138734
-0.112238035 0.21633078 0.19529209 -0.20589936 0.11809496 0.04103825 0.113897584 0.22354558
-0.034225516 0.1976717 -0.19004856 -0.10816463 0.005720698 0.13649179 0.057839338 0.0108285425
0.0623302 0.1615419 -0.29148176 -0.11478353 -0.1595271 0.076506674 0.17038202 0.23218559
0.021142824 -0.21911357 0.14616588 0.14268269 0.14478402 0.19110294 -0.1467354 -0.1303531
-0.14075449 0.16439165 -0.17270207 -0.20968316 -0.24687059 -0.039656997 -0.08048253 0.047581144
0.20049624 0.06178323 -2.2099117e-05 -0.0701134 0.036543578 0.2281131 0.20873772 0.22737099
0.18583615 -0.033654917 0.18513593 0.031849027 0.06707244 0.096126884 0.106395185 -0.16496545
0.010103007 0.22043054 0.015974086 0.17563157 0.07460551 -0.08386445 0.22962064 0.1997391
0.24507056 -0.08914384 0.23464336 -0.017677266 0.083220184 -0.015623536 -0.11299584 -0.02388869
0.17284636 0.03146729 0.22140603 0.08466836 -0.17041709 0.08371156 -0.027827097 -0.16210501
0.082078055 0.03661242 -0.14073633 -0.18880154 -0.19534718 -0.044693504 0.11341625 0.08206837
0.035282586 0.06575151 -0.21574892 0.11746444 -0.17976053 -0.11318306 0.0466582 -0.13089918
0.24514896 -0.047548573 0.07867296 -0.15496835 -0.0070636016 0.09929702 -0.20713098 0.07087032
0.024050375 0.05756857 0.26167828 0.025470251 -0.02452635 0.08244887 0.095123716 0.10973603
0.120389916 -0.009667772 0.21885912 -0.050222766 0.14956105 0.19732808 0.17523009 0.21978174
0.26395652 0.09574884 -0.17765306 0.0032382437 0.021145534 -0.042010073 0.10421852 0.016278919
0.0069458378 -0.14028463 -0.08390982 0.1000834 0.16785134 -0.18288115 -0.116248615 -0.030861372
0.20719747 0.07428966 0.1885588 -0.0889231 0.15236415 0.19218822 0.10833871 -0.12214589
0.31678805 0.15585116 0.19137882 -0.04201273 0.2657298 -0.16570112 0.02288495 -0.08875835
-0.22032616 -0.10793033 0.025918525 0.17345813 0.3600452 0.24611592 -0.1557478 0.038891844
-0.28457713 -0.16033955 -0.051565673 0.04566506 -0.19249675 0.2521415 0.14872038 0.14243874
0.09547227 0.044522148 -0.0563582 0.003149857 -0.3013097 0.1505927 -0.18051615 -0.0023559711
0.21094485 -0.27317053 -0.08506905 0.10812861 0.10021562 0.13201316 0.09438097 0.17604455
-0.24481174 0.27853328 -0.20406544 -0.048397675 0.014751891 -0.020062266 -0.07558316 0.042412087
0.14260495 0.255499 0.1192473 0.034639757 -0.013958962 0.2615016 0.048509173 0.046535343
0.1482696 0.19711065 -0.24533817 0.1798528 0.08037918 0.19706343 0.2368482 -0.1396476
-0.086070485 0.16845024 -0.06972101 -0.07884469 -0.16454504 0.07302261 0.19567616 0.27259973
0.05765257 0.29172003 -0.0026378748 0.012798772 0.15108754 0.114279374 -0.21369927 0.025090339

lstm.bias_ih_l0 f4 [64]
00000000: 91cf a83e 1215 73be 56af 58be caa8 a23d
00000010: dd9a 883e a834 243e c2dd 75be aaa3 a2bd
00000020: d8a5 a83c 63c8 8e3e b34b c2bb 7680 843d
00000030: c1b7 783e fdee 69be 0f06 043e 0b8d 00be
00000040: 48ce babd 4645 153e b4df 38be fa59 71be
00000050: 357d 40be 0378 203e f9a4 39bd efdd 143e
00000060: 4d91 1f3c 7ac0 803d 1c70 2fbe 3ae2 b4be
00000070: 666f 253e f7a2 4a3d 4c62 e93c 6066 e53d
00000080: f915 85be 9b1d 0fbe cc58 ec3d 92c9 323e
00000090: 6fda 6ebe d1d8 ce3d 6a3a 403d e88e 863e
000000a0: 3c47 2a3d afa2 273e f4c1 9dbd b759 4ebd
000000b0: e99c febd 0daf c6bd da43 d3bb 4b59 8d3d
000000c0: f945 263d 813b 4ebe e777 05be 2c9a acbd
000000d0: 26a0 973d 162b 06be 0484 c2bd 7729 b33d
000000e0: 20f5 a83c b55b 273e 5c28 c03d 4131 2c3d
000000f0: 7ffb 0bbd 65ff f7bd 417f 4cbe 7ba8 ca3d
0.3297086 -0.23738506 -0.21160635 0.0794235 0.2668065 0.16035712 -0.24010375 -0.07941373
0.020586893 0.27887258 -0.005929434 0.064698145 0.24288847 -0.22845073 0.12892936 -0.12553804
-0.09121376 0.14577207 -0.18054086 -0.2356948 -0.18797763 0.15670781 -0.045323346 0.14537786
0.009739232 0.06286712 -0.1713261 -0.35328847 0.16155776 0.04947182 0.028489254 0.11201167
-0.25993326 -0.13976137 0.11540374 0.17459705 -0.23325513 0.10099948 0.046930708 0.26280904
0.04157184 0.16370653 -0.07703009 -0.050378527 -0.12432272 -0.09701357 -0.0064472975 0.06901797
0.040594075 -0.20139886 -0.1303402 -0.084278435 0.07403593 -0.13102373 -0.09497836 0.08748143
0.020624697 0.16343577 0.09382698 0.04203916 -0.034175392 -0.121092595 -0.19970419 0.09895416

lstm.bias_hh_l0 f4 [64]
00000000: 6d7f 3f3e 4e4c cbbd 5302 243e 24bb 713d
00000010: e1d0 24be 31fe 263e 68b6 49bd 6173 60bd
00000020: 951f 433e 6659 463e 96d3 863d 9c7d cebe
00000030: 6cfb 22be b33a 433e abaa 373e ff72 22be
00000040: 2eaf 9f3e f32a 24be 95b2 423e c4d0 8fbe
00000050: 0983 afbc 0539 26be a480 0ebe 99c4 923e
00000060: a9d7 8c3d e864 673e 886c 83be 7ce8 66bd
00000070: af5f 823e d6dd 42be 14ce a43d 5a15 ddbd
00000080: 0453 8bbe 4062 eabd a5a5 7c3d f8db a43d
00000090: 711c c3bd 55e8 9f3e 52bd dc3d 0627 253e
000000a0: 0454 c73d 43e6 d13d 045a 5dbe 03af 26bd
000000b0: 11f9 4ebe c045 80be 7d63 1bbe 089b e93b
000000c0: 8af4 8bbd 2df6 1c3b 9a64 04be a394 15bd
000000d0: 72db 803e 23b9 703d 7104 f73c 911c 093e
000000e0: ab4b 06be 5d72 043e 3180 1ebc 7e81 5dbe
000000f0: 49a3 e7bd ec44 1dbe a376 3a3d 1ea9 503e
0.18700953 -0.09926663 0.16016512 0.05901636 -0.16095306 0.16307904 -0.04924622 -0.054797534
0.19055016 0.1937004 0.065833256 -0.40330207 -0.15916222 0.1906536 0.17936198 -0.1586418
0.3118834 -0.16032009 0.19013436 -0.28088963 -0.021424787 -0.16232689 -0.1391626 0.28665617
0.068770714 0.22597086 -0.2566874 -0.056374058 0.25463626 -0.19029936 0.08047119 -0.10795088
-0.27211773 -0.11444521 0.06168141 0.08049768 -0.09526909 0.31231943 0.107782975 0.16128168
0.097328216 0.10248997 -0.2161637 -0.040694248 -0.20212199 -0.25053215 -0.1517467 0.007129077
-0.068337515 0.0023950443 -0.12929001 -0.036518704 0.25167423 0.05877031 0.030153485 0.13389803
-0.13114803 0.12934251 -0.009674118 -0.21631429 -0.11310441 -0.15358323 0.045523297 0.20377013

lstm.weight_ih_l1 f4 [64, 16]
00000000: 089d cd3d cb09 903e 88e4 9c3d 099f 083d
00000010: 009f 443e d01a 1abe e601 80be f745 66be
00000020: 0650 59bc ff84 71be 48ab 28be 7549 f5bd
00000030: ee56 863e 43c1 203e dac2 5abe 040d 22be
00000040: ebc6 913e d1b7 8f3e cacb 593e d27e 503c
00000050: cad8 23be 639c bdbd e853 8cbe 2853 a7bd
00000060: 3e2f 1c3e dba7 273b 2a26 b63d e045 6c3e
00000070: 9af7 df3d 5d01 38be 9ec8 8c3e 9cc3 8abd
00000080: 3c7e 96bc 9b71 f63d 830a 3d3e 6e56 b53b
00000090: 1da1 c7bd 44fc 893e 0a45 e83d 38c7 ddbd
000000a0: c8a8 963e 9c94 d7bd fb39 26bc b9b5 1f3e
000000b0: 633e edbc b111 4dbe cc20 623e bdf4 53bd
000000c0: 3544 8f3e 6560 68be 5d43 33bd 8c6f 2cbd
000000d0: 3a97 b6bd 26e3 583e b681 bfbd 8b44 9fbe
000000e0: 89f8 19be e6a4 223d fce0 6abd 1193 dbbd
000000f0: f4a2 8a3c 83d2 38bd aa81 563d dc93 faba
00000100: 91ae 503e e00b 65bd 13b0 87bd 8dcc 7b3e
00000110: 243d 9abe 9dd0 153e 1ef9 60bc 8fe7 04be
00000120: fc8d e6bd f399 24be 85be 053e 92eb 183e
00000130: 2ffc 993e 0137 6fbe 11d5 113e a495 963d
00000140: f471 97bd d198 aa3d db5e a4be bb89 4ebc
00000150: 5ed8 b53e fdd7 5cbe 4df6 78be 0632 a03e
00000160: d9f1 2d3e 33f1 3e3e c91b 81be 8658 74bd
00000170: 2e61 e5bd e522 463e bc3e b3bd 489b f1bd
00000180: 3e85 e73d a21e 9e3e a72c ffbd 09b1 e73d
00000190: f0ef 1f3e db9a 273d 6431 29be 7d36 3d3c
000001a0: dfc7 e43d 96fd 3abe c2c3 633e 1a57 50be
000001b0: eddf a83d 3e94 9d3e d834 043e e3a5 063d
000001c0: ad5e e9bd a05a 12bd 3247 efbd 8fba fe3c
000001d0: 5937 9b3e 0125 a4be 2435 383e 2980 b7be
000001e0: 8b12 80be 14b3 3ebd 4373 183b 0ef6 d7bd
000001f0: 4d30 cf3d 6cf4 c2bd 7037 a3bd 8cba 02be
00000200: 6654 493e d686 65be 154f 523e 5ee7 2abd
00000210: 5557 37be e79b 9abd b51f 0e3e 0a0a bdbd
00000220: d568 f83d b930 843b 1430 e23d 6f36 8bbe
00000230: e3e2 df3c 1e76 9fbd 4f05 f7bd 7061 9b3d
00000240: 8ba6 ae3e 2696 fa3d cbf5 27bc 46ce e83d
00000250: 427b 18be cf4c 0fbc 5b4f b6bd aed3 e2bd
00000260: 46e9 84be 7eea 7cbe d4fa 4f3c 3fef 5e3e
00000270: 8217 973e 11ab 5cbd 4d88 473d c7e3 403c
00000280: 81c2 82bd 16e2 9e3d 11eb d4bb e7e1 62be
00000290: d105 8e3d 7402 9ebb 694a 373d 7bbd 5a3e
000002a0: 92ba b6bd 83fe dfbc 4ea9 69be 71a6 70be
000002b0: de7b ccbd 6e3c 623e 44d3 8fbd 85f1 ed3b
000002c0: bc02 263e 9a26 853d a466 83be 7b18 1e3e
000002d0: 9e12 3fbe 5cf3 4b3e 1567 333d 20e5 3abe
000002e0: ebcd 063e 67c3 04be 9b08 7bbb 9971 48be
000002f0: a4ba a13c e0f0 b4bb ea61 18be 8a9f 81be
00000300: 0366 b2bd 4557 443e 8293 87be 8cd7 b83d
00000310: 2e17 5a3d 3fb1 fcbd a028 fbbd 911a 9cbe
00000320: 06cf 7ebe bb61 42ba b3c0 143e f7ae b9bc
00000330: dca4 b73e 405c 34be efb8 25be d18c 363e
00000340: 603c 823e ac96 9dbc 291b d93c bee7 4ebd
00000350: 3315 bdbd 610b 99be 8d75 0cbe 27ab 073d
00000360: fa0d 8ebe bf0d a4be a415 26be 71cc c53d
00000370: bb8b c5bd 142e 1e3d 8a20 4c3e 4d9f a8bc
00000380: 1063 a73e a287 fb3a ddf5 8b3d a038 063e
00000390: 1eca 403d 9253 87be 8d62 a2be bfcd b1be
000003a0: b51f c93d 418a 89be 884a 2c3e d520 20bc
000003b0: cb8b 82bd 2d3f 78bd e36b 96bd 2c56 4fbe
000003c0: b883 2abc b0db 0cbe 98b8 a73e e6e3 03be
000003d0: 2989 4e3e 695f 6abe 6678 a13e f648 0c3e
000003e0: 89cd 1cbe 4f64 88be b1bd 35bd 2fa3 1b3e
000003f0: 97cb 5ebe 8479 7a3e ad73 813d 7fb7 c23e
0.10039717 0.2813247 0.076607764 0.033354793 0.19201279 -0.1504929 -0.25001448 -0.22487627
-0.013263708 -0.2358589 -0.16471589 -0.119769014 0.26238197 0.15698723 -0.21363392 -0.15825278
0.28472075 0.28069928 0.21269146 0.012725549 -0.16000667 -0.09258344 -0.27407765 -0.08170158
0.15252396 0.0025582227 0.08893998 0.2307353 0.10935898 -0.1796927 0.2749681 -0.06775591
-0.01837074 0.12033387 0.18461041 0.005533985 -0.09747527 0.26950276 0.11341293 -0.108290136
0.29425645 -0.10526392 -0.01014566 0.15596665 -0.028960412 -0.2002628 0.22082824 -0.051747072
0.27981725 -0.22693022 -0.043765415 -0.042098567 -0.08915563 0.211804 -0.09350912 -0.31106982
-0.15036215 0.03970804 -0.057343468 -0.1072141 0.016923405 -0.045122635 0.05236975 -0.0019117552
0.20379092 -0.055919528 -0.0662538 0.24589749 -0.30124772 0.14630361 -0.013731269 -0.12978958
-0.1125755 -0.16074352 0.13060959 0.14933613 0.30075213 -0.23360826 0.14241435 0.073527604
-0.07394782 0.08329929 -0.3210362 -0.01260608 0.35516638 -0.21566768 -0.24312706 0.31288165
0.16986789 0.18646698 -0.2521651 -0.059654735 -0.11200176 0.19349249 -0.087522 -0.11797196
0.11304711 0.30882746 -0.12459689 0.11313064 0.15618873 0.040919166 -0.16522747 0.011548636
0.11170935 -0.18260798 0.22242644 -0.20345727 0.082458355 0.30777162 0.12910783 0.032873046
-0.11395011 -0.035730958 -0.11683501 0.031094817 0.30315664 -0.32059482 0.17989022 -0.35839966
-0.25014147 -0.0465575 0.002326206 -0.10544978 0.101166345 -0.09519276 -0.07969558 -0.12766474
0.19661102 -0.22414717 0.2053798 -0.041724555 -0.17904408 -0.07549267 0.13879283 -0.092304304
0.1212937 0.0040341285 0.110443264 -0.27189967 0.027329868 -0.07786201 -0.120615594 0.07586944
0.34111437 0.1223567 -0.010251473 0.113674685 -0.14890769 -0.00874634 -0.089018546 -0.11075531
-0.25959224 -0.24698827 0.012694079 0.21770953 0.29510123 -0.05387408 0.04871397 0.011773056
-0.06384755 0.07757966 -0.0064977487 -0.22156487 0.06934703 -0.00482207 0.044748697 0.21361344
-0.08922304 -0.02734304 -0.22818491 -0.23500992 -0.09984563 0.22093365 -0.070227176 0.0072614574
0.1621198 0.06501503 -0.25664246 0.15439026 -0.18659446 0.19917053 0.04379948 -0.18251467
0.13164489 -0.12965165 -0.003830469 -0.19574584 0.019742317 -0.0055218786 -0.14881101 -0.2531703
-0.087108634 0.19173916 -0.26479727 0.09025487 0.053244762 -0.123384945 -0.12263608 -0.3048902
-0.2488366 -0.00074150757 0.14526634 -0.022666438 0.35867965 -0.17613316 -0.16183828 0.17827155
0.25436687 -0.019236885 0.026502209 -0.050513975 -0.09232559 -0.29891494 -0.13716717 0.033122208
-0.27745038 -0.32041737 -0.16219193 0.09658135 -0.09645792 0.038618162 0.19934288 -0.020583773
0.32692766 0.0019190202 0.06834004 0.13107538 0.047067754 -0.26430947 -0.31715813 -0.34727284
0.09820501 -0.26863292 0.16825306 -0.009773453 -0.0637432 -0.060607124 -0.073447965 -0.20247716
-0.010407381 -0.13755679 0.3275802 -0.12879905 0.2016951 -0.22887959 0.3153717 0.13699707
-0.1531278 -0.2663903 -0.044370357 0.15198968 -0.21757351 0.24460417 0.063208915 0.3803062

lstm.weight_hh_l1 f4 [64, 16]
00000000: 34df 67be b18a 88bb 23a5 1e3e 215c 6cbd
00000010: e527 22bd ca46 efbd 1336 153d 64fd 35be
00000020: 4df0 03be 10b3 51be 99fd 183e f6ee bbbd
00000030: ef24 ec3d b136 e33c 8ccb 9b3e 7a73 00be
00000040: c610 4a3e 7a06 2b3e 9462 353e 3554 2f3d
00000050: 3bde 763e 6e25 903d bc30 54be 396a 1cbd
00000060: b989 ecbd 8118 a23d cbae 57bd 140a dbbd
00000070: 57e4 393e 8665 9f3d d434 7abe 04cb a03d
00000080: 4222 94be 0356 09be 4342 8c3d 61d5 babd
00000090: d01a a03d 77b1 2fbd f670 f73d 491a 34be
000000a0: 548a 3bbd b1f0 8e3d b0a2 b4bd 9581 36bd
000000b0: 83c7 923e 4e58 5ebe e60c 9f3c aeed 37bd
000000c0: 9aab 86bd a415 883b 4a9e 3a3d 6e7d 653d
000000d0: 66fd 1cbd 79b1 563e 644d edbd 9e92 4bbd
000000e0: dcc6 65be c6f6 d93c 9793 0fbe 8f93 1f3b
000000f0: e0c7 b13d 51f7 1abe f6a5 2bbe d40c 27be
00000100: 5244 303d 4ef5 9d3c 107f 3b3a a1bd ef3d
00000110: 1f1e a5bd 6bb2 423e 0a60 8a3e b261 dd3c
00000120: dfbe 47be b417 b6bb 5907 a4be fedc 7c3e
00000130: 0130 88bd 0aa2 d8bd a9f8 81bd 9898 9a3d
00000140: feeb e23c e234 2ebd 188a f5bd abb2 593e
00000150: d1a6 dd3d 1222 f93d e760 b6bd f55c 3d3e
00000160: 8a38 ea3d 8a12 78be 0b72 61be a8e4 913d
00000170: a375 9ebe a745 dbbd 2755 d1bd 0ed5 923c
00000180: f4e6 4e3b c3f3 323e ad74 093e 77f2 6c3e
00000190: 46b9 103e ac7f 11bd 622b 53be 58ff b03d
000001a0: 9c9b b13d 695e 453e 0a9b 44b9 7b91 983c
000001b0: 4588 5bbe c3b9 b73d f9bc ccbd fe11 3c3e
000001c0: d89e 2f3e 1d36 a23d 7725 4e3c 4b2b 9cbd
000001d0: 35f9 d23c f87d 153e 6c41 673e 43ba 053e
000001e0: 35a4 9ebe 29a5 543e 1acb 803c e377 0dbd
000001f0: 20b7 83bd c2d7 b3bd 0983 4b3e 57c4 d3bc
00000200: 2849 023e 3890 433e 8adb 90bc f3fc 43be
00000210: 5f60 b0bd 9ea9 8dbd 5d1a acbd a00a 643e
00000220: 91ba 8c3e d572 bebd f999 f7bd 1790 c4bc
00000230: 8b19 1e3e a340 503e 0099 81be 1134 dc3d
00000240: 36df 42be 69c9 8c3d 6dd3 aa3e f5ad 3bbe
00000250: 612b f3bc 5123 153b 34b0 a8be b57d 7cbd
00000260: ea73 363c 303c 643e a4d7 ba3d 97da 1d3c
00000270: ffd5 35be ac5b ab3d 15d6 e53d 04a9 0e3d
00000280: 9a24 f0bc ff4a 6f3e a88e 603d 3dd7 06be
00000290: 9f9a 233d 7718 dabd 0b77 313c 9124 86bd
000002a0: d2b8 df3d 0609 2abe a71c ffbd 9a64 39be
000002b0: 45eb 84be 8d41 19be 0533 65bc 4742 a23d
000002c0: b740 9fbe e361 7d3d 32b2 05bc fae7 9e3d
000002d0: a6d3 5dbe 1cc4 633d 7832 38be d701 cdbd
000002e0: 1c3f 1bbe 0159 11be b752 d8bd 30ae 123e
000002f0: 5527 0d3e 2c44 9c3d b327 85be 9597 3d3c
00000300: ac1d 26bd 425f f43d 6e56 643e 1c2c 943d
00000310: 07ec ea3d df94 5a3e 31a1 2abd 524b 723d
00000320: 64bb 84be 4066 523e 4ba6 513d 11bf 863e
00000330: 0e50 0cbd d3b6 f03c ffa1 f4bd 984f 4fbe
00000340: 8f9e 8bbe 3417 513a 3c07 b33e 293c 0cbd
00000350: 7fcf 563e 1b3c 973d 84e1 303e 401c 1f3e
00000360: b215 5e3c 3197 4f3d 2937 6abe b7c1 abbd
00000370: 1049 be3d a8b7 383e 1452 8abc 410b 3c3e
00000380: 27f0 77be 97f4 913e 9ea0 ca3e ca1c 413d
00000390: 6674 943e ce3a bebd d171 1c3e fe10 343e
000003a0: 3739 75be a69c e3bd 6073 2a3e 40e5 14be
000003b0: f96c 85be f15a 3c3e d9f9 37b9 252e 54be
000003c0: 5c00 0d3e 097e 30be 7f1d 3c3e 522f 27be
000003d0: 20c2 34bc 74f8 e33e 640e 62be 5549 943c
000003e0: 3e44 efbd ae0f e1bc bc8f 80be 3765 e7bd
000003f0: 4034 883e 61bd 0bbe 6f5b 84be 01fd 0cbe
-0.22643739 -0.004166924 0.15492682 -0.05770505 -0.039588828 -0.11683424 0.036428522 -0.17772442
-0.12884636 -0.20478463 0.1494049 -0.091764376 0.11530482 0.02773604 0.3042873 -0.12544051
0.19732961 0.1670169 0.17713386 0.042804915 0.24108212 0.07038389 -0.20721716 -0.03818724
-0.11549706 0.0791483 -0.05265693 -0.106952816 0.18153511 0.07783036 -0.24434215 0.07851222
-0.28932387 -0.13411717 0.06848576 -0.0912273 0.07817614 -0.042893853 0.120820925 -0.17588152
-0.045786217 0.06979502 -0.08820093 -0.044557173 0.2866784 -0.21713373 0.01941533 -0.044904403
-0.06575699 0.0041529704 0.045561112 0.056027822 -0.038327597 0.20966138 -0.11587027 -0.049700372
-0.2243914 0.026606929 -0.14021145 0.0024349426 0.08680701 -0.15133406 -0.16762528 -0.16313487
0.043033905 0.01928201 0.00071524177 0.11706091 -0.08062386 0.19013374 0.27026397 0.027024124
-0.19506405 -0.005557025 -0.32036856 0.24693677 -0.06649781 -0.105777815 -0.06346256 0.07548636
0.02770042 -0.0425309 -0.1198923 0.21259563 0.10822833 0.121647015 -0.089052014 0.18492492
0.11436565 -0.24225822 -0.2201616 0.07123691 -0.30949125 -0.107066445 -0.1022132 0.017923858
0.0031570764 0.174758 0.13423415 0.23139368 0.14133176 -0.035522148 -0.20622018 0.08642453
0.08672258 0.19274296 -0.00018749773 0.018624058 -0.21438701 0.08970978 -0.09996981 0.18366238
0.17150438 0.079204775 0.0125821745 -0.07625445 0.025753597 0.14598835 0.2258355 0.13059334
-0.30984655 0.20766129 0.015721846 -0.03453816 -0.06431413 -0.08781387 0.19874205 -0.025850458
0.1272322 0.19097984 -0.01768281 -0.19139461 -0.08612131 -0.069171175 -0.08403466 0.22269678
0.2748609 -0.09299246 -0.12089915 -0.023994489 0.15439431 0.20337157 -0.25312042 0.107521184
-0.1903046 0.068743534 0.3336443 -0.18328078 -0.02968377 0.0022756646 -0.32946932 -0.06164332
0.0111360345 0.22288585 0.091231614 0.009634635 -0.17757414 0.083670944 0.112224735 0.034829155
-0.029314328 0.23368452 0.054823548 -0.13168044 0.03994238 -0.106491975 0.010831605 -0.06549943
0.109239236 -0.16605005 -0.12456637 -0.18104783 -0.25960746 -0.14966412 -0.013989215 0.07922798
-0.3110406 0.06186093 -0.008160161 0.0775909 -0.21662769 0.055606946 -0.17988002 -0.100101165
-0.15160793 -0.14194109 -0.105626516 0.1432426 0.13784535 0.0763019 -0.2600685 0.0115717845
-0.04055564 0.119322315 0.22298595 0.07234976 0.114708 0.21345852 -0.04165763 0.059153862
-0.25924218 0.20546818 0.05118398 0.26317647 -0.034256034 0.029384052 -0.11944961 -0.20245206
-0.27269408 0.0007976175 0.34966457 -0.03423706 0.20977591 0.07384511 0.17273527 0.1553812
0.013554977 0.050681297 -0.22872604 -0.083865575 0.09291279 0.1803881 -0.016884841 0.18363668
-0.24212705 0.2850692 0.39575666 0.047146596 0.28995055 -0.0928856 0.15277793 0.17584607
-0.23947607 -0.11113863 0.16645575 -0.14540577 -0.26059702 0.18394066 -0.00017545315 -0.20720728
0.13769668 -0.17235579 0.18370627 -0.16326645 -0.011032611 0.44525492 -0.22075802 0.018101374
-0.11682938 -0.027473297 -0.2510966 -0.11298602 0.26602364 -0.13646461 -0.25851008 -0.13768388

lstm.bias_ih_l1 f4 [64]
00000000: 0a14 a73d ae8a 84be 8e7c 5d3d 0461 c53d
00000010: a35b 4cbe e481 94be 01f4 bdbd 4ad4 aabe
00000020: 8446 923e 704f bebd c637 023e 1faf 31bd
00000030: e624 f53c 0ff7 be3d 35c6 fcbd 8c4c 4b3e
00000040: 1073 53be 077e acbe 01c5 883e 9c14 923c
00000050: 9817 143e 1a1a 733b 1ab0 0b3e 92c8 00be
00000060: 56e0 12be ff70 953c 4222 e3bc 08f3 19be
00000070: 3501 07be d0e5 2abe 85a8 32be 8746 0bbd
00000080: ade4 ec3c d63d fa3d 115c c0be ee5d 49be
00000090: 03fd 30be d67b a13d 2bbe 15be 6cfe 4b3e
000000a0: 90f5 093e 1c71 173e b36f 9e3b e5d1 2d3e
000000b0: fd97 813d 78cb 61be d29f 893c b046 843d
000000c0: 9119 213d 784d 8abe 2ca8 023e cede 69be
000000d0: 0b7a 893d 4207 383e c88c d3bd 0d74 aebe
000000e0: 5693 f43c fc7b e3bc 3d2f 913c f915 17be
000000f0: b559 d13d 0cc3 1dbe f793 2dbe dc01 38bc
0.08158119 -0.25887054 0.054073863 0.09637645 -0.19956832 -0.2900535 -0.09275056 -0.3336509
0.28569424 -0.09292495 0.12716588 -0.0433799 0.029924821 0.093244664 -0.123424925 0.19853419
-0.20649362 -0.336899 0.26712802 0.017832093 0.14462125 0.0037094415 0.13641396 -0.12576512
-0.1434339 0.018242357 -0.027726296 -0.15034115 -0.13184054 -0.16689229 -0.17447098 -0.034002807
0.028917635 0.122188255 -0.3757024 -0.19664738 -0.17284016 0.07884948 -0.14623325 0.19921273
0.13472581 0.14789242 0.004835093 0.169746 0.063278176 -0.22050273 0.016799841 0.06458795
0.039331023 -0.2701223 0.12759465 -0.228389 0.06712731 0.17971519 -0.10329586 -0.34072915
0.029855411 -0.027769081 0.01772272 -0.14754476 0.102221884 -0.15406436 -0.16950975 -0.011230912

lstm.bias_hh_l1 f4 [64]
00000000: cc6a 44be df28 3abe 7da8 923e de54 24be
00000010: 5abd 2d3e 9f96 12be cefe f3bd 18df cbbd
00000020: 7ef9 613d 76c6 343e c6b7 3bbe 1aea 0f3e
00000030: 8670 70be 61ac b53d 7dc9 dfba 98d1 e6bd
00000040: c2f3 9ebd 7a84 07be 0d47 80bd df30 103e
00000050: 133a fb3a fed4 babd 7fee 24be bb02 cabd
00000060: e2ce f6bd 89c6 94be 3528 3abd c267 393e
00000070: de1c 0e3e deab 64be 8825 3cbd f346 a1bc
00000080: 5efa 313e feea c4bd 116a 40be d38c 23be
00000090: d269 20be 5802 1dbe 6fd9 5c3e 1066 b33d
000000a0: 80cf bf3e 13ec 83bd 5d8d 37bd 75d0 2fbe
000000b0: 8e61 9cbd 8bf1 173e 02f3 54bd 2ff5 0b3e
000000c0: 6a0b 2d3d 0056 853d ee7c 7ebc 3ccc 143e
000000d0: 2858 ef3a 803e 48bd 835f 3c3e ce65 a7bd
000000e0: 8bb6 00be 6918 0fbe 115f 8cbd 17ab 2bbd
000000f0: 8540 93be 120d 95be f4e3 64be 7a30 3d3e
-0.19181365 -0.18179654 0.2864417 -0.16048 0.16966763 -0.1431527 -0.119138345 -0.09954661
0.055169575 0.17653832 -0.18331823 0.14054146 -0.23480424 0.08870769 -0.0017073598 -0.112704456
-0.07761337 -0.1323413 -0.06263552 0.14081143 0.0019167088 -0.09122656 -0.16106604 -0.09863802
-0.120511785 -0.2905772 -0.0454485 0.18105987 0.138782 -0.22331187 -0.04593423 -0.019687152
0.17380664 -0.09615134 -0.18790461 -0.15971689 -0.15665367 -0.15332925 0.2156732 0.08759701
0.37462997 -0.06441512 -0.04481255 -0.17169364 -0.076357946 0.14838235 -0.051989563 0.13667749
0.042247213 0.06510544 -0.015532715 0.14531034 0.0018260526 -0.04888773 0.1839581 -0.081737146
-0.12569635 -0.13974155 -0.0685407 -0.04191121 -0.28760162 -0.29111534 -0.22352582 0.18475524

lstm.weight_ih_l2 f4 [64, 16]
00000000: e3ae 4ebe 7bac 90bd 318c 80be e379 90ba
00000010: 2821 39be 5562 b53d 7106 3dbe 0ceb cdbd
00000020: efab 0cbd 9026 5a3e 1422 80be 88c8 70be
00000030: 9536 ab3e 8d79 71bd 880d 50bd fb02 51bd
00000040: 7b9e 5bbe f4f7 8dbc 9e89 64be f08e 733e
00000050: 29e2 4fbe 4797 14bd 8eeb 48be 26aa 14bc
00000060: 5f4f 483e 7b6c 863e 9696 1abe b276 63bd
00000070: 6b18 afbd 2d71 63be 3c36 093e c423 04be
00000080: fcd1 78bd c566 0bbd 9560 033e 0bec 7c3e
00000090: 95c6 823e 4c03 823e 921c 40be 3de6 72bd
000000a0: c668 95bd 3943 033e 5e75 d3bc 30ca a93d
000000b0: bfd5 31bd 6bdd 6ebe 2868 5d3e 768d c43c
000000c0: 77fc 7c3d 2384 d03c 3f38 473e 8bd9 29be
000000d0: 8586 80bd b949 bb3e ef1c 89be 9bbb 14be
000000e0: 1925 1b3e 5ff4 af3d cfe9 a1be e0e2 e0bb
000000f0: b145 2c3e de68 e53d b7de 57be 1511 c3bd
00000100: 1976 b83d 177c 4d3e e994 acbd ee91 813c
00000110: 5222 a8be c6f3 95be 1d1e aabd 83d6 503e
00000120: bfdf 903e 14c4 223d f3d8 2cbe bd5c 403e
00000130: c044 aa3d 1206 643b 8ff0 3b3d f2d7 d13d
00000140: 71d3 bdbd ef99 c2bc 5f7e a23e a337 4d3d
00000150: 5085 4fbc 41d0 b1bd df45 2b3e a808 80bd
00000160: 2752 dabd 84ce 1f3d 5f16 a2be 2550 4f3e
00000170: ebfa 1f3e 4e08 473d 1406 973d 3409 13be
00000180: 5ba0 7d3d 9ee8 9e3e b9ef 143e da6f d8bd
00000190: 112b 72bd 6481 95be 9dda 4abd 0db4 81bc
000001a0: 3a4a a4bd cee3 2b3d a5f1 37be c1b4 45be
000001b0: 206b 1fbe fd48 2abc 8e74 1b3e d665 f43d
000001c0: a44b 1a3e 3827 2a3e 4b9a d53d ba6c 473e
000001d0: 75b3 c1bc 5efc fb3c be69 60be 2915 40be
000001e0: e451 0d3e 6058 353e ab47 923e 3586 27be
000001f0: 3ddb 0cbe 1c18 b5bd d888 2e3e c365 6dbd
00000200: 2d1c e9bd de0d 94be 1ae6 ce3a 0cd8 c4bd
00000210: 04fc 8cbe 428a 323e 9632 fdbd bd7f 8bbe
00000220: da5c 3e3e 700a 85bc 5bc8 36be 8914 14be
00000230: 8261 343d 0d32 d1bd 9cf5 713d 47c8 41be
00000240: 601a bbbd 2a1b 513e e4ee 723e 6dd4 c5bc
00000250: 96c8 653e 8841 0b3e 97fc 4ebe 3947 973e
00000260: db5d 323e dd85 45bd 6d01 5a3e 1e41 8a3d
00000270: 1186 7dbd e1aa 0bbe fb38 e93d 974a 843c
00000280: 8c0b 20be 375b 5d3e f533 1b3e 65ae c6bc
00000290: 34b6 08be 246c 8fbe 8e2d 313e 92ed 683d
000002a0: 4616 99bc f636 9ebd 0445 4a3c e14e fe3d
000002b0: cc1c 1db9 7ffa 86bd 435a 03be f010 423d
000002c0: b098 64be 4afc 17bd 3fe4 933e 30cd 803e
000002d0: 07ee 063e f2c4 6f3e fa17 17bc bd93 ae3d
000002e0: 1a10 293e 4f35 bf3c e6c7 e13d d707 513d
000002f0: 1f7b 8b3d bd1f a03d cc7d 733d 6c1c 2ebe
00000300: 2f1e f5bd 4ff5 e23a 71be 343e 264b 12be
00000310: 4288 e13c 33c5 983e 09e7 b93d fbf4 89bd
00000320: be88 e6bc 96c3 47bd c4ec 793e 82d5 323d
00000330: f3da e5bd f72c 64be 7160 b3bd 696d fa3d
00000340: 9519 f5bd b384 8b3d a13c 65bc 04fb 65bd
00000350: e715 de3d b8dc 1d3e a79d 23be f2bd cc3c
00000360: 34e6 153e 451c e7bd ba30 473d e845 423d
00000370: 4403 98bb f64b d6bd 6ba3 4c3d 22a7 4abe
00000380: 8bf3 83be 2992 84be af4f 53bc 0541 78be
00000390: c3d6 043e c9b9 b53d 5977 6dbe d04f 11be
000003a0: 477e 5cbe b439 143e 3df6 a2be 1fdc ae3c
000003b0: 8f2a 023e 740b 90bd 8893 9dbc 99f7 713d
000003c0: 9eb2 34be 067d 8f3c 77f5 b53e 13e3 de3d
000003d0: 002c 983e 1d0a 5a3e 8638 32be d753 d5bd
000003e0: 7c5c 653c 2d7b 043c 4c3e 923e a16e 713e
000003f0: a330 ecbd 9587 043e 634f e9bd 398c 8a3d
-0.20183901 -0.07064148 -0.25106958 -0.0011022653 -0.18079054 0.08856646 -0.18459488 -0.10054597
-0.034343656 0.21303773 -0.25026 -0.23513997 0.3344008 -0.05895381 -0.050794154 -0.051028233
-0.21447174 -0.017330147 -0.22318122 0.23784995 -0.20301117 -0.03627708 -0.19621107 -0.00907377
0.19561528 0.2625464 -0.15096506 -0.05553312 -0.08549579 -0.22211142 0.13399595 -0.12904269
-0.06074713 -0.034033556 0.12829812 0.24699418 0.2554213 0.2539314 -0.18760899 -0.059301604
-0.072953746 0.12818612 -0.025812801 0.08290517 -0.043416735 -0.23326652 0.21621764 0.023993235
0.061764207 0.025453633 0.1945505 -0.16586892 -0.062756576 0.36579683 -0.26779887 -0.14524691
0.1515087 0.08591532 -0.31623694 -0.006862983 0.1682346 0.112016425 -0.21081053 -0.095247425
0.090069 0.20066868 -0.0842684 0.015816655 -0.32838684 -0.29287547 -0.08306525 0.2039433
0.28295705 0.039737776 -0.16879635 0.18785377 0.08313894 0.0034793657 0.04588371 0.102462664
-0.09268845 -0.023755042 0.31737038 0.050101887 -0.0126660615 -0.086822994 0.16725872 -0.06251651
-0.106602006 0.039015308 -0.31657693 0.20245416 0.15623061 0.048591904 0.07374206 -0.1435898
0.061920505 0.31036848 0.14544572 -0.10568209 -0.059123103 -0.2920028 -0.049524892 -0.015832925
-0.0802197 0.0419653 -0.17963274 -0.19307233 -0.15568209 -0.010393378 0.15181181 0.11933486
0.15067917 0.16616523 0.1042982 0.1947507 -0.023645142 0.030759986 -0.21915337 -0.18758072
0.1380077 0.17709494 0.28570303 -0.1635979 -0.13755508 -0.08842489 0.17044389 -0.057958376
-0.11382327 -0.2891683 0.0015785128 -0.0961152 -0.27536023 0.17435554 -0.12363164 -0.27245894
0.18590108 -0.016240329 -0.17849867 -0.14460959 0.044038303 -0.102146246 0.059072122 -0.18924056
-0.0913589 0.20420519 0.23723942 -0.024149144 0.22439799 0.13599217 -0.20213543 0.29546526
0.17418616 -0.048223365 0.21289606 0.06750701 -0.061895434 -0.13639404 0.11387821 0.016148848
-0.15629405 0.21616827 0.15156539 -0.02425308 -0.13350755 -0.28012192 0.17302534 0.05686719
-0.018687379 -0.07725327 0.012345556 0.12417389 -0.00014983414 -0.06590747 -0.12827401 0.047379434
-0.2232387 -0.037105836 0.28885075 0.25156546 0.13176738 0.23414972 -0.009222025 0.085242726
0.16510049 0.02334085 0.11024456 0.051032867 0.06810593 0.078185536 0.05944614 -0.1700303
-0.11968648 0.0017315539 0.17650773 -0.1428648 0.027530793 0.2983795 0.090772696 -0.067361794
-0.028141376 -0.04877051 0.24406725 0.04366065 -0.11223402 -0.22282778 -0.08758629 0.122278996
-0.1196777 0.0681242 -0.013991506 -0.05614759 0.10844021 0.15416229 -0.15978108 0.024992917
0.14638597 -0.11284689 0.048630454 0.04742995 -0.004639061 -0.10463707 0.049960535 -0.19790319
-0.25771746 -0.2589276 -0.012897416 -0.24243553 0.1297255 0.08873326 -0.23190059 -0.14190602
-0.21532546 0.14475137 -0.3182849 0.021345196 0.12711547 -0.070334345 -0.019235387 0.05907402
-0.17646262 0.01751567 0.35538837 0.10883155 0.2972107 0.2129292 -0.17404374 -0.10416382
0.013999101 0.008086008 0.28563154 0.23577358 -0.11532714 0.12942345 -0.11392095 0.067650266

lstm.weight_hh_l2 f4 [64, 16]
00000000: 23bd 15be e11a ad3e 6f8d 4b3e f219 86be
00000010: b6ed c43d 2085 71bd e635 40bd d5da 943b
00000020: c123 5f3d 6c65 54be 6093 753e 4f2f 0cbe
00000030: 870a 1ebe d354 9abd 2501 493c 1d41 44bd
00000040: 0240 9fbd 8ddf 6e3e 49dc b13d 2f5d 60be
00000050: a7f6 ecbd f785 10be ae98 2c3d d247 35be
00000060: 4535 873d 79d0 9f3d fd42 c63d dd18 7bbe
00000070: 859c 92bd b854 7f3e efb8 1cbe e3d1 7c3c
00000080: e4b3 fd3d 6dc1 973d c99f 0ebe ad25 8d3c
00000090: 085b 2c3e f5b7 a5be fd36 913d 9317 b0bd
000000a0: b072 673e 105e 73be bb64 9d3c e586 68be
000000b0: feb9 02be 5d25 123e 7cda 533d 70cf 0d3e
000000c0: 368d e03c 1e78 303e b246 953e 11ad 41be
000000d0: 5ed4 eabd f7ec 8bbe 8d95 263e 368f b93d
000000e0: f1e2 65be e957 8e3e 40ed 55bd 95d9 913d
000000f0: fb05 90be 4e73 3d3e 43a8 713d aac4 9f3d
00000100: 3249 04be fd02 57bd 4e90 243e 995e 8b3d
00000110: aa68 cc3d 75f1 efbd 2075 5d3b c57b 323e
00000120: 5c95 55be 9fb5 3fbe 8ef4 813e dafa 97bd
00000130: 9079 3dbe a8c9 1d3e bd04 c2bd a503 073e
00000140: 5d73 23bd 5a20 5837 b0c2 543e a631 8bbd
00000150: fd64 1e3e 074b 4dbe 78f9 a93e 3912 a5be
00000160: b308 9cbd e321 b0bd 61d7 1b3e 2a5a 85bd
00000170: ddd3 8b3d 04a7 59bd 243f 93be c0b9 4c3d
00000180: 3399 7abe 3b97 913e 950d 893e e393 563e
00000190: b2e9 1f3e 2f23 f7bd de09 fdbc fa32 6fbe
000001a0: 4ea8 33be 3e56 6a3e e29d 553e 41b2 013e
000001b0: 7aac 95bd c4bf f43d 95bc 29bd bdff 95be
000001c0: 6611 353e 4a3c 263e a8d0 153e 3161 1c3e
000001d0: a0b5 f8bd f51f f5bc 6f02 d33d 69db 11be
000001e0: 579a b23d 3997 893e b15a e2bc 6b00 6c3e
000001f0: 6df8 d8bb f0b5 27be c6c6 4f3d b3b0 6abd
00000200: aea6 bcbd d1d5 183d e5c4 a9bd 90bb 9e3b
00000210: 35ed 4d3e d182 773d 0018 4e3c cacb 333e
00000220: bed0 03be ab57 abbd f0e8 033e 4056 59be
00000230: b9e3 3b3d c6aa b639 9fe7 44bd e5ea 233e
00000240: aa1d 953d 9b38 893e 17a3 083e 056e 6f3e
00000250: df32 21bd 66d4 893e 2ac4 2dbd 2ea6 493d
00000260: e344 283e 53fc 85bc db93 a93d 4d37 903d
00000270: b027 78bd cf77 eebd 92bc 70be 2188 f03d
00000280: 51e6 113e 8ab6 fdbc c73a d1bc 8d13 22be
00000290: f323 f73d 40d3 9b3d 550e b03d 5bcd 453e
000002a0: f75e 37bd 85ad 333e fb05 55be 6784 0d39
000002b0: 855a 2abe 8dbe 1a3e 86cd 693d bdc4 9d3d
000002c0: f43d 4fbd 66c4 7b3e d1f8 18be b023 c53d
000002d0: e47a 1cbe 8069 9c3c 66fe 87bd 7df4 d0bd
000002e0: c729 2c3e d087 b33d 90c9 c63d ab59 06be
000002f0: e4f3 4ebe 5f46 063d c281 4cbd c422 4fbe
00000300: 36f4 53be 97b6 cabc e70c 7bbd 1aad 1bbe
00000310: 4649 63be 09ee 993d 2167 ba3c 7623 15bd
00000320: b3fe db3d 8019 583e 5edc 833e 03fc 0dbe
00000330: 4ad4 86be 3e35 733d 3780 dbbc d500 973e
00000340: 6465 72bd 7698 2c3e e424 1e3e 95c3 643e
00000350: bfa6 16be 06a7 6b3e 38aa 813e f405 2dbe
00000360: ea2d 763e 29bd 083e f405 84be 3d76 41bd
00000370: ef83 07be f115 8cbe 9e71 2b3d bcc5 7f3b
00000380: 072d 033e f0c0 883e 31ce 9a3e 7b9b 1dbe
00000390: 2dca 84bd 2a93 973d 221e 36bb c7c1 9a3d
000003a0: b420 213e 4438 403e f114 983c d0cf 16be
000003b0: e135 273e 6a24 31bd b11f 6fbe 656e ae3c
000003c0: be6d ff3c 733e 6d3e 3903 243e 2633 233e
000003d0: 9ac5 543e 3973 18be cd4f 0ebe a0be 45be
000003e0: 8c41 14bb e32f 0ebe daac 20be 4fbb 73bb
000003f0: 75eb 28be a63b de3d b663 afbd 35be d6bd
-0.14622931 0.3380957 0.19878171 -0.2619167 0.09615652 -0.05896485 -0.0469264 0.0045426884
0.054477457 -0.20741814 0.23982 -0.13689922 -0.15433703 -0.0753571 0.012268339 -0.04791366
-0.077758804 0.23327465 0.08684594 -0.21910547 -0.11570483 -0.14113604 0.042137794 -0.17703179
0.06601957 0.07803435 0.09680746 -0.24521203 -0.0715876 0.24934661 -0.15304922 0.0154309
0.12387827 0.0740994 -0.1392814 0.01722988 0.168316 -0.3236691 0.07090566 -0.085982464
0.22602344 -0.23766351 0.019213071 -0.22707708 -0.12766263 0.14272065 0.051722035 0.13848662
0.027411085 0.17233321 0.291555 -0.18913676 -0.11466287 -0.27329227 0.16267987 0.090605184
-0.22449853 0.27801445 -0.052228212 0.071215786 -0.28129563 0.18501016 0.058998358 0.078011826
-0.12918547 -0.052493084 0.16070673 0.068051524 0.099809006 -0.11715976 0.0033791736 0.17430027
-0.20857757 -0.18721627 0.25381893 -0.07420893 -0.18503404 0.15408957 -0.0947356 0.13184984
-0.03990494 1.2882136e-05 0.20777392 -0.06796579 0.15468211 -0.20048152 0.33198142 -0.32240465
-0.07618847 -0.086002134 0.1521888 -0.06511338 0.06827519 -0.053137794 -0.2875911 0.049981833
-0.24472503 0.28435692 0.26768175 0.20954852 0.15616491 -0.120672576 -0.030888494 -0.2335929
-0.17544672 0.22884461 0.20861009 0.12665655 -0.07308288 0.11950639 -0.04143961 -0.29296675
0.17682418 0.16233936 0.14630377 0.1527145 -0.12144017 -0.029922465 0.103031985 -0.14243855
0.08720844 0.26873186 -0.027631136 0.23047034 -0.0066214115 -0.16377997 0.050726674 -0.05729742
-0.09211479 0.037313286 -0.08289508 0.0048441365 0.20110019 0.06042749 0.012578964 0.17558208
-0.12872598 -0.08366331 0.12881827 -0.21224308 0.04587147 0.0003484098 -0.048072454 0.16007574
0.072810486 0.26801 0.13343464 0.23381813 -0.039355155 0.2691986 -0.042423405 0.049230747
0.16432528 -0.01635567 0.08280154 0.07041798 -0.060584724 -0.116439454 -0.23509434 0.117447145
0.14248015 -0.03097083 -0.025540723 -0.1582777 0.12067404 0.07608652 0.085964836 0.19316618
-0.0447683 0.17546661 -0.20803063 0.00013496132 -0.16636093 0.15111752 0.057080768 0.077035405
-0.050596192 0.24586639 -0.14938666 0.096259475 -0.15281254 0.019093275 -0.066403195 -0.102028824
0.16812812 0.087661386 0.09706414 -0.13120143 -0.20210224 0.032781955 -0.049928434 -0.20228106
-0.20698628 -0.024745269 -0.0612916 -0.15202752 -0.2219592 0.07516105 0.022754254 -0.03641077
0.107419394 0.21103477 0.25754064 -0.13865666 -0.2633384 0.059376948 -0.026794536 0.29492822
-0.059178725 0.16855034 0.1544376 0.22340234 -0.14712046 0.23012933 0.2532518 -0.16896802
0.24040952 0.13353409 -0.25785792 -0.0472319 -0.13233922 -0.2736049 0.0418564 0.003902777
0.12810145 0.267097 0.30235437 -0.15391342 -0.064838745 0.07401116 -0.0027788957 0.07556491
0.15735132 0.18771464 0.018564673 -0.14727712 0.16329147 -0.043247618 -0.23351933 0.021292875
0.031180259 0.23168354 0.16016854 0.1593748 0.20778504 -0.14887704 -0.13897629 -0.19310999
-0.0022622077 -0.13885455 -0.15690938 -0.0037190502 -0.1649607 0.10851221 -0.0856394 -0.10485498

lstm.bias_ih_l2 f4 [64]
00000000: 1417 593d 006d 803d 7475 fa3d a8e2 05be
00000010: 414c a83e f294 a63c f7dc 5f3e eb87 7a3e
00000020: f032 e63c 3d55 443e ed7a 3a3e cf9a bfbd
00000030: 6238 5ebd b1a7 853d edf9 0ebd fe6c 51be
00000040: 32fd 85bc 3692 9cbd 27ac 1d3c 560f efbd
00000050: 4521 0e3e 5617 a8bd 6279 0fbe 57b8 043d
00000060: e54d 37be fa2b d53c 31ff 1abe 4e2e dcbd
00000070: 01ce 84be a2db 863d dbd5 fc3c 4cfc 9fbe
00000080: 11f1 213d c9e1 c6bd c111 6fbd 7e6a efbc
00000090: 1598 86be 9dae 923c 82d1 17be 2892 ac3d
000000a0: 0b10 97be 441b 79be 5673 96bd 6c71 11be
000000b0: 1486 4e3c 112b 343e 4686 6e3e e704 25be
000000c0: 6166 5dbe ea77 d93d a9dc e2bb 2210 33be
000000d0: b1d2 813d 5179 7fbe 25e7 503e 17cd 07be
000000e0: 5315 5d3d 95ba 493d fe4b 6dbe b7a9 3fbe
000000f0: 54ce 85be d3cd 783e 37fc 153d 41e4 93be
0.053000525 0.0627079 0.12229434 -0.13074744 0.32870677 0.020334695 0.21861635 0.24465911
0.02810046 0.19173141 0.18210955 -0.09355699 -0.05425299 0.06526125 -0.034906317 -0.20451733
-0.016356084 -0.07645075 0.009623564 -0.11672847 0.13879879 -0.08207576 -0.14011148 0.032402363
-0.17900808 0.026021946 -0.1513641 -0.107510194 -0.25938419 0.065848604 0.030863693 -0.31247175
0.03953654 -0.09711034 -0.05836654 -0.029225584 -0.26287904 0.017905528 -0.14826015 0.084263146
-0.29504427 -0.24326807 -0.07346217 -0.14203423 0.012605209 0.17594554 0.23293409 -0.16115151
-0.21621086 0.10618575 -0.0069232774 -0.17486623 0.06339014 -0.24948622 0.20400675 -0.1326183
0.053975414 0.049250204 -0.2317352 -0.18717085 -0.26133978 0.24297266 0.036617484 -0.2888508

lstm.bias_hh_l2 f4 [64]
00000000: b8da 2a3e d08d 8a3c a24f dabd 69aa 33be
00000010: c856 883e dcf9 84be 25db e23d 1c51 e93d
00000020: 3cac 0ebd 4359 1fbe a5d7 673e a832 97bd
00000030: 72a3 43be 601c 2bbd 21c5 44be c825 33be
00000040: c866 a33d b994 03be a181 0b3e b66f 8b3d
00000050: 9266 2a3e 5e58 ed3d 90fc d83c 4520 79be
00000060: b4b4 f8bd e25d 303e 5461 843a ccaf 99bd
00000070: e609 1d3e 9815 84bd 9640 533e 3e17 ebbc
00000080: 010e 9a3e 7010 013b 2cd2 203e 1db1 26be
00000090: d490 52be c4ba 193e 558a ebbd efbd 4c3e
000000a0: a0d3 5abe ffd1 2e3e 31eb 5a3e ca74 723d
000000b0: 04a5 c73d cb41 6e3d 6094 373e c375 7bbd
000000c0: 5679 bebd 65b7 1ebe 614d 4abe 63a8 173e
000000d0: 05a8 643d 9489 8ebe ee2c cabd fac9 b8bd
000000e0: 127f f4bd 6ea9 ccbd 5b2b 17be 7033 2d3e
000000f0: e56f 643a 9f2d 9c3c 708b 91bd 2b5c 3e3d
0.16684997 0.016913325 -0.1065972 -0.17545475 0.2662871 -0.25971878 0.11076955 0.113924235
-0.034832224 -0.15561394 0.22640856 -0.07382709 -0.19105318 -0.041775107 -0.19215824 -0.17494881
0.07978588 -0.12849702 0.13623668 0.068084165 0.1664069 0.1158912 0.026487619 -0.24328716
-0.121438414 0.17223313 0.0010099807 -0.07504234 0.15335807 -0.06449431 0.20630106 -0.028697606
0.3008881 0.0019693635 0.15705174 -0.16278501 -0.2056306 0.15012652 -0.11500994 0.19994329
-0.21369791 0.17072295 0.21378781 0.05919341 0.09748271 0.058168214 0.17927694 -0.061391603
-0.09300487 -0.15499647 -0.1975608 0.14810328 0.0558243 -0.2783934 -0.09871851 -0.09022899
-0.11938299 -0.09993254 -0.14762633 0.16914153 0.00087141834 0.019064723 -0.07106674 0.046474617
