models/current_direction_lstm_model.pth (torch, 280977 bytes, 5 tensors)

lstm.weight_ih_l0 f4 [512, 5]
00000000: dcc5 f7bf e614 a641 d384 2041 d41e ca40
00000010: d8be 6b40 d6db b5c0 1436 0441 d79b 3c40
00000020: bb07 47c0 9e86 d1c0 d422 4241 7e52 9140
00000030: 7895 23bf 6639 5c40 e86b e8c0 91a9 8841
00000040: 292b 8bc0 f4fd 0d41 2d3f 29c0 6f69 b5c0
00000050: c485 76c0 7855 75c1 ac2e bac0 23b5 0c40
00000060: 7fc3 5840 3b36 f1c0 d991 75be b21b 1240
00000070: 86d0 8d3f 14e2 3340 62d1 17bf 5d8a f7c0
00000080: 09b5 11c1 b4b8 6740 c365 8740 09a5 42c1
00000090: 4107 b2c0 fe86 d640 0fe7 4541 7260 1040
000000a0: 16ce 0941 5d79 66c0 8294 0541 dd12 e4c0
000000b0: 6496 9441 f453 a8c0 d72c 7141 b999 59c1
000000c0: 81e0 14bf 6ffd 45c0 ce4c 3141 ef8d 3640
000000d0: f37b 3041 3c94 26c1 fe64 3741 83b3 b941
000000e0: 34fb 8240 ac85 6141 382b f240 05f7 7d41
000000f0: af16 9841 db8e 01c1 c30c 2141 b206 ef40
00000100: efe9 bec0 7637 393f 9aa9 0d3f 4673 2a40
00000110: 340f 24c0 bfcb fdbf 16dc 8940 47e5 20c1
00000120: 76dc a1bf 235c 903f 09b8 40c0 e8d2 0241
00000130: dcd5 3c40 260c 6740 408c 06c0 c418 d640
00000140: 3eaa d540 81b5 42bf 9e4d 3e40 2f5e bf40
00000150: bbf5 bcc0 0b79 f140 12ea cebf e0db 38bf
00000160: 8ca0 6840 f9d3 0dc1 4cd0 5cc1 d107 07c1
00000170: b1c2 5841 d65c 0f40 ac30 8341 c392 a9bf
00000180: 55c8 28c1 166f 18c1 0e9f e13e f5d5 1a40
00000190: e5b8 7c41 8df0 8340 9821 e840 0762 00c1
000001a0: 1fb4 0f40 eb0c 983f a173 f33f e711 4141
000001b0: 6811 a3c0 0acb b840 1db8 b740 7aaf 8a41
000001c0: 6513 a841 1866 97c0 7e62 4641 90d6 4840
000001d0: aba3 90c0 0ab7 98c0 02bd bb40 eab0 9cc0
000001e0: 62e2 50c1 fc08 99c0 1888 7440 2905 6541
000001f0: d5b1 80c0 8f61 d2c0 abd2 a5c1 094b 8ac0
00000200: 9a02 7e41 bc48 55c1 47b3 c1c0 2357 85c1
00000210: 0d4e 06c1 db36 9340 3021 5fc1 2f21 7940
00000220: cb1a 8741 4256 7ec0 6e67 4fc1 fec4 4041
00000230: 8251 8140 3d58 36c1 b13e 2141 41f8 10c0
00000240: 21fe 4541 a57d 8141 4a57 16c0 541b 4d41
00000250: 8358 173f 6f36 9041 90e5 4341 095f 25c1
00000260: 8fca 5a3f 0613 54c1 2074 5b41 9f20 02c1
00000270: d8c9 5bc1 e9e6 b7c1 02d9 ad3e 59da 3fc0
00000280: ae55 24c0 a478 cd40 5695 32c1 57c9 81be
00000290: 8f9e 9e3f 4285 18c0 5059 6541 7465 1bbe
000002a0: 7689 fdbd 187e 9e40 c748 b8bf 92e0 7040
000002b0: 1b23 1041 c529 9b40 53e2 3f3f e65b 11c0
000002c0: c719 0e41 4958 5cc0 8ed7 fe3f f322 65c1
000002d0: a7dd 72c1 2e44 edbf ce1f 8cc0 ee10 3941
000002e0: 8917 a63e a4ca 97be 4760 e9c0 4660 3541
000002f0: 52da a940 dc10 2b40 3c64 63c1 3177 f4c0
00000300: 4cf1 34c0 dee8 9141 437d 2dc0 e127 b3c0
00000310: 4727 3241 9db6 84c0 3993 4641 4415 6cc1
00000320: db9a c7c0 fd0c 5540 ec55 8fc0 63e0 2e3f
00000330: 1de7 2cc0 5c3d 8bc0 4f56 2a41 c28b e3bf
00000340: 7d99 b8c0 5127 703f 2783 8a40 439a a441
00000350: 5e18 2a41 6da4 72bf ef1b f040 fc81 0541
00000360: 2a8d dec0 7053 0ec1 a808 65c0 043c 9dc0
00000370: bde7 9040 68e6 3240 d970 e640 b2b2 aac0
00000380: 65f5 c1bf cbe2 ca3e 85a1 6c40 1393 0341
00000390: f384 a7bf bd2c fc40 14b4 3041 0415 1bc1
000003a0: 603e dc40 6ae0 72c0 9067 c140 e0c0 6b41
000003b0: 356a 2e41 1f1d 29c0 2fff bcc0 9c80 d940
000003c0: 1462 d540 a248 97bf 140c b440 7e4d 92c0
000003d0: 059f 0b41 b2f6 3441 5e99 2241 e7f9 4241
000003e0: 92a2 97c0 af8c 7f3f 082f 2dc0 ba01 96c0
000003f0: d5f9 4a40 3c0b f53f 76d2 f93f 03b3 64be
-1.9357257 20.760204 10.032428 6.316263 3.6835232 -5.6830854 8.263203 2.9470117
-3.1098468 -6.547683 12.133503 4.54132 -0.63899946 3.4410033 -7.263172 17.082796
-4.3490186 8.8745 -2.644481 -5.6691203 -3.8519144 -15.333366 -5.8181973 2.1985557
3.3869321 -7.53787 -0.23981418 2.2829404 1.1079261 2.8106737 -0.5930387 -7.73564
-9.106698 3.6206484 4.231172 -12.165292 -5.5633855 6.7039785 12.368911 2.2558866
8.612814 -3.6011574 8.348757 -7.1273026 18.573433 -5.260248 15.073447 -13.60003
-0.58155066 -3.0935934 11.081251 2.852413 11.030261 -10.41119 11.462156 23.212652
4.0931644 14.095135 7.5677757 15.8728075 19.011076 -8.097377 10.065616 7.4695673
-5.9660563 0.7235025 0.55336916 2.6632857 -2.563428 -1.9827803 4.308116 -10.055976
-1.2645404 1.1278118 -3.0112326 8.176491 2.950553 3.6101165 -2.1023102 6.690523
6.6770315 -0.76058203 2.9734874 5.980247 -5.9049964 7.5460258 -1.6165183 -0.722105
3.634799 -8.864251 -13.800854 -8.439408 13.547532 2.2400413 16.398766 -1.3247913
-10.548909 -9.527121 0.44066662 2.419309 15.79514 4.123114 7.254101 -8.023932
2.2453687 1.1878942 1.9019662 12.066871 -5.095875 5.774785 5.741225 17.335682
21.00947 -4.7312126 12.399046 3.1380959 -4.519979 -4.7723436 5.8668222 -4.896596
-13.055269 -4.7823467 3.8208065 14.31376 -4.021708 -6.574409 -20.727865 -4.3216596
15.875635 -13.330257 -6.0531344 -16.667547 -8.394055 4.600446 -13.945602 3.8926504
16.888083 -3.9740148 -12.962751 12.048094 4.0411997 -11.396543 10.0778055 -2.2651522
12.374543 16.18635 -2.3490777 12.819172 0.59119433 18.026579 12.243546 -10.335702
0.8546533 -13.254644 13.715851 -8.132964 -13.736778 -22.98775 0.33954626 -2.997702
-2.5677295 6.4209766 -11.161459 -0.25348923 1.2392138 -2.3831334 14.334305 -0.1517542
-0.12379734 4.9528923 -1.439721 3.7637067 9.008571 4.848849 0.7495472 -2.271234
8.881293 -3.4428885 1.9909532 -14.321033 -15.179114 -1.8536432 -4.3788824 11.566633
0.3243983 -0.2964679 -7.2930026 11.336004 5.3079004 2.672904 -14.211971 -7.6395497
-2.8272276 18.238705 -2.7107704 -5.598618 11.134589 -4.1472917 12.410943 -14.755192
-6.2376533 3.3289177 -4.4792385 0.68311137 -2.701606 -4.35124 10.646071 -1.7777026
-5.7687364 0.9380999 4.32851 20.575323 10.630949 -0.94782144 7.50341 8.344234
-6.954732 -8.8953705 -3.5786533 -4.913576 4.5282884 2.795313 7.2012753 -5.3343134
-1.5153013 0.39626154 3.6973584 8.223407 -1.3087448 7.880461 11.043964 -9.692631
6.882614 -3.7949471 6.043892 14.734589 10.900929 -2.6424024 -5.9061503 6.7969494
6.6682224 -1.1819041 5.6264744 -4.5719595 8.726323 11.310228 10.162443 12.186011
-4.738595 0.9982404 -2.7059956 -4.687711 3.1714985 1.9144053 1.9517353 -0.22333913

lstm.weight_hh_l0 f4 [512, 128]
00000000: a76f c040 3ce7 ccc0 d5be 1b41 018a 18c0
00000010: d7a0 6041 fe83 bcc0 2ed7 5fc1 782f 94c0
00000020: 55be 57c1 979d a540 f716 1ac1 cca4 94c0
00000030: 6644 8ec0 40af 7a41 362b 8d40 86e8 d440
00000040: 5274 0440 f24b e4bf 9d1e 09c0 4d84 0ec0
00000050: 6fc8 1a41 f39f ab40 bfb2 23c1 7f19 cb40
00000060: 07e5 ad40 7a21 fd40 574a 48c0 d17a 7740
00000070: 605e 1041 e13b 7a41 c22f 47c0 9ad9 cdc1
00000080: e081 b640 1262 95bf 9a5b 88c0 51c3 2f41
00000090: 46c5 d7c0 d58d 4dc1 1577 8e41 7bdc 3441
000000a0: 2f09 1841 9a56 f0be d8ce a4c0 f005 2ac1
000000b0: 6c8a b640 9c89 ca40 fde7 28c0 bc7f 4d41
000000c0: eae8 64c1 5759 293e 9aca 5e40 e700 c3c0
000000d0: ddae 2640 c206 aac0 38ad 3fc1 880a 0bc0
000000e0: d445 7640 63e5 0f41 7fc9 9ac1 c164 ce40
000000f0: 7c7e 58c0 d2f3 0741 57e2 5d41 93b1 99c1
00000100: de76 5ec1 a7d6 05c1 052a f5bf 37f6 8d41
00000110: 0720 5fc0 9b5e 9c40 be02 41c0 ed04 013f
00000120: bca5 2c40 797a eb40 2253 5bc1 1370 dac0
00000130: 2a0f 3e40 d857 833f c0b0 dfc0 2fe1 d8bf
00000140: 9949 573e f6fc 5ac1 bdfd 0042 d2aa b7bf
00000150: d4b8 8c41 a2c6 c140 870c 0b41 96a8 9a40
00000160: d2df 3c40 ecf6 4cc1 70fd a1c1 5d88 0740
00000170: b153 6c41 7a60 5540 b937 1ac1 406f ce40
00000180: 6829 95c0 6c9c 1941 cab6 b940 8cde 1b41
00000190: e980 50c1 3195 e03f 18f6 80c0 15f9 dfbd
000001a0: 59aa cec0 8fe9 f83f 64b4 9941 239a 82c0
000001b0: 8b11 8340 8dce 6540 6095 5141 b344 09c1
000001c0: f71e 3040 a95b 8e41 b0d1 a740 a00e b53f
000001d0: d9ec 83c0 167e 003f f0a2 8e41 28b1 05c0
000001e0: 6a33 fb40 d688 a9c0 936a 26c0 9a2b 8bbf
000001f0: a799 1041 a7a4 dd40 826b 0fc1 7801 6440
00000200: 22a0 2b41 c08c 0cc1 9288 783f 11ba 99c0
00000210: f40b 76c0 39b8 3541 db68 2e41 f581 ca3f
00000220: ca6d 2fc1 c27d 0141 1a76 17c1 11d8 85bf
00000230: 417c e63e ecf1 43c1 133d a840 d7b5 d840
00000240: e484 87c0 785f ca3f e8bd 8cc1 e001 e6c0
00000250: 7e84 98c1 a83d 85c1 56ee 1bc1 b488 3a40
00000260: 6b52 45bf 4a7a 26c0 703b f1bf 09a8 1941
00000270: d95b 7040 22af bf40 6a46 2741 f203 513f
00000280: bdc9 1cbf fa5c 5ec1 36be 1f41 13fe 9640
00000290: 56b9 8240 8820 66c0 37c1 60c1 69b2 7ec1
000002a0: f5f9 2e41 f859 133f 7325 4441 e439 4a41
000002b0: 5db3 b940 cf57 dac0 dd50 82bd ea5e 4441
000002c0: 6db4 0d40 5f17 893f 57b0 d5bf a233 9dc0
000002d0: 01ef fe40 6c60 d840 8ad7 c740 5c16 6f3f
000002e0: 4f2d 9bbe dd39 aac0 5584 f540 aefb 0440
000002f0: d83d 1bc1 a7fc 1940 b10d 05c1 1c8e 2c40
00000300: d7cd 68bf 5ca4 1041 358b 4541 81c4 b9c0
00000310: acd2 2f41 865a 5ec1 33f0 8f40 e04f 0fc1
00000320: 7fa4 df40 ead6 3440 80c9 af40 5247 89c0
00000330: 49c5 24c1 5450 2ac0 ee91 11c1 7a57 38c1
00000340: f315 b140 af3e a440 7e77 c840 f7a2 9340
00000350: de14 9240 5034 48c0 dfa7 d2c0 d2f7 3ac0
00000360: cae5 f8bf bf20 eac0 ea9c cbc0 c0c0 57c1
00000370: cc18 5e40 6e4e 0d41 4ee0 d5bf 0dc2 2e41
00000380: 9216 72c0 f235 8541 5339 29c1 6ab5 18c1
00000390: 5539 ce40 02a9 a93f 182e fec0 c845 a1c0
000003a0: f5c9 b73f ecb2 e5c0 12bb 14c1 4e6c fbc0
000003b0: 5bc1 fa40 db79 aac0 d69b 4f3f f70b 1d41
000003c0: 8526 3941 1767 cd3f 2f15 4641 ac76 0d41
000003d0: dc50 f5c0 6cdd 5e41 9b23 ff3f 552e b940
000003e0: 749e 1941 6da3 2141 8ffe 3941 d589 a7bf
000003f0: 1b74 ec3f 88c5 33c1 dd95 4941 4174 4ac1
6.0136294 -6.403227 9.73409 -2.383423 14.039268 -5.8911123 -13.990034 -4.6307945
-13.483968 5.175487 -9.630607 -4.645117 -4.4458494 15.667786 4.411525 6.653384
2.0695996 -1.7835677 -2.1424935 -2.226825 9.673934 5.363275 -10.231139 6.3468623
5.4342074 7.9103365 -3.1295373 3.866871 9.023041 15.639619 -3.11229 -25.73125
5.703354 -1.1670554 -4.261182 10.985185 -6.742831 -12.847127 17.808146 11.303828
9.502242 -0.46941072 -5.1502495 -10.62645 5.704397 6.329298 -2.6391594 12.843685
-14.306864 0.16537987 3.4811158 -6.09386 2.6044228 -5.313325 -11.97979 -2.1725178
3.848012 8.993503 -19.348387 6.449799 -3.38272 8.497026 13.867759 -19.211706
-13.90402 -8.364905 -1.9153448 17.745222 -3.4863298 4.8865485 -3.0157924 0.5039814
2.6976156 7.3587003 -13.707796 -6.826181 2.9696755 1.0261183 -6.990326 -1.694372
0.21024169 -13.686758 32.24779 -1.4349005 17.590248 6.055497 8.690558 4.8330793
2.951161 -12.810284 -20.248749 2.117698 14.770432 3.3340135 -9.638604 6.4510803
-4.6613045 9.600689 5.803563 9.741833 -13.031472 1.754553 -4.0300407 -0.109361805
-6.4582944 1.9446276 19.213081 -4.0813155 4.0958915 3.5907319 13.0989685 -8.579272
2.75189 17.794756 5.2443466 1.4145088 -4.122662 0.5019239 17.82956 -2.0889378
7.850026 -5.2979536 -2.6002548 -1.0872681 9.037513 6.926349 -8.963747 3.5625896
10.726595 -8.784363 0.9708339 -4.803963 -3.8444796 11.357476 10.9005995 1.582091
-10.964304 8.093203 -9.466333 -1.0456563 0.45016673 -12.246563 5.2574553 6.7721972
-4.234972 1.5810385 -17.592728 -7.187729 -19.064693 -16.655106 -9.7456875 2.9145937
-0.77078885 -2.601214 -1.8846264 9.603524 3.755606 5.9901285 10.454691 0.81646645
-0.6124533 -13.897699 9.983938 4.718515 4.085124 -3.5957355 -14.047172 -15.918557
10.936025 0.57559156 12.259143 12.639133 5.803145 -6.823219 -0.0636308 12.273172
2.2141373 1.0710257 -1.669444 -4.912553 7.9666753 6.7617702 6.245061 0.9339349
-0.30308005 -5.3195634 7.672404 2.0778613 -9.702599 2.4060457 -8.315843 2.6961737
-0.90939087 9.040127 12.346486 -5.8052373 10.988934 -13.8971 4.498071 -8.957001
6.98883 2.8256173 5.493347 -4.289956 -10.298165 -2.6611528 -9.098127 -11.521357
5.5339293 5.132652 6.2645864 4.613643 4.5650473 -3.128193 -6.582992 -2.9213758
-1.9445126 -7.3164973 -6.3629045 -13.484558 3.4702635 8.831648 -1.6709077 10.922376
-3.7826276 16.65134 -10.576495 -9.544291 6.4444985 1.3254702 -7.9431267 -5.039768
1.4358507 -7.178091 -9.295671 -7.856971 7.836103 -5.327375 0.8109716 9.815421
11.571904 1.6047086 12.380172 8.841473 -7.6661205 13.929058 1.9932741 5.786906
9.601185 10.102399 11.624648 -1.3088938 1.8472933 -11.235725 12.599088 -12.653382

lstm.bias_ih_l0 f4 [512]
00000000: a563 85c0 46c9 3841 625b 7cc1 2cb0 8141
00000010: 61a4 00c1 085d 4dc1 38d6 6bc1 64cc 0e41
00000020: 3c5f a33f 294b b7c1 f2db 2f3f b60f 03c1
00000030: f285 87c1 da44 5e41 12e8 36c1 22f9 78c1
00000040: 757c 52c1 9dc8 49c1 fba2 d4bb 62a7 1ec1
00000050: 81c5 0e41 d67b 3b40 303e 5cc0 6697 82c1
00000060: a359 1bc0 99de f2bf b121 a2c0 c3d3 7040
00000070: f2f2 01c1 68dd 7040 7aa3 7fc0 bc6c bec0
00000080: b57b 9bc0 a758 0c41 0f26 eb40 2c4f a5c1
00000090: cfc3 e1c0 4606 c140 5362 c8c0 63a2 af40
000000a0: cd87 c9c1 c1a7 3641 f580 443f 66de 8141
000000b0: f543 d640 ffee 663d e358 9f40 fd6e a2c1
000000c0: 4da2 b2c0 5100 b0c1 4a9f 4bc1 c323 d340
000000d0: 27e8 0b41 0b00 9bc1 a663 d140 e72d 1cc1
000000e0: 9cf7 7341 5b53 fcbf a299 ae40 3849 f5bf
000000f0: 40ef 2741 7ff2 ec3e 86a2 ab40 9dbc 87c0
00000100: 5387 67c1 75a8 55c1 59b0 4941 0bc8 1d41
00000110: 3108 5bc0 7abb 85bf 3386 2c41 5d45 0f41
00000120: 210b 9ec1 eb2c 8b41 8fb2 edc0 28b6 dfc1
00000130: 5656 d1c0 9b7f a640 9f8b 4741 d693 c7bf
00000140: ca0e 1bc1 2001 3c40 d309 a241 3e31 8ec1
00000150: a1ad 9241 d1dc 1741 baa4 493f 27d6 dac0
00000160: fe68 713e c797 fac0 dd02 0d40 1cb2 f840
00000170: ca74 c140 36b1 69c1 1d47 18c1 3821 9ebf
00000180: b58c a341 1027 d0c0 4746 bd40 6491 6741
00000190: 1335 a140 d986 9441 d8b7 1641 5402 80c1
000001a0: 15b0 46c0 c91e 72c1 b239 3141 b98e c441
000001b0: 3dfa 6fc1 8010 c7c0 1a50 6c3e d1e5 b8bf
000001c0: 8ebd 9fc0 7a9b d23e 1eba c7bf 7d53 d940
000001d0: 4cc9 5941 5ddf aec0 c740 0a40 d441 70c1
000001e0: ca13 ff3d fc84 d73f 3c1f 59c1 b606 ca40
000001f0: ae0e e2c0 0ae5 7341 56bf a5c1 8e5c 4ec1
00000200: 011e 6fc1 e1b8 cfbf 3a17 3641 4dec 9340
00000210: fae9 88c1 c6d9 3d41 0b83 8d41 999c 2e41
00000220: 4643 70c1 d956 3040 a268 10c1 50d5 f540
00000230: f9f6 94c0 3464 1641 5f8b 9540 69f8 6cc1
00000240: 0c5a e8c0 da2e 0041 6523 e440 365f e33e
00000250: 7ce7 e3c0 b6d9 9b40 769e 3fc1 4b63 4840
00000260: 123d e340 5dac fec0 2566 f3c0 e3a9 e9bf
00000270: f04d 3441 7bc1 42c1 078f 00c1 b4d6 3541
00000280: 6e0f d1c0 79e9 f440 d4d9 c140 9f2e 0dc0
00000290: 5299 1441 646a b9c0 8bcb 3040 aa0c 2c41
000002a0: dacf 3a41 9ea9 e83f ca14 b540 9c13 3441
000002b0: 8729 1241 9979 00c0 db41 3341 c160 50c1
000002c0: 8f8c 2cbf 4786 0dc0 7de1 cdc0 1e84 4141
000002d0: 4abf 6541 68ac 89bf caa9 8ac0 ba8b e840
000002e0: 346d 103e 88a9 a440 b974 b2c0 f65f b1c0
000002f0: cbb0 09c1 823a 4341 a708 3bc1 1121 82c1
00000300: 0b76 4a41 e2ba 583f 1d6d 0641 0ec7 c7c0
00000310: 75c3 94c0 7ad0 903f 3287 3241 9efe 0b41
00000320: 5b59 1641 ea00 73c1 a265 9a41 62ce 5ec0
00000330: 4c25 e5bf 880e 1041 0c56 57c1 54cd 6341
00000340: a96f a940 d733 9e40 9327 4b41 6704 48c1
00000350: 29f5 fdc0 950c 15c1 ec24 6ac1 2f08 2241
00000360: 77c3 52c0 fa09 1041 85e4 55c1 0e07 24c1
00000370: 3ddd a241 3f67 1b41 2eac e240 a8fc 3fc1
00000380: 6975 2cc1 4b19 7641 2491 26c0 f4cd 80c1
00000390: e3ea 6141 95c7 1940 ac40 c5c0 1f17 69c1
000003a0: aa09 9ac1 e750 24c1 782e 85c1 228f a0c0
000003b0: af55 293f a681 8141 7b84 2c41 a9e3 c940
000003c0: 8a5e ac41 2726 9341 2ed1 5541 ad93 6041
000003d0: f62c cf3f 266b 1641 35d9 e33f 5fc9 21c1
000003e0: 8bdd 7a41 89eb 4141 bd83 7840 c7a2 6a41
000003f0: baae 55c0 a104 22c1 689e 35c1 dfd2 85bf
-4.1684136 11.549139 -15.77231 16.211021 -8.040132 -12.835213 -14.7397995 8.9249
1.2763438 -22.9117 0.68694985 -8.191336 -16.940403 13.891809 -11.431658 -15.560823
-13.155385 -12.611478 -0.0064891553 -9.915865 8.923219 2.9294333 -3.4412956 -16.323925
-2.427346 -1.8974181 -5.0666127 3.762925 -8.121813 3.7635136 -3.9943528 -5.9507732
-4.858851 8.771644 7.348396 -20.663658 -7.0551524 6.032016 -6.2620025 5.4885726
-25.191309 11.415956 0.7675927 16.233593 6.6957955 0.05638027 4.9796004 -20.304193
-5.582312 -22.000154 -12.726389 6.5981154 8.744178 -19.375021 6.543414 -9.761207
15.2479515 -1.9712938 5.456254 -1.916297 10.495911 0.4627876 5.3635893 -4.241774
-14.470538 -13.353627 12.605554 9.861339 -3.422375 -1.0447838 10.7827635 8.954434
-19.755434 17.396933 -7.4280467 -27.963943 -6.541789 5.203077 12.471587 -1.5591991
-9.691111 2.9375687 20.254797 -17.774044 18.33478 9.49141 0.7876698 -6.8386416
0.23575208 -7.8310275 2.2032998 7.771742 6.0455065 -14.605764 -9.517362 -1.2353888
20.443705 -6.5047684 5.914829 14.472996 5.037729 18.565844 9.419884 -16.001137
-3.1044972 -15.132516 11.076586 24.569689 -14.998593 -6.220764 0.23077431 -1.4445134
-4.991889 0.41134244 -1.5603673 6.7914414 13.611645 -5.464766 2.1602037 -15.016071
0.12454946 1.6837459 -13.570126 6.313319 -7.064292 15.243418 -20.718426 -12.897596
-14.944825 -1.6228296 11.380671 4.6225953 -17.114246 11.865667 17.688986 10.913232
-15.016424 2.7553008 -9.025545 7.682289 -4.655148 9.399464 4.673263 -14.810647
-7.260992 8.011438 7.1293206 0.44408578 -7.1220074 4.870326 -11.976187 3.1310604
7.101205 -7.9585404 -7.606219 -1.825497 11.269028 -12.172236 -8.034919 11.364918
-6.5331335 7.6535 6.0578403 -2.2059705 9.287432 -5.794237 2.7624233 10.753092
11.675745 1.8176763 5.6587877 11.254787 9.1351385 -2.0074217 11.203578 -13.023622
-0.67401975 -2.2113206 -6.4337754 12.094755 14.359201 -1.0755739 -4.333226 7.2670565
0.14104158 5.1456947 -5.5767484 -5.542964 -8.605662 12.201784 -11.689612 -16.266146
12.653819 0.8466016 8.401639 -6.2430487 -4.6488595 1.1313622 11.158007 8.749662
9.396815 -15.187723 19.299625 -3.4813466 -1.7902007 9.003548 -13.458508 14.237629
5.2948804 4.943828 12.697162 -12.501075 -7.936177 -9.315572 -14.634014 10.126998
-3.2931802 9.002436 -13.368291 -10.251722 20.358027 9.712707 7.083518 -11.999184
-10.778665 15.381175 -2.6026087 -16.100563 14.119845 2.4028065 -6.1641445 -14.568145
-19.254719 -10.269752 -16.64769 -5.0174723 0.6614637 16.188305 10.782344 6.3090405
21.546162 18.39363 13.363569 14.036054 1.6185596 9.401159 1.7800661 -10.111663
15.679088 12.120004 3.8830407 14.664741 -3.3387895 -10.12613 -11.351173 -1.0454978

lstm.bias_hh_l0 f4 [512]
00000000: 529a 85c0 9deb 3841 fda2 7cc1 dda5 8141
00000010: 8746 01c1 162f 4dc1 c4df 6cc1 9ea7 0c41
00000020: 3b6f 9f3f 884b b7c1 9332 413f d826 03c1
00000030: 3d52 87c1 68ec 5e41 d4c4 37c1 3e70 7ac1
00000040: 00c8 52c1 81fa 4ac1 a1d3 ee3c feff 1ec1
00000050: 0d1b 0c41 c26d 3d40 5817 5fc0 e6a8 82c1
00000060: 2d21 1fc0 e15b eabf 179a a0c0 20d1 6f40
00000070: 9b82 02c1 d7ae 7b40 7626 7fc0 1ebf bec0
00000080: be48 9ac0 739e 0c41 6db5 e940 c262 a5c1
00000090: 7332 e3c0 f6b6 c040 923a c8c0 e4a0 ac40
000000a0: d447 c9c1 e447 3441 64d4 613f 609a 8141
000000b0: ddb5 d640 731a 07bd 53d4 a140 6c11 a3c1
000000c0: bd5a b5c0 1c96 afc1 9bf8 4bc1 b15c d340
000000d0: 79a2 0b41 f97d 9bc1 7c16 d140 22f8 1cc1
000000e0: 6cac 7341 3cf4 07c0 414a b340 c881 eebf
000000f0: a989 2841 a9fb e93e d070 aa40 0c3a 8bc0
00000100: 55ab 67c1 0d09 56c1 7e8f 4841 577c 1c41
00000110: 5932 60c0 8f5c 7abf bf79 2b41 def5 0e41
00000120: 5b14 9ec1 9a16 8b41 67b4 edc0 c84d dfc1
00000130: 5623 d0c0 6d99 a540 980f 4841 0eb6 ccbf
00000140: 734e 1bc1 6b14 3c40 7ae6 a141 c423 8ec1
00000150: 3fb2 9341 3ae3 1741 a854 3c3f 25c2 ddc0
00000160: c6c1 3b3e 8136 fcc0 78dd 0e40 5594 fa40
00000170: bf4d be40 a4c8 6ac1 71bc 18c1 f13d 9ebf
00000180: e62d a441 1760 d2c0 9e42 ba40 fcbe 6541
00000190: b17f a440 d1e5 9341 1478 1641 eacd 7ec1
000001a0: cbf3 3ec0 4bd8 6fc1 0b86 3241 8964 c541
000001b0: f626 72c1 1e4b c9c0 acf9 e03d 79de bdbf
000001c0: 1feb 9fc0 1bba d43e f288 c9bf 7c27 db40
000001d0: c261 5741 337a b3c0 f3b2 0940 243f 6fc1
000001e0: 59da dc3d 2e2f d13f c6e7 58c1 a5d8 cd40
000001f0: b34d e5c0 1336 7241 b403 a5c1 e9aa 4dc1
00000200: 5b14 71c1 7917 dabf 98fc 3441 5076 9340
00000210: 8167 89c1 9839 3d41 99e1 8d41 e65f 2d41
00000220: f15e 71c1 134b 3440 824d 0fc1 6e72 f440
00000230: 315c 92c0 d744 1741 115e 9740 0393 6ec1
00000240: c101 e7c0 bc9f 0141 4e2d e440 2b1c f73e
00000250: fd87 e5c0 b15f 9c40 2944 3fc1 2784 4e40
00000260: 0756 e140 56cb fdc0 3d8e efc0 8cd5 ebbf
00000270: 1177 3541 110d 43c1 8ff7 ffc0 d8db 3741
00000280: b860 d3c0 fcca f440 4a71 c040 7775 0ac0
00000290: a5c2 1541 34e9 bac0 0922 3440 873f 2c41
000002a0: 60ee 3b41 77d3 e73f 94d8 b540 e135 3541
000002b0: 8cf7 1141 5283 f1bf 1a4f 3341 a391 4ec1
000002c0: afe8 2dbf 52ab 10c0 2568 ccc0 e259 4141
000002d0: 19ad 6641 f717 80bf 8e50 86c0 3308 e540
000002e0: f013 cb3d 04db a540 3161 b4c0 b7b7 adc0
000002f0: 2160 08c1 2c12 4141 15a7 38c1 f3ad 82c1
00000300: addb 4841 70dc 423f ef65 0541 4849 c8c0
00000310: 2f42 98c0 022b 983f 8477 3341 29b2 0941
00000320: 8482 1641 2169 73c1 a057 9a41 372b 5fc0
00000330: 6cb9 dfbf dcfd 0d41 4c72 56c1 7a13 6241
00000340: 0a9a ac40 867b 9e40 df75 4a41 e3af 46c1
00000350: 3301 00c1 5380 15c1 f74d 6ac1 11ae 2141
00000360: 7ade 54c0 d28c 0f41 bc84 56c1 f233 23c1
00000370: 83cd a141 a498 1d41 12c3 e540 e5e3 40c1
00000380: 571e 2cc1 e17c 7541 5ca1 22c0 f649 7fc1
00000390: a784 6341 6cf4 1a40 4722 c4c0 a31b 6ac1
000003a0: e336 99c1 149b 22c1 ab43 85c1 baf5 a1c0
000003b0: 2fd0 483f cb44 8141 5404 2b41 3ade c840
000003c0: ca78 ab41 5636 9341 4448 5741 a565 5f41
000003d0: c53f d73f aefd 1641 676c e63f b390 21c1
000003e0: 2ac6 7b41 da31 4341 b589 7640 2448 6a41
000003f0: 601d 50c0 c090 23c1 070a 35c1 894d 85bf
-4.175088 11.557523 -15.789792 16.205988 -8.079719 -12.823996 -14.80463 8.790922
1.245582 -22.91188 0.75467795 -8.196983 -16.915155 13.932716 -11.485554 -15.652403
-13.173828 -12.686158 0.029153647 -9.937498 8.756604 2.959824 -3.4857998 -16.33247
-2.4864 -1.8309289 -5.01881 3.747139 -8.156886 3.9325464 -3.9867225 -5.9608297
-4.8213797 8.788684 7.3033967 -20.673222 -7.0999084 6.022334 -6.2571497 5.39464
-25.160072 11.267551 0.8821471 16.200378 6.7097 -0.03298421 5.0571685 -20.383507
-5.6673265 -21.948296 -12.748195 6.605065 8.727166 -19.43651 6.5339947 -9.810579
15.229595 -2.124282 5.602814 -1.8633356 10.533608 0.45699814 5.326271 -4.350836
-14.479329 -13.37721 12.535032 9.780356 -3.503073 -0.97797483 10.717223 8.935026
-19.75994 17.386036 -7.428272 -27.91298 -6.5043135 5.1749787 12.503807 -1.5993059
-9.706653 2.9387462 20.237537 -17.767464 18.462034 9.492975 0.73566675 -6.9299493
0.18335637 -7.8816533 2.2322674 7.830607 5.9469905 -14.673985 -9.546006 -1.2362653
20.522411 -6.5742297 5.820632 14.359127 5.1405873 18.487215 9.404316 -15.925272
-2.98363 -14.990306 11.157725 24.67409 -15.134512 -6.2904196 0.10985121 -1.4833518
-4.9974513 0.41548237 -1.5744917 6.84857 13.461367 -5.608667 2.1515472 -14.952915
0.10783834 1.6342523 -13.556585 6.432696 -7.165735 15.138202 -20.626808 -12.854226
-15.06747 -1.7038413 11.311668 4.6081924 -17.175539 11.826561 17.735155 10.835913
-15.085679 2.8170822 -8.956423 7.6389685 -4.573754 9.454307 4.7302327 -14.910892
-7.218964 8.101498 7.1305304 0.48263678 -7.17285 4.886681 -11.954141 3.226816
7.0417514 -7.9310713 -7.486113 -1.8424544 11.341569 -12.19069 -7.9989696 11.491173
-6.6055565 7.6497784 6.013829 -2.1634195 9.360021 -5.840967 2.8145773 10.76551
11.745697 1.8111409 5.6826878 11.325654 9.122936 -1.8868201 11.206812 -12.910556
-0.6793317 -2.2604566 -6.387713 12.084444 14.41726 -1.0007313 -4.1973333 7.157251
0.09915912 5.1829853 -5.636864 -5.428676 -8.523469 12.0669365 -11.5407915 -16.334936
12.553632 0.7611761 8.337386 -6.2589455 -4.758079 1.1888125 11.216679 8.605996
9.406864 -15.213166 19.292786 -3.4870126 -1.7478461 8.874477 -13.4029045 14.129755
5.3938036 4.9525785 12.653777 -12.417941 -8.000293 -9.343829 -14.644034 10.104997
-3.326079 8.97188 -13.407406 -10.200182 20.225348 9.849766 7.1800623 -12.055638
-10.757407 15.342988 -2.5410986 -15.955557 14.219886 2.4211683 -6.1291842 -14.631747
-19.1518 -10.162861 -16.658041 -5.061246 0.7844266 16.15859 10.688557 6.2771273
21.433979 18.401531 13.455143 13.962316 1.6816336 9.4369335 1.8001832 -10.097827
15.73588 12.199671 3.852155 14.642612 -3.251793 -10.222839 -11.314948 -1.0414287

fc.weight f4 [1, 128]
00000000: 018e a23d 8b2c 29be fa6c 753f 96d0 ec3e
00000010: 52e2 4640 9f55 6c40 040d 2cbc 252c d73d
00000020: 8f44 c83d 22d5 d33d 3c40 f23e f32d d13e
00000030: 23ab 9c3d b135 843e 71a1 a2be cf70 1fc0
00000040: f08b 8c40 52e5 aabe fb88 2e3e 44a6 2b3f
00000050: 5c63 e0bd 3e1a ef3e b9ad d93f 3db5 32be
00000060: b003 76be 9b3d 8e3e 5046 613d c32c 3c3e
00000070: 3303 76be cf30 91be 43ba 8f3f 6384 bf3d
00000080: 4a49 fbbd 2632 613e cf40 a63d cd13 603d
00000090: adf2 8f3e d0f1 8d40 5020 29be 42aa 763f
000000a0: 3302 39bf bb12 d8bf 68a8 8c3f 94eb 8fbd
000000b0: 6560 1ebd 2d6e c5be dd20 d0bf f864 d9be
000000c0: 30c8 2ebf 4b2e 7840 8263 87be 7f66 9b3e
000000d0: a4d1 0fbc a215 aabe 17a1 973f 1235 14bf
000000e0: 8560 08be ec9d 63be 83b3 b2bd 9531 b63d
000000f0: 64e0 203f b2cf f7be 5841 2ebf 5f64 dbbe
00000100: 340f 013f 5e5b 72bd 6672 b53d 6e92 dfbc
00000110: 91cf 71be 0fc0 4b3f 4474 193d 5019 e5bd
00000120: a988 9d3e f044 fcbd 58ee 223f 166d 34c0
00000130: 9504 adbe d1a2 403e 67a8 743d e7aa 11c0
00000140: 080b 7abf fb40 873e c633 a03c 36c5 ea3f
00000150: c086 67be 6405 9abf 09cb febd bc01 ec3f
00000160: 8673 f1be b47d 54be 90f7 97bf 4eaa 79be
00000170: 012d dd3e d942 683f 7025 3ebf 74fd 373d
00000180: d71d 81be c4fb 82be 4708 11bf 0484 02c0
00000190: 5352 3abd 3e4d 083f 90e0 be3b aec0 1b3d
000001a0: 66f2 d0be 2b88 bf40 a383 ffbd 60d1 9fbe
000001b0: a25c 27be 6914 5dbf cfd2 2fbf 6bf2 b33f
000001c0: 4f17 b4bb 7251 35be 77b1 50bd ff91 8cbe
000001d0: 1991 0b3d 30a7 4bbe bc91 08bf dc81 9140
000001e0: cc35 833e b31f 053f bbea 84c0 aaa2 c6be
000001f0: d087 683a ccb4 3dbd 0474 41bf af3b 1ac1
0.07937241 -0.16520898 0.9586941 0.46252888 3.1075635 3.692726 -0.01050115 0.10506467
0.097787015 0.10343386 0.47314632 0.4085537 0.07649829 0.25822213 -0.31763795 -2.4912603
4.392082 -0.33378083 0.17044441 0.67050576 -0.10956451 0.4669971 1.7006141 -0.1745195
-0.24024844 0.27781376 0.054998696 0.1837645 -0.24024658 -0.2835755 1.1228718 0.09351423
-0.12269838 0.21991786 0.0811783 0.054706383 0.28114834 4.435768 -0.16516232 0.9635354
-0.7226898 -1.6880716 1.0988894 -0.07027355 -0.038666148 -0.3856062 -1.6260029 -0.42459846
-0.6827421 3.8778255 -0.26443106 0.30351636 -0.00877801 -0.3321963 1.1846036 -0.5789348
-0.1331807 -0.22228211 -0.087256454 0.08896176 0.6284239 -0.48400646 -0.68068457 -0.42850015
0.50413823 -0.059169166 0.088597104 -0.027291503 -0.23614337 0.79589933 0.037464395 -0.111864686
0.30768326 -0.12317836 0.63644934 -2.819158 -0.33792558 0.1881211 0.059730913 -2.276056
-0.9767308 0.26416764 0.019555937 1.8341434 -0.22609997 -1.2032895 -0.1244107 1.8438029
-0.4715845 -0.20751077 -1.1872425 -0.24381372 0.43198398 0.90727 -0.74275875 0.044919446
-0.25218078 -0.25582707 -0.56653255 -2.0393076 -0.045488667 0.5324286 0.00582511 0.03802555
-0.40809935 5.985372 -0.124762796 -0.31214428 -0.1634393 -0.8635927 -0.68681043 1.4058355
-0.0054959427 -0.1770685 -0.050950494 -0.27455136 0.034073923 -0.19887996 -0.53347373 4.547102
0.2562698 0.52001494 -4.1536536 -0.38795978 0.00088703353 -0.046315 -0.7556765 -9.639571
