models/current_direction_lstm_model.pth (torch, 147501 bytes, 21 tensors)

lstm.weight_ih_l0 f4 [128, 6]
00000000: 0b91 42bd 35e7 b6be f86d 04be 4ab2 ab3d
00000010: f392 283c f89a a13e 7115 3bbe 134c d7be
00000020: 80a2 dcbe 19b5 c5be 3aff 44be 4174 81be
00000030: 6480 7c3e 1a72 243e 1853 0dbe 8590 2a3e
00000040: d97e df3d 2ccc 643e 6ef1 2cbe 0148 1e3e
00000050: 8641 f8be 4318 5c3a 1792 bdbd 0f5b 78be
00000060: e023 8a3d 5370 54be 816c 8abe 4d3f 243e
00000070: 5c1c aabe bbbd f2bd 016e 133e eac2 9ebd
00000080: 7e3f d93b 40db 96be 83b2 a8bc c971 72be
00000090: ffbf 46be 410e 05be 7d17 8b3c 8401 a0bd
000000a0: 4fde 52bd 33a9 18be 2776 c43e aada 1c3e
000000b0: 3af0 db3c 3855 50bd fdcd e53c 47bd 17be
000000c0: b2bb 52be 7f8d 7dbe 496f b3bd 7c2f aebe
000000d0: ecc6 8a3d 1128 3ebe fced 5b3d f2b5 a3bc
000000e0: 8389 823e 49b7 fcbd af35 36be d222 a33d
000000f0: 77e1 283e 0ea1 ba3a d5a0 6bbe b480 c5be
00000100: 16e5 9cbe 7146 adbe 884c ac3d 9c97 c3be
00000110: 761c 88be 991e 47be c025 15be 67be ebbd
00000120: 0734 c33b 9dd9 85be b5e8 bb3d 1502 ba3e
00000130: 47be 27bc 0d62 56ba 5fca b03e ee47 493e
00000140: 6ffd ea3e 0246 04be 028b 8ebe 33f4 92bd
00000150: c1f5 3e3e 34a7 803e 7f11 b43e 51bc 223e
00000160: 2b1e 713e f9da b13d 0199 f33d 5872 a6be
00000170: 8e8e 51be 2d6b 1f3e c0ba 89be 367f 03be
00000180: 2427 0abf bcd7 8f3d 359b 94bc fcd5 86be
00000190: 7e6f 77be f6cb a6be 9841 2f3d c366 043e
000001a0: 2b00 983d 834e 70be 4aec acbe e9fd d6be
000001b0: 33cf e7bd eb77 423e d2b9 f0bd f9ff b1bd
000001c0: 8ba1 9fbe 0426 bcbe c7e2 9abe 47ad dbbe
000001d0: 55d5 0dbf b4c6 c7be dce1 35be 3b55 46be
000001e0: 2969 813e f69e 1a3f acf9 2b3e 9a16 db3d
000001f0: 4d9d 4f3d c005 413c 27e5 1cbe b616 c7bd
00000200: a3c7 6ebe 9116 1f3d ba87 d6bd a7cb bc3d
00000210: 6a8f 793c 0feb cb3c 0b34 813e a3e9 82be
00000220: 2ce6 13be 4bb3 21be 2b3f 93be b602 c2bd
00000230: 5e9f 86be 4504 063e 5edc 4bbd 115a 43bd
00000240: cd7a a03e cea5 743d 6fda ae3e 9ee0 74be
00000250: 4107 62be 29ef 25bc 9c75 063e eabe 643e
00000260: 2487 813d d13f 053e f7c9 4fbe 78dc 9dbe
00000270: 769d 1abe 311f e0be e85e 9fbe cf6f ecbd
00000280: c84d 82bd 7eec 3bbe 7989 c8be 8d87 1fbe
00000290: e68e bd3d e0d6 a2be 7cba 83bd 16aa d03d
000002a0: eb58 5b3e 7ad7 b83e d686 683e 6a92 0ebd
000002b0: c2c9 d0bd 375e 71bd 6607 d0be ac70 9ebe
000002c0: 4d3b 1fbe f2f2 863e 724c 0d3d 0035 5a3e
000002d0: 6a75 ef3d 30cb 973e 171e 6fbe 0c87 0fbe
000002e0: b58a b73c 9551 33be 9f90 adbe f7bd d3be
000002f0: 2bf7 51be faa8 ac3e e43c 843d 6023 8bbd
00000300: 0882 b5be 5fac 59bd 9ebe 953e f7e3 6cbc
00000310: 6887 2abe 4ee0 7ebc 4c18 aabe a26e 95be
00000320: aec6 e3be 35f6 2f3d 4cb6 eb3d a0b1 8abe
00000330: 37d9 39be 2db5 2c3e 5cd4 4abe 5c68 b4bc
00000340: 2dc3 48be fbf6 8ebd e304 17be f2b7 113e
00000350: d5b6 00bf c186 2e3e 8a7a f33c 8e46 593e
00000360: ead3 d2be 14b4 71be 8433 42bd bd3e d93d
00000370: a01b 88be d891 e3bd 0d6d 543e d4e4 363e
00000380: e785 433e 8e24 adbe b644 8cbe ec1b 24be
00000390: c804 eebd c7b2 1f3d 10ee 6abe 5d33 713e
000003a0: 5e50 06be 8e8e b8bd 5621 0a3e 2464 c43d
000003b0: a2a4 723e ae54 63bd 2f9c 0f3e 0828 81be
000003c0: 88e9 39bd 44f1 b8bd 0d96 573e 00c0 47be
000003d0: e181 05be 6db5 9c3d 2c03 b5be 5a7f 403d
000003e0: faca 1f3e a31e 8fbd b754 3dbe ffed 65bc
000003f0: cccd 0a3e 6ede 6d3e 3af7 ecbd 9051 c6be
-0.047501605 -0.35723272 -0.12932575 0.08383615 0.010288942 0.31563544 -0.18269898 -0.42050228
-0.43092728 -0.3861473 -0.19237986 -0.25284007 0.24658352 0.16059151 -0.13801229 0.16656692
0.10912866 0.2234351 -0.16888973 0.15457155 -0.4848749 0.0008395949 -0.0925638 -0.24253486
0.06745124 -0.20745973 -0.27035907 0.16039772 -0.3322476 -0.118525945 0.14397432 -0.07752021
0.0066298833 -0.2946415 -0.020592934 -0.23676218 -0.19409178 -0.12993719 0.016978974 -0.07812789
-0.05148154 -0.14908294 0.38371393 0.15317789 0.026847947 -0.05086252 0.028052324 -0.14818297
-0.20579413 -0.24761008 -0.0876146 -0.34020603 0.067762226 -0.18569972 0.053693756 -0.01998422
0.25495538 -0.12339646 -0.17793916 0.07965626 0.16492258 0.0014238672 -0.23010571 -0.38574755
-0.3064353 -0.33842805 0.08413035 -0.38201606 -0.26584214 -0.19445266 -0.14565182 -0.11510926
0.00595713 -0.26142588 0.09175245 0.36329713 -0.010238237 -0.0008178063 0.34529397 0.19656345
0.4589648 -0.12917331 -0.2784043 -0.071754836 0.18648435 0.25127566 0.35169598 0.1589215
0.23546664 0.08684344 0.118944176 -0.32509112 -0.20464537 0.15568228 -0.2690029 -0.12841496
-0.53965974 0.0702357 -0.018140415 -0.26335132 -0.24163625 -0.32577485 0.042787164 0.12929825
0.07421907 -0.2346745 -0.33774024 -0.41990593 -0.11318817 0.18991058 -0.117541924 -0.08691401
-0.31177935 -0.36747754 -0.30251142 -0.42905638 -0.55403644 -0.39018786 -0.1776194 -0.1936845
0.25275543 0.60398805 0.16794461 0.1069767 0.050687123 0.011781156 -0.1532179 -0.09721129
-0.23318343 0.03883988 -0.104751065 0.09218531 0.0152319465 0.024892358 0.25235018 -0.25568876
-0.14443272 -0.15791051 -0.2875913 -0.09473173 -0.26293463 0.13087566 -0.049770705 -0.047693316
0.3134369 0.059728436 0.34151027 -0.2391381 -0.2207308 -0.010127821 0.13130802 0.22338453
0.06324604 0.13012625 -0.20291887 -0.30832267 -0.15099129 -0.43773797 -0.31127095 -0.11544763
-0.06362492 -0.18351933 -0.39167383 -0.15579052 0.09255771 -0.31804562 -0.064320534 0.10188691
0.21420638 0.36101896 0.22707686 -0.0348076 -0.10194732 -0.05892774 -0.40630645 -0.30945337
-0.15549965 0.26357228 0.034496732 0.2130928 0.11692317 0.29647207 -0.23351322 -0.1401636
0.022405008 -0.1751159 -0.338994 -0.4135587 -0.20504443 0.3372267 0.064569265 -0.067938566
-0.35450768 -0.0531429 0.29246992 -0.014458648 -0.16653216 -0.015556408 -0.33221662 -0.2918597
-0.44487518 0.04295941 0.1150938 -0.27088642 -0.18149267 0.16865988 -0.19807571 -0.022022419
-0.19605704 -0.069807015 -0.14747958 0.14230326 -0.5027898 0.17043592 0.029721517 0.2121832
-0.41177303 -0.2360385 -0.04741241 0.106076695 -0.26583576 -0.11111802 0.20744725 0.17860729
0.19094048 -0.33816952 -0.27396172 -0.16026276 -0.11622006 0.038988855 -0.22942376 0.2355475
-0.13116595 -0.09011565 0.13489279 0.09589413 0.23695615 -0.05550068 0.14024423 -0.25225854
-0.04538873 -0.09030393 0.21053334 -0.19506836 -0.13037826 0.07651792 -0.35353982 0.046996452
0.15604773 -0.06988265 -0.18489347 -0.0140337935 0.13555068 0.23229381 -0.11570592 -0.38734102

lstm.weight_hh_l0 f4 [128, 32]
00000000: 5d5e 483e cea7 813c 37f9 173b 725e 00be
00000010: 4c65 d73e ff08 ce3e 7297 42bd b58c 35be
00000020: 51c6 0f3d 136c 593e 78e1 4abe c360 3dbe
00000030: f485 c5be 59af 103e 24f2 0cbe 2b0e c0be
00000040: 841b 77ba 3edd 853e 54bc 8bbe 449d 49be
00000050: 10c3 b0be 4e68 b9bc ae04 4fbd 81c7 913e
00000060: e074 bd3e d653 1c3c 6a1f cdbd 935b cfbd
00000070: 6785 e8bd 59bd 953e 57a2 c63d 8ddf a43e
00000080: 9f34 683d 1fff 8e3e 4161 e63d cc28 933e
00000090: 6359 963e a31b b7bd b662 7a3d 5a88 6fbe
000000a0: 9b5b 283e 6aac fcbd 9c20 07be 708c 243c
000000b0: 36f5 a53d 6d1c ea3d 1f98 be3c f7aa adbe
000000c0: 1f1b 8ebc de77 5c3e 484e 08be f7ab c6bd
000000d0: 88ec 5cbe 01fd 94be a942 263d e808 5abe
000000e0: 4e5b dcbd f70f 93bc 86df 11bd f5de 0d3d
000000f0: dc8a 64be 41b7 53be 7b70 59be de5e 35be
00000100: fa8d 893b c206 983e 68a9 d53e 394f cabe
00000110: 43e0 4d3e 2faa 10be f1c5 8f3e 6976 55be
00000120: 272d aebc 33de 8fbc a2d3 93be d677 91be
00000130: 6477 6c3e 5492 0f3e bf62 853e 8d19 a8bd
00000140: 2415 d1bd da30 4a3d b446 5e3e 76df cc3e
00000150: 9e8f 34be 9176 a63b c21c 473d 3b33 d6be
00000160: 69f4 a03d f377 06bf 7880 cfbe 69aa 893e
00000170: a013 edbd 0a6a 773c 89c3 68be d2b7 94bd
00000180: 5efb adbe 9a55 a73d f9fd a33e 9414 0a3e
00000190: 90cf 093e 2221 cebe fe27 813e e2bd 163e
000001a0: dcb0 83bd ab6a 183d b29a d5be ada7 a5be
000001b0: 08ee 793d 4129 8bbd 7d30 b5bd 7915 db3d
000001c0: 581b d2be 799b d83e 7029 013f 1832 143e
000001d0: 4741 133e 307f 0c3e 78a6 123e 735f 57be
000001e0: 2b11 afbe 2f50 913d e8fb b5be 5868 96bd
000001f0: dcee 003e 7442 f5be db09 0cbe bc60 0ebe
00000200: e7bf 143e 2bce 2e3f f87e 693e 5eb6 85be
00000210: 62f9 6a3e 46d2 05bf 5025 8d3e b8b8 83be
00000220: 48d5 f03d bb76 ea3d ab74 d8bd 3393 d5be
00000230: 6b56 28be 77b0 0e3e ae4f ef3e 3e33 f7be
00000240: 0d87 3cbe 11b7 673e 92d3 73be 1357 cc3e
00000250: 240c 06bf e7e0 00bf bb40 40be 5bf8 3dbe
00000260: fc08 bbbe e612 97be 12be 7dbe a0e6 9ebd
00000270: 79b8 bcbe 31e6 f13d d7a8 a13d c39e 943e
00000280: be12 ee3c 48ae 003c 5b89 843e 34d1 df3c
00000290: 0eeb fabc 9347 41be abce 553c 54de 3b3d
000002a0: d50f 783e 5218 a7be 7c12 cdbd 2e8a 88be
000002b0: 5696 4a3e 50c0 6e3e fbbc dabd 3113 70be
000002c0: d5be a13e a0f1 a4be 10a1 23be 45a8 943e
000002d0: 1e4d 17bf a1bc bdbd b639 a4be a8e7 513c
000002e0: 3e61 76bd 1c25 893e 00fa e0be 5247 be3e
000002f0: 6993 083d 3631 10bf 9dda 5dbe 3932 97be
00000300: 1828 933d 9b7d 973e 601f 163e 2f2a 7ebe
00000310: c29c b83e 43f3 0cbe d341 5d3e 800a e6bb
00000320: 7187 713e 5789 0e3e 297e 03bf 7506 bebe
00000330: 6c37 12be 23f2 133d cb6c 2b3d 9e17 d8bd
00000340: 944a 77bd 88f0 51be 7f90 f23d b750 943e
00000350: 2d8e 54be 4e9a 19be bd91 b4be f1de f6be
00000360: 97f2 abbd ba9b 64be 55b5 99be 7d0e 003e
00000370: b954 a3bd a437 6cbe fffb 253e 1ca5 c9bb
00000380: 2cb0 2a3d 0013 b83e 630f 223d ea36 1cbd
00000390: 84e5 ac3c 57c1 2ebe 5abe 193e e3a5 9abd
000003a0: 0732 553e b6ad 373e 2c5f 9cbe 1e32 9bbd
000003b0: 24a3 c9be 859e 593d 52fe 613e f70d efbe
000003c0: 97af bbbe 93dc 183b db5a ab3d 9096 573d
000003d0: 2129 393e cec0 ce3c 96df e2bb 3500 eebe
000003e0: 2208 41be d525 afbd bf5a 2bbc 172e 4fbd
000003f0: e615 0abe dd1d adbd d8b2 3f3d fd4f 7fbc
0.19567247 0.015827086 0.0023189315 -0.12536028 0.4206947 0.40241238 -0.04750771 -0.17729457
0.03510124 0.21232633 -0.19812572 -0.18493943 -0.3857876 0.1412939 -0.13764244 -0.3751081
-0.00094264024 0.26145357 -0.2729212 -0.19688898 -0.3452382 -0.022632744 -0.050541572 0.28472522
0.3700323 0.009541472 -0.100157574 -0.10124888 -0.113535695 0.29246023 0.096989326 0.32201806
0.05669081 0.27929017 0.112490185 0.28742063 0.29365072 -0.08940818 0.061129294 -0.23391858
0.16441195 -0.12337573 -0.13196033 0.0100432485 0.08103411 0.11431203 0.023265896 -0.33919498
-0.017346917 0.215301 -0.13311112 -0.097007684 -0.21574605 -0.29099277 0.040590916 -0.2129246
-0.107596025 -0.017951949 -0.03561356 0.034636457 -0.22318596 -0.20675375 -0.21234314 -0.1771197
0.004197833 0.29692656 0.4173081 -0.39513567 0.2010508 -0.1412742 0.28080705 -0.20845951
-0.021261765 -0.017562008 -0.288724 -0.2841174 0.23092419 0.14020663 0.260519 -0.082079984
-0.102091104 0.049362995 0.21706659 0.40014237 -0.1763291 0.005080052 0.04861141 -0.4183596
0.078591175 -0.5252678 -0.405277 0.26887825 -0.11576009 0.015100965 -0.2273084 -0.072616234
-0.3398084 0.08170624 0.32029703 0.13484412 0.13458085 -0.40259653 0.25225824 0.14720872
-0.064302176 0.0372111 -0.41719586 -0.3235449 0.06101802 -0.06794978 -0.08847139 0.10697455
-0.41036487 0.42306116 0.50453854 0.14472234 0.1438037 0.13720393 0.14321315 -0.21032505
-0.34192786 0.07095372 -0.35543752 -0.07344121 0.12591118 -0.47902262 -0.13675635 -0.13904089
0.1452633 0.6828334 0.22802341 -0.26115698 0.22946694 -0.52273977 0.2756753 -0.25726867
0.1175943 0.11448427 -0.10569128 -0.41713867 -0.16439216 0.13934503 0.46740478 -0.48281282
-0.18410893 0.22628428 -0.23811176 0.39910182 -0.52362275 -0.50343174 -0.18774693 -0.18551771
-0.36530292 -0.29506606 -0.24779537 -0.07758832 -0.3685949 0.11811484 0.07893532 0.29027376
0.029061671 0.007854052 0.25886044 0.027321436 -0.030629661 -0.1887496 0.013049762 0.045866325
0.2422479 -0.32635742 -0.10013291 -0.26667923 0.19783911 0.23315549 -0.106805764 -0.23444821
0.31590906 -0.32215595 -0.15979409 0.2903463 -0.59102046 -0.09264494 -0.3207528 0.012811579
-0.06015133 0.26786125 -0.43940735 0.37163788 0.033343706 -0.5632509 -0.21665426 -0.29530504
0.07185382 0.29588017 0.14660406 -0.2482078 0.36057097 -0.13764672 0.21607141 -0.0070202947
0.23586823 0.13919578 -0.5136438 -0.371143 -0.14278954 0.03611959 0.0418518 -0.105513796
-0.060373858 -0.20501912 0.11843967 0.2896783 -0.20757361 -0.15000269 -0.3526744 -0.48216966
-0.0839588 -0.2232503 -0.30021158 0.12505527 -0.07975144 -0.230681 0.1620941 -0.006153716
0.041671917 0.35951996 0.039565455 -0.038138308 0.021105535 -0.17065941 0.1501402 -0.07551172
0.20819865 0.17937359 -0.3054136 -0.075779185 -0.3938228 0.05312969 0.22069672 -0.46690342
-0.36657402 0.0023324832 0.08366939 0.052633822 0.18082096 0.02523842 -0.006923626 -0.46484533
-0.18850759 -0.08552138 -0.010458647 -0.050581064 -0.13484916 -0.084529616 0.046801418 -0.015583036

lstm.bias_ih_l0 f4 [128]
00000000: 4c1f b53e cf03 40be 6ebe b83e 37f0 013d
00000010: af1b d9bd 0bab 75be 93cd 20be afd0 34bd
00000020: 9ac3 6e3d c840 7b3e e6f6 d7be 03a4 2fbe
00000030: 7497 1a3e a920 943c fd54 9b3e 4006 213e
00000040: 6307 88be 176f adbe 1878 b9be 5208 3dbe
00000050: 9bb8 023e 86a6 0d3e 2469 4dbe 17d9 0c3d
00000060: eeed ffbc 2d69 8ebc 9b3f bdbe 106f 9ebd
00000070: ae29 4f3e 48f6 bc3e 1d16 6e3d 25a7 1d3e
00000080: 0211 6fbe be38 7fbe 0d95 af3c aa58 303d
00000090: 7645 19be f2fa 97be 726d 37be 395f 1bbe
000000a0: 47ce 4abc 2adb a5bc 70a5 98bd b9a2 7dbd
000000b0: 6a5a 113e 1c07 523d 8781 a2bc 605a 143e
000000c0: 24da 34be 9b59 57be 900d 59be 2b54 c9be
000000d0: edf0 87bd c9a6 3f3e 5f08 0fbd 5135 183e
000000e0: 2bf1 cbbe 38c8 d93c 88b0 f13c a610 d1bd
000000f0: cb7f 1ebe 4715 ad3e 6873 9abe 107f d63d
00000100: a932 e93e d309 833d 2dcc 093e 728a 163c
00000110: e7e4 1a3e 3adb afbe e171 fc3d 7339 62be
00000120: 6195 da3d 4198 9e3e 1b09 a53d 88b8 b8bd
00000130: 1fd7 e2be a52f 4abe 6653 c33e 5ce1 a2be
00000140: c929 fabc 95ef f33d 0c59 84bd 66b7 f6bd
00000150: fcaf a2bc bb4a 87be cb36 86be 0bb5 2ebc
00000160: c5f9 bcbe fc98 27be 0866 84be 2a74 6e3e
00000170: d05a d5be 9471 b73e 8e73 9dbd f6de f83e
00000180: c921 db3e 3040 08be 1817 b43e 89cf 8abd
00000190: 7a9a aa3d a507 ebbe 60ad a93d 45bb f63d
000001a0: 76bc 45be a387 a539 1c77 86be 8a2b 97bc
000001b0: 209a c03d 7c59 9cbe 3ea4 263e aeb1 c2bc
000001c0: 94dc c4be 74af 10bd 513b 8cbe 9f85 cfbe
000001d0: d19e ebbb fc61 8abd 9f06 cebd c162 f4bd
000001e0: 958e 80bd 790d 54be 9db4 a5be 1b87 933d
000001f0: 005d ab3c 49ba 523e fd0d 2fbe 83a5 273d
0.3537544 -0.18751453 0.36082786 0.031723227 -0.10600983 -0.23991029 -0.1570342 -0.04414433
0.05829201 0.24536431 -0.42180556 -0.1715241 0.15096837 0.01808198 0.30338278 0.1572504
-0.26568136 -0.33873817 -0.36224437 -0.18460205 0.12765734 0.13833055 -0.20059639 0.03438672
-0.031241383 -0.017384136 -0.3696259 -0.07736027 0.20230743 0.36906648 0.058126558 0.15395792
-0.23346332 -0.24923989 0.021433378 0.043053307 -0.14967903 -0.29683644 -0.17912844 -0.15173043
-0.012378282 -0.020246107 -0.0745343 -0.061922763 0.14194646 0.05127631 -0.019837154 0.144876
-0.17661339 -0.21030276 -0.2119658 -0.39322028 -0.0663775 0.18715967 -0.034920093 0.14864089
-0.39832434 0.02658473 0.029503122 -0.102082536 -0.15478437 0.33805296 -0.30166173 0.10473454
0.45546463 0.06398358 0.13456793 0.009188281 0.15126382 -0.34346944 0.12326408 -0.22092228
0.10673023 0.30975536 0.08058377 -0.090195715 -0.4430475 -0.19744737 0.38149565 -0.3181256
-0.030537503 0.11910931 -0.06462297 -0.12046699 -0.019859307 -0.26424202 -0.2621368 -0.010663281
-0.3690931 -0.16366953 -0.25859094 0.232865 -0.41670847 0.3582884 -0.07688056 0.48607606
0.42799214 -0.13305736 0.3517387 -0.067778654 0.08330245 -0.4590427 0.08285022 0.120474376
-0.19310173 0.0003157231 -0.26262748 -0.018453378 0.09404397 -0.3053702 0.16273591 -0.023766365
-0.38449538 -0.035323575 -0.27389005 -0.40531632 -0.0071905633 -0.0675697 -0.100598566 -0.11932898
-0.06277195 -0.20708264 -0.3236436 0.07203504 0.02091837 0.20578875 -0.1709518 0.04092933

lstm.bias_hh_l0 f4 [128]
00000000: 0c73 143e 468a 16be a02a bb3d 17b3 233d
00000010: 0eae b9bd 6b81 5cbe 45c6 36be c43c 73bd
00000020: 60b3 43be 156d 853d 7fac 27be 6856 48be
00000030: 54f0 213e 868a e83c d974 c53e 609b 4e3e
00000040: fa42 71be ac1a d4be c03d 8cbe f481 c4be
00000050: ddd5 933d 2d9d a83d f419 69be 86bb 2fbc
00000060: 4d00 93be c2c8 69be b63f cdbd 89eb d0bd
00000070: 3324 793d 3acf 1b3e 70a6 e5bd 23fa 0c3e
00000080: f90b 33be 8825 e7bd 78ac 4bbd 93cd 2bbd
00000090: f5f7 e7bd 7095 cebe 3bd6 6d3c 5992 29be
000000a0: a68d 8dbe 153e 7b3e 449c bebe 869c 0cbe
000000b0: 3bba 1e3e b4ec 5cbd 9217 83bd fec6 02be
000000c0: 6592 25be 93ac 24be ca96 3abe 306a c5be
000000d0: 0ef2 b9bd 0b5c 193d 8b54 8abe 4e50 4c3e
000000e0: 59e8 9bbe d0c0 6f3d bb9c cfbd 7f94 2abe
000000f0: 13d1 0ebd 0fdf d73e 7631 7dbd 3cdf b73e
00000100: 663f 0f3e 625a 6b3e f259 44bd 14ee 523d
00000110: 225e 8c3e fa59 87bc 6329 f83c c117 7bbe
00000120: 6237 973d 2db5 8c3e 5366 063e becf 32be
00000130: a9ae 2dbe c7c4 8bbc 85c4 b83e 9e07 8fbe
00000140: 2b70 c8bc 3fcd e3bc 5090 34be 3855 8ebd
00000150: 8361 7cbc 3b7d f8be a64a babd f59d 923e
00000160: 58f9 5fbe f350 5bbe 9fec 16be ff05 a3bd
00000170: 82f4 b1be 7fbd e23e 8927 24be a12f 803e
00000180: 8fdf cc3e b2f7 bcbd 39f0 6b3e 61ab 0dbe
00000190: bde5 f0bd e9e1 cdbe fc96 28be 289c 8abd
000001a0: 7aaa 94be 1363 dfbd 55d8 b6be 0c93 3e3c
000001b0: 625c 783d c901 89be 653b ac3e 8ae3 29be
000001c0: 0e86 8cbe ea22 97be e4f3 89be f280 a4be
000001d0: 6a9d a03d 46bf bdbd 94ef a1be c211 4bbe
000001e0: e343 b5bd 5a3f 77bd 455c 5abe fb0a b6bd
000001f0: dc7e 113e 86d3 b13e 6e67 463d 34c3 213d
0.14497012 -0.14701185 0.091389894 0.039965715 -0.090664014 -0.21533744 -0.17849071 -0.059384122
-0.19111395 0.06514946 -0.16374396 -0.19564211 0.15814334 0.028386366 0.3856571 0.20176458
-0.23560706 -0.414266 -0.27390862 -0.38380396 0.072185256 0.08233104 -0.22763807 -0.010725861
-0.28711167 -0.2283049 -0.100219175 -0.10201175 0.060825538 0.1521577 -0.11213386 0.13767295
-0.17485036 -0.112864554 -0.049725026 -0.041944098 -0.11326591 -0.40348387 0.014516409 -0.16559733
-0.27647132 0.24535401 -0.37228596 -0.13731584 0.15500729 -0.053936675 -0.0640098 -0.12771222
-0.16169126 -0.16081457 -0.18221584 -0.38557577 -0.090793714 0.037441295 -0.27017626 0.19952509
-0.30450705 0.05853349 -0.10137316 -0.1665821 -0.034867357 0.42162368 -0.061814748 0.35912502
0.13989028 0.22983697 -0.04793734 0.05149658 0.27415568 -0.016522396 0.030293172 -0.2452078
0.0738361 0.27481976 0.13124971 -0.1746206 -0.16961159 -0.017061604 0.36087433 -0.279355
-0.024467548 -0.02780783 -0.17633176 -0.06949848 -0.015404108 -0.48533043 -0.09096269 0.28636137
-0.21872461 -0.21417598 -0.14738701 -0.07960128 -0.34756857 0.442852 -0.16030706 0.25036338
0.40014312 -0.09226932 0.23040856 -0.13834907 -0.11762569 -0.40211418 -0.16463846 -0.06768066
-0.29036313 -0.10907569 -0.35711923 0.011631738 0.060634978 -0.26759174 0.33639064 -0.16590706
-0.27446026 -0.29518825 -0.26943886 -0.32129627 0.07842524 -0.09264998 -0.31628096 -0.19830993
-0.08850839 -0.06036315 -0.2132426 -0.08888813 0.1420855 0.34731692 0.048438482 0.0394928

lstm.weight_ih_l1 f4 [128, 32]
00000000: 1d72 49be a700 ae3d 5561 9f3e 0497 b1bd
00000010: 1e09 9bbd 2910 933d 8712 c8bd b67a b13e
00000020: f7ac 5dbe ae75 14bf 2da5 ec3c d079 25be
00000030: 9a37 2c3e de60 313e 5a4b b13e e134 683e
00000040: 6823 2a3e 962f 36bf 7d7b eebe 9386 983e
00000050: 2167 6dbe 3f54 c43d d7ca f7bc 1596 b2be
00000060: 10df 823e 8743 1b3e 68c5 fcbd 7c83 9f3e
00000070: 8199 e6be a18c 40be f6dd 893d 4a9a 0cbf
00000080: 9bde db3c f052 623e 0b84 8e3e cd28 cbbe
00000090: 1d1c 2c3e 0815 ef3d 3a7c 2b3f 27bd 9fbc
000000a0: 3014 c2be 3345 0ebc 4353 bb3e 5699 513e
000000b0: 975e 6c3c 9680 463e 5f95 b9be 3dfe 463e
000000c0: e24f b4bd 89b2 87be 8d24 84be 1b19 9ebd
000000d0: e49c 30bd 0071 dd3e 8903 743e ea64 cfbe
000000e0: 1712 013f 3c2c ddbd 4c82 33be c292 b8be
000000f0: ada0 9dbe 514d e7be b813 1f3e 677d c5be
00000100: a803 15be c560 8ebe 0b41 82be a5a9 1e3e
00000110: cb45 9cbe ddd0 08be 0f7d 86be 0931 96bd
00000120: e1d4 b83d 132f c0be 3119 c03d 4d23 7d3d
00000130: e22b 303d ad30 073d 4926 2fbe af14 b73e
00000140: 6889 a63d cc67 fe3e 4e97 fcbe 580a a33e
00000150: 798e 8dbe beb8 573e d2d7 d33d b240 4dbc
00000160: 0a67 1dbe c7f5 9a3e 8f5a c13e 4fda 393d
00000170: 4a1e e43e 362e 01be 8bcd c1bd 4a78 3ebc
00000180: c3e5 0b3f 3d02 c73e 9cc6 053f ceee b3be
00000190: 915d ffbe 599e 76be 44ad bf3d 8cf1 1e3e
000001a0: 1c3c 363e 48a3 4dbe dbf1 cfbd 8138 3a3e
000001b0: 9960 59be 4d8b 6c3d 7709 a83e 0bb9 2ebe
000001c0: 1e18 503e e9cb a33e febb 913d 2737 3c3e
000001d0: 46d7 0ebe 6c6b de3b a9b2 83be 2aa8 63bd
000001e0: 0d2f 19bf 82ea 87be dc70 42bf 26c4 0b3e
000001f0: 6795 1bbe d501 56be 120f 9cbe 444c 36be
00000200: 8571 3ebe a759 ca3e de4a 293e a0e0 153d
00000210: b1a2 bfbc 4d31 a0be 0e82 963e e753 b23d
00000220: a293 3c3e 5ba1 b23e bf48 44be b8f4 03be
00000230: b2ae 88bd 5038 93bd ee8a e93d 1367 bcbe
00000240: 18b3 2d3d 3ff9 8b3e 2a7e b33d d44b 703e
00000250: 8bb7 ac3e 6224 713e 84b8 a8bd 3935 09be
00000260: 6186 ce3c 32a6 d6bd 55b9 58be 5896 3dbe
00000270: fac1 42be e7b5 60be 5304 a1bc d767 b5bd
00000280: 3024 47bb ec8d b23e 72d8 cfbc d11c 433e
00000290: ba69 843e b217 1e3e 55e7 933e b2ee 00bd
000002a0: 4c7f 9b3e da0e 03be 53e6 14be b358 a93d
000002b0: b2f2 50bd 2268 0fbd 7325 90bd e59a 153d
000002c0: 9019 0fbe c96d 803e 1ad4 0dbe 66cb 133e
000002d0: 008b 603d e71a 1d3e adad ccbe e58b 0b3e
000002e0: 212b 123d 5a5e 903c 5589 5f3d fc12 ee3c
000002f0: 9b05 75be 1489 2ebe c58f 993e 5f34 0bbe
00000300: 5a5f 7d3e 264f 71bb 896c fd3e 9288 b3be
00000310: a563 f43d cda1 38be 93cd 0d3e 909d f1bd
00000320: b2ba 35bd cd82 d33c 3a72 a1be 6a62 f5be
00000330: 48bf dabb ede4 febd 241d a2be 0c4e 52be
00000340: 1206 f73b cdd4 833b c65a 503e 8b67 72be
00000350: 5e4e 07be cf88 5a3e 84c7 7fbe c914 c9be
00000360: af37 053d af0a 803e 16d2 7b3c a3f7 053e
00000370: 69d5 13be 100a 43be 2639 2fbe 5a94 1f3d
00000380: 0482 173e 7b28 be3e b971 94bd dd40 d0be
00000390: 8650 f03c af5b 25be b643 ab3e c30f c9bc
000003a0: 4c6a 90be bdb8 f93d e6cb ba3d 36f7 b6bd
000003b0: fa82 673e ff51 20be 66f8 043d 8172 b53d
000003c0: e393 37be 335e 36bd 61c7 c93e dad1 373e
000003d0: aef0 4c3e 9b93 a03d c97f d9bd e67d d7be
000003e0: 50f2 bd3e a929 41be 52a7 98be 93d4 983c
000003f0: f7dd 33bd 3e08 89bd 34d1 96be 0685 2fbe
-0.19672437 0.08496218 0.31128946 -0.08671382 -0.07570098 0.07180817 -0.09769159 0.34663934
-0.21648012 -0.57992065 0.028887356 -0.16159749 0.16818085 0.17322108 0.346278 0.22676422
0.16615069 -0.7116636 -0.4657859 0.29790172 -0.23183872 0.09586381 -0.030248089 -0.34880129
0.25560808 0.15162478 -0.1234234 0.31155002 -0.4503899 -0.18803646 0.06731789 -0.54922926
0.026839545 0.2210195 0.27835116 -0.39679566 0.168076 0.11673933 0.6698643 -0.019499375
-0.37906027 -0.008683491 0.3658696 0.2046865 0.014426849 0.19384989 -0.36246774 0.19432922
-0.08804299 -0.265034 -0.25809136 -0.07719632 -0.043118373 0.43250275 0.23829474 -0.4050668
0.5041823 -0.10799453 -0.17530173 -0.36049467 -0.30786648 -0.45176175 0.15534866 -0.38572237
-0.14552176 -0.27808204 -0.2544025 0.15494402 -0.30521998 -0.13360925 -0.26267287 -0.073335715
0.090249784 -0.37535915 0.09379805 0.061801244 0.0430106 0.033005405 -0.17104448 0.35757968
0.08131677 0.49688566 -0.49334186 0.3184383 -0.2764776 0.21066567 0.10343899 -0.012527632
-0.15371338 0.30265638 0.37764403 0.04537421 0.4455436 -0.12615284 -0.09463032 -0.011625359
0.54647464 0.38868895 0.5225618 -0.3514313 -0.49876073 -0.24083842 0.0935922 0.1552183
0.17796367 -0.20081818 -0.10153552 0.18185617 -0.21228255 0.057750035 0.3281972 -0.17062776
0.203217 0.3199151 0.07115935 0.18380414 -0.13949308 0.006787708 -0.25722244 -0.055580296
-0.5983742 -0.26546103 -0.7595346 0.13649043 -0.15193711 -0.20899136 -0.30480248 -0.1780253
-0.18597992 0.39521524 0.16532466 0.036591172 -0.023393007 -0.31287614 0.293961 0.08707409
0.18415692 0.3488873 -0.19168375 -0.12886322 -0.066739455 -0.07188475 0.11403452 -0.3679739
0.042407125 0.27338597 0.08764298 0.23466426 0.33733782 0.23549035 -0.082383186 -0.13399209
0.025210561 -0.10480918 -0.21164449 -0.18514383 -0.19019309 -0.2194439 -0.019655382 -0.088576965
-0.003038656 0.34873903 -0.025371764 0.19053961 0.25861913 0.15438727 0.2888743 -0.031477638
0.30370557 -0.12798634 -0.14540987 0.08268871 -0.051012702 -0.03501142 -0.07038393 0.036524672
-0.13974595 0.2508376 -0.13850442 0.14433059 0.05482006 0.15342294 -0.39976254 0.13627584
0.035685662 0.017623115 0.05457433 0.029061787 -0.2392792 -0.17044479 0.299925 -0.13594197
0.24743405 -0.0036820858 0.49496868 -0.35065132 0.11933068 -0.18030472 0.13847952 -0.11797631
-0.0443675 0.025819207 -0.3153246 -0.47926646 -0.0066756345 -0.12446008 -0.31662858 -0.20537585
0.0075385654 0.0040231706 0.20347127 -0.23672311 -0.13213488 0.21341251 -0.24978453 -0.3927367
0.032523807 0.2500815 0.015369913 0.13082747 -0.14436878 -0.19046807 -0.17111644 0.03895984
0.14795691 0.3714026 -0.072482534 -0.40674487 0.029335272 -0.16148256 0.33450097 -0.024543649
-0.28206098 0.12193439 0.09120922 -0.089338705 0.22608557 -0.15656279 0.032463454 0.088597305
-0.17927508 -0.04452343 0.39409927 0.17951146 0.20013687 0.078406535 -0.10620076 -0.4208824
0.37098932 -0.18863548 -0.29815155 0.01865605 -0.043912854 -0.06691025 -0.29456484 -0.17140588

lstm.weight_hh_l1 f4 [128, 32]
00000000: f2a7 d83e 65a5 bfbe 58ff c23d 1f85 a8bd
00000010: 0185 debe ef24 c63b dbb7 6b3c 7fd1 963d
00000020: 5cab 2b3f 5371 1cbe 6e2f b53d 5442 5cbe
00000030: b694 093e ff1b e43e fd85 23be 8c37 e53d
00000040: f78e edba 0409 2fbe 079a 57be 917e b2bc
00000050: d12b 953e 8eff 76be 357b 21bd 7bb2 03be
00000060: a291 e53e 1b81 003c 095c 4bbb e04f 14be
00000070: a58e 683e 5330 613e 1a86 85be 48b2 1ebc
00000080: 8f58 50bd 9f82 a5be 9ae8 8e3e 159c 3cbf
00000090: 62b2 88bc 28a7 c03e 107b 9ebc 7254 303e
000000a0: f58f 763e f861 e5be fd45 f3bb 4476 2abe
000000b0: 9a73 3ebe 1108 be3e b90e 833d e28d c4bc
000000c0: e2ff 333e ea8c b3bd d528 9abd 2dda 3bbe
000000d0: 3973 c23e 5d40 b53c 19a8 193e d0d2 a73d
000000e0: 8821 1f3e 2cf2 323e 4bf7 c9bd b9b8 593e
000000f0: 325f 343e e32e a3be 629d 62be c0bc 20be
00000100: 2f5f 71be 7e48 593e d2b4 babc 3b46 353d
00000110: 39a4 b2be 9db6 413e a132 b63d cd24 9b3e
00000120: aee9 3b3e 6079 5ebe 2bca 993d e333 e33c
00000130: 0afd 853e 8421 9b3e 0ceb e2be 3852 05bd
00000140: ebf6 013f 2c35 4cbd 4b29 d8bd 3d88 b73e
00000150: 5d2d c03c 83b3 433e 0b49 cabe 86cf 8ebc
00000160: 85c9 b33d 1f98 d5bd b05a f13e 2c34 2e3e
00000170: 203d 733e c021 873e faea b6be 970f bfba
00000180: 28b8 73be 83a5 7b3e 967a 0e3e d8ca 043e
00000190: d506 3fbe 29fb 843e 4b51 d63d d1a7 24be
000001a0: 2785 15bd a093 983e af7b 983e 138b abbe
000001b0: 6bba c1bc 6e8d 09bf 944c 843d fe43 863d
000001c0: edfd 423e c988 90be 4a02 68bc adc3 83bd
000001d0: 1ab5 163e f825 603d 9081 5d3d 375f b63d
000001e0: 397b 903e 845d 0abc 3081 24bd 99e2 0fbe
000001f0: 3e68 1abe 450f d23e b68c d63c 9146 1f3d
00000200: 35b0 5b3d 5760 01be bb07 6dbd a6c8 c0bc
00000210: f4ba ef3c 2046 a0be 72eb 77be 2d5b 90bc
00000220: 56d0 8ebd a17b d0bd 8fef 3c3e 7aaf 8fbe
00000230: 66ad b5be 75ee b8bd c0b8 0b3f d484 ab3d
00000240: 0809 9dbe ad81 cabb af8b 4bbe e061 31be
00000250: 2942 19be 6bcf 65bd 0735 973e 42de e83d
00000260: ab81 d2bd a181 f73d 12ba afbd 59fe 643e
00000270: d842 6abe 0b6a 9c3e 03b3 0c3e 19e3 a83d
00000280: 5a64 a2bd 19a6 dfbe 0a29 02be 531f 0cbe
00000290: a998 7bbd be8d 47bd 16bb cbbd 668d dfbc
000002a0: a794 d1be 51ec 873d 8e06 73be 6835 e73c
000002b0: 332c 3b3e f94a 703c 6bd4 15bd 525e 0e3d
000002c0: 281d 9dbe 0369 443e d573 d5be e2ce 103e
000002d0: 5602 c53c 0c6d a93e 24ca 823e 2134 8ebc
000002e0: 7084 8d3d 4fa1 dc3e 643f debe b58f fa3e
000002f0: 91bd f8bd c28a bfbd 6509 733d 8fac aa3d
00000300: f7bc 2fbd 3a90 9fbe 6df8 b5bd 698f 863d
00000310: ed1a bc3e 466d 66be 51a3 2fbe 4284 0e3e
00000320: d451 95bb cf32 8a3e 17dd 9b3e 2fb0 ecbe
00000330: 26f3 f43a 6177 94bd 63c2 ae3e 3140 a6be
00000340: ea1c 0b3c 60e3 8e3d 11e1 efbe 85b8 9f3e
00000350: 7d19 eb3c d319 5f3e de9f 423e 791b 703e
00000360: 5dd9 3dbe 7c1f b53d 001b 05bd ab76 9d3c
00000370: 1697 13bd a066 7a3e 3f7b 213e 7156 06bd
00000380: d359 5e3e 1d65 92be 3cf6 b6bc 5ff0 ebbd
00000390: ae82 0ebe 86c0 2e3e da94 01be 8dae 263c
000003a0: 826a 043c e2bf 023d 84f8 8c3e 9c5e acbe
000003b0: 1989 2fbe 1da4 5bbd 17bd 063d 0641 67bd
000003c0: dd1f 4cbe 6a5f e339 2b9c ed3b 3618 77bd
000003d0: 008f 5e3e 3c68 093e 046b a33d 0758 d63d
000003e0: 2a7f 343d 12c3 4f3e 8a7b cb3d ecbe 1f3e
000003f0: c6ea 53be d187 f43d f3c9 463e 4519 14be
0.42315632 -0.37430874 0.09521359 -0.08228516 -0.4346085 0.0060468833 0.014387096 0.07364177
0.6705835 -0.15277605 0.08846937 -0.21509677 0.13435635 0.4455261 -0.15969081 0.11192235
-0.0018124272 -0.17093283 -0.2105485 -0.021788867 0.29134992 -0.24120924 -0.03942414 -0.12861054
0.44837672 0.007843281 -0.00310302 -0.14483595 0.22710665 0.2199109 -0.26078874 -0.00968606
-0.050865706 -0.32326218 0.27911836 -0.7367566 -0.016686622 0.3762753 -0.01934579 0.17219713
0.24078353 -0.44801307 -0.0074241147 -0.16646677 -0.18598786 0.3711553 0.063992925 -0.023993436
0.1757808 -0.087671116 -0.07527319 -0.18344946 0.37978533 0.022125417 0.1500553 0.08194506
0.15540135 0.17475194 -0.098616205 0.21261872 0.17614439 -0.3187171 -0.2213035 -0.15697002
-0.23571466 0.2121906 -0.0227913 0.04425643 -0.34890917 0.18917318 0.088963754 0.30301514
0.1835086 -0.21725988 0.075092636 0.027734702 0.26169616 0.30299008 -0.44319952 -0.032549113
0.5076739 -0.049855396 -0.10554751 0.3584613 0.02345913 0.19111447 -0.39508852 -0.01743294
0.08778671 -0.104294054 0.47139502 0.1701209 0.23753786 0.26392937 -0.35726148 -0.001457679
-0.23800719 0.24574856 0.1391395 0.12968004 -0.1865495 0.2597287 0.10464724 -0.16079642
-0.036503937 0.2980013 0.29781863 -0.33504543 -0.023648461 -0.5373143 0.064599186 0.06555937
0.19042177 -0.2822936 -0.014160702 -0.064338066 0.14717522 0.05472371 0.05407864 0.089048795
0.2821901 -0.008445147 -0.040162265 -0.14051284 -0.15078828 0.41027275 0.026190143 0.038885657
0.05363484 -0.12634407 -0.0578687 -0.023533177 0.02926395 -0.313035 -0.24210909 -0.017621601
-0.06973331 -0.1017983 0.1845076 -0.28063565 -0.35483855 -0.09029857 0.5457878 0.08374944
-0.30670953 -0.0061800093 -0.19877504 -0.17322493 -0.14966644 -0.056106012 0.29532644 0.11370517
-0.102786385 0.120852716 -0.08580412 0.22362651 -0.22877061 0.30549654 0.13740163 0.082464404
-0.07929297 -0.4368141 -0.12710968 -0.13683824 -0.061424885 -0.04871916 -0.09947793 -0.027289104
-0.40933725 0.06636871 -0.23732969 0.028223708 0.1827858 0.014666312 -0.03657953 0.03475792
-0.30686307 0.19180684 -0.41689935 0.1414142 0.024048965 0.3309101 0.25544846 -0.017358841
0.06910026 0.4309182 -0.43407738 0.48937765 -0.12145532 -0.09352638 0.05933513 0.08333694
-0.04290482 -0.31164724 -0.08885274 0.06570322 0.36739293 -0.22502622 -0.17152144 0.1391764
-0.004556874 0.2699189 0.30442116 -0.46228167 0.0018688187 -0.07249332 0.3413268 -0.3247085
0.00849078 0.06976962 -0.468514 0.31195465 0.028698677 0.21787195 0.19006297 0.2344798
-0.18539949 0.08843896 -0.032496452 0.019221624 -0.03603276 0.24453211 0.15769671 -0.03279728
0.21713953 -0.28592768 -0.02233421 -0.115204565 -0.13917038 0.1706563 -0.12654439 0.010173452
0.008082034 0.031921275 0.27533352 -0.3366593 -0.17142142 -0.053623307 0.032895174 -0.056458496
-0.1993403 0.00043367903 0.0072512827 -0.060325824 0.21734238 0.13418669 0.07979396 0.10466009
0.044066586 0.20289257 0.099356726 0.15600175 -0.20695028 0.119399674 0.19412975 -0.14462765

lstm.bias_ih_l1 f4 [128]
00000000: 171b c6be bf46 e6be 5e19 1cbe 4e71 40be
00000010: 3332 c3bd 7181 193e 4d54 4d3c 7627 18bd
00000020: 4dd9 953d a7e9 093e 23b8 a3bd 94bd 7d3d
00000030: 1125 babe ea5c 58bd 1b66 7c3e 9505 a3bd
00000040: 4d62 e63d d654 4fbe 1ca9 20be a0b3 9ebe
00000050: 455d b2be 350e f0be 3e87 a43e 9113 5cbd
00000060: 0e35 b43e 834e edbe 2922 5abe 580f 1abe
00000070: ace1 ce3e 4cff 08be d9d0 f43d 1626 3abe
00000080: e794 97be f0b6 efbd abdc cfbd 7e2f cebd
00000090: 3894 f5bd f3d0 1fbe 3f9d 0f3d 0ea8 81ba
000000a0: 6ef1 6fbe a13a f23d df13 99bd a315 763e
000000b0: 427f b2bd 46e0 85be 6c4f 7d3e c7fe 7fbe
000000c0: 83ae 0fbc b2a2 c6be 3040 f1bd 8847 e9be
000000d0: 5ebb e9be ba7b ddbe ee13 b13e da5a bebe
000000e0: a54a 1a3d d5e5 8dbe 96cc 77be 95b5 93be
000000f0: 0fb4 05bd 1e94 5abe 9d0b 72be 6c5b 85be
00000100: dcc9 88be 9b0f 853d 8fca a03c 9015 323e
00000110: 9864 553d f3a2 53be 76bb f53d dfba 4b3d
00000120: eb1d 9fbe 2d48 5c3e e5fa 2fbe 1110 7e3e
00000130: fe82 c83d 2492 9bbd 4d50 b83e 3d3c 2cbe
00000140: 91e9 4dbe 859c 0dbe 765f c7bc 49a8 b4bc
00000150: 55e3 8ebd 9b18 19be e11d c73e 0ec8 113e
00000160: b096 c9be cc96 26be 442e 033c 0a3d 00be
00000170: 7419 73be a0b5 be3e b7a2 1a3e 6723 173e
00000180: 2b09 93be 42a0 c7be d87b 70be 03e9 0dbe
00000190: e8f8 90be 035e 21bd 0a5d 6bbe 5aa5 e9bd
000001a0: 3e27 0a3e 10cb 03be d127 5bbe 3d9c 84be
000001b0: 625a 9bbe 5d0e edbd 104d ab3d c2e8 87be
000001c0: bea8 c93d 1ae3 28be 94b2 7cbe 1c7f cfbe
000001d0: 7b77 a7be 7aa8 f8be fe65 833e 03f6 06be
000001e0: 66ae 603e 0c37 c5be df81 c6be 4bff 7abd
000001f0: edc3 413e c894 223e 0f99 3dbe 152e c5be
-0.38692543 -0.4497585 -0.15244052 -0.18793222 -0.09531059 0.14990784 0.012532306 -0.037147008
0.073168375 0.13468038 -0.07994106 0.061948374 -0.36356404 -0.052822985 0.24648325 -0.07960049
0.11249218 -0.20247206 -0.1568951 -0.30996418 -0.34836784 -0.4688584 0.32134432 -0.053729597
0.35196728 -0.46348962 -0.21302094 -0.15044916 0.4040655 -0.13378638 0.11953897 -0.18178591
-0.2960579 -0.117048144 -0.10149511 -0.10067652 -0.11991161 -0.15607052 0.03506207 -0.0009892003
-0.23431942 0.11827589 -0.07474493 0.24031691 -0.08715679 -0.2614767 0.24737328 -0.24999534
-0.008769634 -0.38796002 -0.11779821 -0.45562387 -0.45650762 -0.43258458 0.34585518 -0.3717869
0.037668843 -0.2771441 -0.24199137 -0.28849474 -0.03264242 -0.21345565 -0.23637243 -0.26046312
-0.26716506 0.06497117 0.019627837 0.17391038 0.052097887 -0.20667629 0.11998646 0.04973876
-0.31077513 0.21511908 -0.17185552 0.24810816 0.0979061 -0.075962335 0.35998765 -0.16819854
-0.2010863 -0.13829239 -0.024337512 -0.0220529 -0.06976954 -0.14950792 0.38889983 0.14236471
-0.39372778 -0.16268462 0.008006636 -0.12523285 -0.23740178 0.37247944 0.15101133 0.14759599
-0.28717932 -0.38989455 -0.23484743 -0.13858418 -0.283149 -0.039396297 -0.2298471 -0.114084914
0.13491532 -0.12870431 -0.21401908 -0.2590045 -0.30342394 -0.11575005 0.08364308 -0.26544768
0.09846638 -0.16492882 -0.24677497 -0.40526664 -0.32708344 -0.48566037 0.2566375 -0.13179784
0.21941528 -0.3851856 -0.3877096 -0.061278623 0.18922396 0.15877068 -0.18515418 -0.3851172

lstm.bias_hh_l1 f4 [128]
00000000: 0f3c d7be e51b 48be 2c17 82be 0235 64be
00000010: bb82 4cbe 2121 3d3e 48e3 8cbe 0f0e 423d
00000020: 2213 e23b e478 ea3d 37c1 35be 4102 193e
00000030: 1e05 93be 789d 95bd 1ccd 5a3e db26 d0be
00000040: e587 7d3e d07d 10be c6cb 8abe 720c 01bf
00000050: e4c0 acbe 7b37 c9be 7305 d83e d7ef 83bd
00000060: 8006 b23e 83c0 66be fcd1 3dbe 2d68 9cbd
00000070: d329 583e df6b ecbd 6eea 193e 4a3b babe
00000080: 7243 4abe 44e5 3dbe 04c1 21be e8dc 36bc
00000090: 59ac 1abe fb36 58bd c21a f2bb 3e13 85bd
000000a0: 2370 43be ab9c 3d3e a81e ffbd 27fa cabc
000000b0: 09e9 a1bb 1bbe 85bc 5981 15bd 96e8 9fbe
000000c0: d628 923e ac9d 93bd 42ed 23be 0cb6 e7be
000000d0: 4c7e d4be e712 cbbe 8002 d93d d440 a8be
000000e0: 0e77 8c3e 5bda 8fbe 2f76 d8be cb92 57bd
000000f0: 90af 7d3e 8fe9 82be 66b3 c1be 3bf4 4ebe
00000100: 354a 95be f1c4 983d 1559 22be 56d5 bc3e
00000110: 0d29 823e 2a36 33be bc99 383d b7a0 a03d
00000120: 1a93 e1ba 2407 c53e 1b2c 9e3d 641c a83e
00000130: b0db 973d 24ec b8bd fbe0 143e 1d67 bf3d
00000140: cf11 2abd bdd2 dbbd ee0c 533e d5f6 e1bd
00000150: c258 6bbe 22cf 1abe 2d80 813e a43c b6bd
00000160: 7cb6 d6be 58fd 16be 06ec 67be 0633 83bd
00000170: 9f6a 24be 5a35 893d 6ee5 b03e a811 333e
00000180: 5bc3 8cbe d28a 49be 2a26 bebe 56ed 73be
00000190: ab73 97be eab8 bcbd 3f33 2bbe 88df bf3c
000001a0: 9216 513e b1a4 da3c fe74 d4bd 4683 b8bd
000001b0: 07b4 5abe 193d 90be dfde 9abc a85d a9be
000001c0: e67d 983e a0cf 77be 1f48 30be e600 1fbe
000001d0: 3143 bdbe d898 b5be 5354 563e 3705 b3ba
000001e0: 3bad 8a3e 7a78 84be fb7f 11be cf1c b9be
000001f0: 0967 9b3d 9fd3 193e db61 f4bd 580b 0abe
-0.4203801 -0.19541891 -0.25408304 -0.22285846 -0.19971745 0.18469669 -0.27517152 0.04737669
0.0068992535 0.11448839 -0.17749487 0.14942266 -0.28714842 -0.073054254 0.21367306 -0.40654644
0.24758871 -0.14110494 -0.27108592 -0.50409615 -0.33740914 -0.3930014 0.42191657 -0.0644223
0.34770584 -0.22534375 -0.18537134 -0.076370575 0.21109705 -0.11544012 0.15030834 -0.3637336
-0.19752291 -0.18544489 -0.15796286 -0.011161067 -0.15104808 -0.05278681 -0.0073884437 -0.06497811
-0.19085746 0.18516795 -0.12457019 -0.024777485 -0.00494111 -0.016326 -0.03650031 -0.31232136
0.2854678 -0.07207808 -0.16008475 -0.45256078 -0.41502607 -0.3966286 0.1059618 -0.3286196
0.27434582 -0.2809628 -0.42277667 -0.052630227 0.24774003 -0.25568816 -0.37832183 -0.20210354
-0.29158178 0.074594386 -0.15854295 0.36881512 0.25421944 -0.1750113 0.045068488 0.07843154
-0.0017209977 0.3848201 0.07723256 0.3283416 0.07414949 -0.09029415 0.14538948 0.09345839
-0.04152089 -0.107335545 0.20610401 -0.110334076 -0.22983077 -0.15118077 0.25293103 -0.08898285
-0.419361 -0.1474508 -0.2264863 -0.06406216 -0.16056298 0.06699629 0.3455004 0.17487204
-0.27492794 -0.19681862 -0.37138492 -0.23821005 -0.29580435 -0.09214957 -0.16718768 0.023422018
0.20418766 0.02668986 -0.10373877 -0.090094134 -0.21357737 -0.28171614 -0.018905101 -0.33079267
0.29783553 -0.24200296 -0.17215012 -0.15527686 -0.36965325 -0.35468173 0.20930605 -0.001365817
0.2708529 -0.25873166 -0.14208977 -0.36154792 0.07588012 0.15022133 -0.11932727 -0.1348089

lstm.weight_ih_l2 f4 [128, 32]
00000000: 1c2f ac3e 65ec 2d3c daf2 ee3d a8c4 c63e
00000010: bf19 c8bd a3ad c1bd e4f7 4c3e b96d 36bc
00000020: 30bb af3d c371 be3d bc40 533d 0e2c 893e
00000030: c537 fabd 7027 8bbe b7ee 55be 02a6 52be
00000040: 2143 60be 5cab 3c3c 9ed0 ff3c 5eaa 96bd
00000050: 2c8d 79be 2ba6 0f3e 3937 c7be 6429 273e
00000060: ce6b d33e a4d1 b63d c33b 303d 16dd 39be
00000070: 1df3 13bc 514a 9fbc e477 143d 1be6 82be
00000080: eae2 813e 9566 853e 9745 0e3d 5201 733c
00000090: 68e7 09bf 0634 573e 376d 473e cf01 4e3d
000000a0: 1e5d 773e aa03 a9be cf36 1f3e c2f1 5abe
000000b0: b710 1f3c 9df3 2b3e 6dc3 533e f798 163e
000000c0: d15d 333d 2427 903e 4421 92be f772 84be
000000d0: 8bd7 773e f01c 7cbd cd70 59be ca65 f73b
000000e0: da1f b23e b4cc 233e 924d 933e 6fdc 39bd
000000f0: 2b3e 6abe 1a10 04be a213 5cbd b2aa 94bd
00000100: 1447 a0be 445c 08bf 054c 49be 1b89 5bbd
00000110: b664 2bbe 283b 293d cc9c 353f 3c0b 503f
00000120: 9ce5 f5be b072 843d 1d5b c93d 7292 2cbe
00000130: e491 553e 96d6 063f 4e44 af3e cf45 80be
00000140: 95e3 8cbe 154b cebd e5cc 05be bfef 88bd
00000150: a468 e03e cc95 59be ce26 f0be 562e 66bd
00000160: 39a7 da3e 8a9f 303e 8251 ddbd 2d1c 743e
00000170: cb58 223f ff8c 7e3e 94f7 0bbf 5818 9b3d
00000180: 86d3 c4be 6101 efbd 9121 8e3d 1437 29bd
00000190: 40d7 a73e 0064 a5bd e4f7 15be 585e fc3c
000001a0: 1cc7 2cbe 8ea7 8dbb 043b fdbc d4ca 2dbe
000001b0: 8bc0 5c3d b64a a63d 3fda 303e 3824 3cbe
000001c0: c4d3 6dbe 4513 aa3e 35fa 323e f0c8 393e
000001d0: 3b6d 30bd 54a3 c3bd 1417 8c3e 858b 6a3e
000001e0: 4211 79be f5db ab3c b7d7 cabd f31c 40bd
000001f0: 08ee 42be 1574 803e e6e5 983e ff18 12be
00000200: e909 003d 1799 833e f6e9 5ebd 60c1 3abd
00000210: 3422 d3bb 3f68 923d 977c 6c3e ab3a 2c3d
00000220: cd36 08bf a62b b7bc 5ac2 e03d c703 adbd
00000230: 39fe a33d e252 193e 6f87 1bbd 944f a13a
00000240: 91cf 8d3e 3767 a03e 82a4 f3bd e7b0 d7bd
00000250: 5417 f5bc d225 2d3e f9ff 753d a9a3 97be
00000260: 7f3c 95bd 8182 793c aea5 d7bd 34dc a93c
00000270: 3dd5 98bd 4d2b 113e 4f95 5c3d e2c0 a03c
00000280: 42db 763e 9173 8ebe cdeb cd3e 827c 9fbd
00000290: 212a 113e 8a14 83bd a15a b93c ed33 01be
000002a0: 06aa 513f 8d36 24be d022 963d 0df9 93be
000002b0: f431 4fbe 11e4 a2be 5659 083f 9e4c db3c
000002c0: 5149 95be 1fb8 623d c3f2 56be ddd9 9abe
000002d0: 66e1 153e 90cb f4bd 1bb7 9f3c ac6b ba3c
000002e0: 5fec 213e 89e1 3abe e89b 343e 9546 623c
000002f0: d592 eabe d405 7f3d 2cf9 023e 07dd e93d
00000300: d17d e43d 8d9b ab3d f589 183e 7a88 093d
00000310: 6218 31bf 86b1 b13e a0fe fd3e fba8 df3e
00000320: 33a6 ab3d 9027 babe 33be f4be 877d 9f3c
00000330: 92e9 a0bc fbdb e23e 00d4 b0be ca75 6d3d
00000340: b5d0 f43e 7bda c2bd cc1c 833e 20c0 d03d
00000350: d2ca 233e a2d5 02bd bffa 05bd 995d 923e
00000360: 7989 0b3f de05 a6be ad97 253e 36da febd
00000370: b268 f43e 0a4d e2be 80c3 ccbe 92e1 23be
00000380: 337e 1dbe 1cab 3abd bfb4 bb3d aa59 3ebe
00000390: 987e 95bd e2f0 033e 6708 eb3e fde5 0f3f
000003a0: e60e dcbe 7b33 5d3d 7c6a 943d 4419 babe
000003b0: 9954 7b3e d46d c2be 30e7 e5be 1769 fcbc
000003c0: 262a d23c b3f0 bf3b 27b1 ba3d cc82 e5bc
000003d0: 35cc 9c3e 56e2 503c d028 b5be 17ae 3abd
000003e0: fed1 d33e c833 3bbe 1c71 833e 50ef 86bd
000003f0: b1e3 563d 9de8 a03c 63f0 0dbe 02fa e73d
0.33629692 0.010615443 0.11667414 0.38821912 -0.09770536 -0.09456947 0.20016438 -0.011134558
0.08580625 0.09299042 0.051575407 0.26791424 -0.122176684 -0.27178526 -0.20891844 -0.2057114
-0.21900608 0.011515465 0.031227406 -0.07356714 -0.24370259 0.14028232 -0.3890932 0.16324383
0.41293186 0.089267045 0.043025743 -0.18150744 -0.009030131 -0.019444617 0.03624715 -0.25566182
0.25368434 0.26054826 0.034734335 0.014831858 -0.5386872 0.21015939 0.19475256 0.050294694
0.24156615 -0.33010608 0.15548252 -0.21381286 0.009708575 0.1679215 0.20680018 0.14706789
0.043790642 0.28154862 -0.28541005 -0.2586896 0.24203317 -0.061551034 -0.21234436 0.007549976
0.34789926 0.15996057 0.2877012 -0.045376237 -0.22875278 -0.12896767 -0.05372966 -0.0725912
-0.31304228 -0.53265786 -0.19657905 -0.05359755 -0.16737637 0.04131618 0.7094238 0.8126714
-0.4802674 0.064671874 0.098318316 -0.1685274 0.20856434 0.5267118 0.342318 -0.2505326
-0.2751738 -0.100729145 -0.13066442 -0.06686353 0.43829834 -0.21248549 -0.46904606 -0.056196533
0.42705706 0.1724836 -0.10806562 0.23838873 0.6341674 0.24858473 -0.5467465 0.075730026
-0.3844263 -0.11670185 0.06939996 -0.041312292 0.3278141 -0.08075714 -0.14645344 0.030806705
-0.16872829 -0.0043229526 -0.03091193 -0.16971904 0.05389456 0.08119719 0.17270754 -0.18373191
-0.23225313 0.33217826 0.17478259 0.18143058 -0.04307292 -0.09552637 0.27361357 0.22904785
-0.2432299 0.020978907 -0.099044256 -0.046902608 -0.19036114 0.25088564 0.298629 -0.14267348
0.03125945 0.25702736 -0.05442234 -0.045594573 -0.0064432863 0.071487896 0.23094402 0.042048138
-0.5320862 -0.02235968 0.109745696 -0.08447986 0.080074735 0.14973024 -0.037970956 0.0012307041
0.27697423 0.31328747 -0.11896612 -0.10531788 -0.02991835 0.16908959 0.060058568 -0.2961705
-0.07286929 0.015228868 -0.10529648 0.020734884 -0.07462547 0.14176674 0.05385333 0.019623224
0.24107078 -0.27822545 0.40218964 -0.0778742 0.14176227 -0.06400402 0.022626223 -0.12617464
0.8190006 -0.16036434 0.07330859 -0.28900948 -0.202339 -0.31814626 0.53261316 0.026769932
-0.29157498 0.055351373 -0.20991044 -0.30244341 0.14636764 -0.11952889 0.019496491 0.02275642
0.15812825 -0.18250097 0.17637599 0.013810773 -0.4581515 0.062261418 0.12790364 0.11419111
0.1115681 0.08379278 0.14896376 0.03357742 -0.6917783 0.34705752 0.49608326 0.4368361
0.08381309 -0.3635831 -0.4780136 0.019469036 -0.019642625 0.44308457 -0.34536743 0.05797366
0.4781548 -0.09514328 0.25607908 0.10192895 0.15995339 -0.031942017 -0.032709833 0.28587034
0.5450664 -0.3242635 0.16171141 -0.12443964 0.47736126 -0.441994 -0.39992905 -0.16004017
-0.15380172 -0.04557334 0.09165334 -0.18588892 -0.072995365 0.12884858 0.45904848 0.5621031
-0.42980117 0.054004174 0.07246873 -0.363474 0.2454399 -0.37974417 -0.44902945 -0.03081183
0.025654864 0.005857551 0.091158204 -0.02801647 0.30624548 0.012749275 -0.353827 -0.04557618
0.4137115 -0.18281472 0.25672233 -0.06588614 0.052463237 0.019642169 -0.13861232 0.11326982

lstm.weight_hh_l2 f4 [128, 32]
00000000: bb9b 13bd 738d 563e 17a1 07bd 516f fbbd
00000010: c98f 823e d455 2d3d 2a43 c3bc 4a78 183e
00000020: c27d aa3d adb0 71be 940b b2bc ecd9 253d
00000030: 2796 8d3e 82de ccbd dcd1 89bd d175 b53d
00000040: 7fa0 df3c b1d0 a5be 0270 87bd 73e6 aabb
00000050: 0cb3 193b b0c4 16be 7be2 a83d 5f8b 57be
00000060: f3e8 663e f748 743d 37a0 01be 7cae cebd
00000070: f818 12be b1ea 0b3c 11d3 c5bc 48bb b93d
00000080: b79a ec3d 48c9 bcbd 8aec 48be e3db 6fbd
00000090: 625c a93d b82a b5bd dccb 88be 5c38 92bc
000000a0: 4a69 273e 0e93 cf3d 087e 513e 9b98 87bd
000000b0: f80e 8cbe 5882 2fbf c0b0 c13e d70e 39be
000000c0: 1f3d 0a3e 90da 903e 19bc 8e3e 7abb 88bc
000000d0: 4c6e 02bd 5e7b 8a3d 5c4e 843d 7311 8dbc
000000e0: e5e4 143e d1cb d6bc f3cd 00bf 89bb 8f3e
000000f0: 0ee6 803d 9fc1 103e 5334 6abe ebee 65be
00000100: 97e4 363e 3fbd 063e 416e ad3e 44e9 23be
00000110: fed6 c9bd 2586 5a3e 6fc8 40be 9377 dfbd
00000120: d383 85bf a84a fd3e c64b b53c ba99 d6bd
00000130: 962b e9be 89ce 903d 77d5 cb3d 23fc 693e
00000140: fb1b 903d 02d7 f7be 2d26 fabd 2e27 51be
00000150: 23f5 b53e 1afb 823c 708a 91bd f27a 1bbe
00000160: 21a8 cdbe 283f 3a3f 3ee5 a93e 2384 cfbd
00000170: 0b58 0b3e 2328 193e 6139 883e ab67 073e
00000180: 1edd b93c da71 ab3e 44a3 2a3e 23e3 33bd
00000190: 5855 11bc e513 90bd 606a 64bd 0ffe 953e
000001a0: 5fdb 853d ee54 2d3e 068a f9bc 7c99 cdbd
000001b0: 44ca 563e 4143 8fbd d88a f5bc 8532 a5bd
000001c0: 2f47 be3d 753c 23be f268 c73d 1ce7 4a3e
000001d0: 5c56 48bd a4c6 a5bd 7586 a73d 6acf 933c
000001e0: ef86 7a3d f677 67bd 9625 2c3e b510 be3d
000001f0: 718e 44bd 2b2e 37bc 4faf b8bd 2746 843e
00000200: e904 343d fc89 d9be b56c f53d 2dd2 843e
00000210: 99de 483e f72f efbe d0d5 94be 1f1c 463e
00000220: 5525 923e 0d5c 953e 3876 c33d 79b3 9a3e
00000230: 55fd fabe ff17 1d3d 507c 473e 973a 24be
00000240: f241 633d df41 073e 9db5 bd3e ed85 e3bd
00000250: 7239 303c 9f30 2ebe 95c3 a43e 1246 d2bd
00000260: 5323 17be 2c88 46bd 4bb0 483d 225e 563d
00000270: b529 17bc 097a e5bc 1cba a63e c162 ce3d
00000280: 9ef2 8a3e bdbf 1ebd 55eb 0fbf 65c5 3ebe
00000290: e712 163e 06ae bdbc 90a0 7ebd fcb5 4b3e
000002a0: 459d e43d cdb7 b0be e878 593e f2a1 403d
000002b0: c8b3 483e a5ba 25bd 7815 6cbc 0fb4 b0bd
000002c0: 083c 583d f714 bd3e 81e8 63bd b911 cfbe
000002d0: b2db 29bd a868 1e3e ee22 d93d 2fab d7bd
000002e0: 6a11 1cbd 5991 30be e01c 68be 33d4 5abc
000002f0: 7b62 183e 1b68 c63d 6157 4ebe a3fd cebd
00000300: 37b2 3f3e e93d 64bb d31d 1a3d d404 7cbe
00000310: f69c 353e 4414 1a3c d1c2 c63d 3b22 013f
00000320: c60a 20be 202a 1cbf 6fd7 05be 248a 0fbe
00000330: 392b 573e a3a4 043e 9f3f 563d 97aa 0dbe
00000340: 9ba6 173e e18c 40bd 8dcc 58bd f6a6 84be
00000350: 547e a83c a756 5fbe c30a 6dbe 48e3 ca3d
00000360: 5c58 323f 8e48 2dbe df35 523e 06c2 b7be
00000370: d880 9bbd 2d6e 84bc 5653 73bc b8fe 8ebe
00000380: 2ce1 57bc 4cba 8dbc ed4c b83e b04d f3be
00000390: e9a2 3c3e d179 253d 22ef b43d 23e2 493e
000003a0: 1d49 4c3e 93b9 b8be f003 1b3d a20d 48be
000003b0: 4d18 02bd 471d 26be fc5b 1fbe 2ae4 6fbe
000003c0: 6f50 073f e36a b6bd 6223 883d 484a 0cbe
000003d0: facd 933d 6e44 9ebd 3b4d 9fbd 0854 09be
000003e0: ee63 babe 304c 873e 3757 8ebe 4668 933c
000003f0: d380 0f3d 746a 873e 875f 203d 64b8 46be
-0.036037188 0.20952396 -0.03311261 -0.12277091 0.25500324 0.04231818 -0.023835737 0.14889637
0.08324768 -0.23602553 -0.021734037 0.04049103 0.2765362 -0.100033775 -0.067294806 0.08860362
0.02729821 -0.3238578 -0.06613161 -0.00521546 0.0023452668 -0.14723468 0.08246323 -0.2104926
0.225498 0.059639897 -0.12658773 -0.10091874 -0.14267337 0.0085398415 -0.024148496 0.09068924
0.11552947 -0.09218079 -0.19621482 -0.05855931 0.08269574 -0.088460386 -0.26718032 -0.01784914
0.16348758 0.1013547 0.20458233 -0.06620904 -0.2735517 -0.68558264 0.37830162 -0.18072067
0.13499878 0.2829175 0.27877882 -0.016690958 -0.03184347 0.06761812 0.06460258 -0.017220234
0.14540441 -0.026220234 -0.50314254 0.28072765 0.062938794 0.1413636 -0.22871523 -0.22454421
0.17860638 0.13158129 0.3387318 -0.16006953 -0.0985546 0.21340235 -0.1882646 -0.10911479
-1.0430855 0.4947102 0.022130858 -0.1047854 -0.45541066 0.070706435 0.099528246 0.22850089
0.07036587 -0.48406225 -0.12214313 -0.20425102 0.35538587 0.015988875 -0.07106483 -0.15183619
-0.40167335 0.7275262 0.3318271 -0.10132625 0.13607804 0.14956717 0.26606277 0.1322314
0.022688445 0.334853 0.16663843 -0.043917786 -0.008870445 -0.070350446 -0.05576551 0.29295394
0.06535982 0.1692693 -0.030461323 -0.100390404 0.20975596 -0.069952495 -0.029973432 -0.080662765
0.09290921 -0.15941031 0.097368136 0.19814724 -0.048910484 -0.08094528 0.081799425 0.018043239
0.06116384 -0.056510888 0.16811213 0.0928053 -0.047987405 -0.011180441 -0.090178125 0.25834772
0.043949995 -0.42488086 0.11983625 0.259416 0.19616164 -0.46716282 -0.29069376 0.19346665
0.28544107 0.29171792 0.09544033 0.30215052 -0.49021402 0.038352963 0.19481015 -0.16037975
0.055482812 0.13208722 0.37052622 -0.11109529 0.0107558835 -0.17010735 0.32180467 -0.10267271
-0.14759569 -0.048469707 0.04899625 0.052335866 -0.009226252 -0.028012292 0.32563865 0.100774296
0.27138227 -0.038757075 -0.56218463 -0.18629988 0.14655648 -0.02315427 -0.062164843 0.1989364
0.11162809 -0.3451523 0.21237528 0.047029443 0.19599831 -0.0404612 -0.014409415 -0.086280935
0.052791625 0.36930057 -0.055641655 -0.4044321 -0.041469283 0.1546961 0.106023654 -0.105306976
-0.038102545 -0.17242946 -0.22667265 -0.013356256 0.14881317 0.09687825 -0.2015052 -0.10106971
0.18720327 -0.003482694 0.0376261 -0.24611217 0.17735657 0.009404246 0.09705127 0.50442857
-0.1562911 -0.6100178 -0.13070463 -0.1401754 0.21012582 0.12953429 0.052306768 -0.13834606
0.14809649 -0.047009353 -0.05292945 -0.2590863 0.02056805 -0.21810399 -0.23148637 0.09906632
0.69666076 -0.16922209 0.20528363 -0.35890216 -0.07592934 -0.016165817 -0.014851412 -0.2792871
-0.013176244 -0.017300747 0.3599619 -0.47520208 0.1842152 0.040399376 0.088346735 0.1971517
0.19949766 -0.36079082 0.037845552 -0.1953645 -0.031761456 -0.16222106 -0.15562433 -0.23426881
0.52857107 -0.08907106 0.06647374 -0.13700211 0.07217021 -0.07727896 -0.077784024 -0.13410962
-0.36404365 0.26425314 -0.27800915 0.017994057 0.035034966 0.26448405 0.039153602 -0.19406277
