models/lstm.pth (torch, 75761 bytes, 5 tensors)

lstm_layers.0.weight_ih_l0 f4 [256, 5]
0	0xbe5ddf37	-0.21667181
1	0x3ef52a8a	0.47884017
2	0x3f197a0e	0.59951866
3	0x3eba9091	0.3643842
4	0x3f81e7a0	1.0148811
5	0x3e01c1a6	0.12671527
6	0xbe3768f5	-0.17911132
7	0x3be5b57c	0.00701016
8	0xbd676643	-0.05649401
9	0x3e4a887f	0.19778632
10	0x3e2918ad	0.1651332
11	0x3f977bb0	1.1834621
12	0xbed6fe01	-0.41990665
13	0xbed29dfd	-0.4113616
14	0xbf98153b	-1.1881479
15	0x3edae111	0.42749837
16	0xbe91846b	-0.2842134
17	0x3dbd8e43	0.0925565
18	0x3d3e4310	0.046450675
19	0x3eac39e6	0.33637923
20	0x3ea1a4ea	0.31571132
21	0x4068f744	3.640092
22	0x3d9a3183	0.07528975
23	0x3d51442c	0.051090404
24	0xbfdf0e9e	-1.7426336
25	0x3d6523d9	0.05594239
26	0x3fcaa8ef	1.5832804
27	0x3fd36aa5	1.651692
28	0x3fd3647f	1.6515044
29	0x40358f96	2.8368888
30	0xbeefa963	-0.4680892
31	0xc00469ee	-2.0689654
32	0x3d3d7808	0.04625705
33	0xbdd8c04f	-0.10583555
34	0xbd4bd9cb	-0.04976825
35	0xc01f36ac	-2.487712
36	0xbfb379eb	-1.4021581
37	0xbf9c3f16	-1.2206752
38	0xbfa4c484	-1.2872472
39	0x3f4bb4d4	0.79572797
40	0x3ebc2105	0.36743942
41	0xbfc7436b	-1.5567449
42	0xbd04bbff	-0.03240585
43	0x3dcac45f	0.09900736
44	0xbe970f31	-0.29503778
45	0x3eb9197c	0.36152256
46	0xbf43cdef	-0.76486105
47	0xbdb006cd	-0.08595047
48	0xbddceeef	-0.107877605
49	0xbf8472fc	-1.034759
50	0xbfdcf224	-1.7261395
51	0xbe90e5bf	-0.28300282
52	0x3d29f3df	0.04149234
53	0x3dfa1754	0.12211481
54	0xc0893d62	-4.288743
55	0xc045de86	-3.0917068
56	0x3ff295b8	1.895194
57	0xbe02875a	-0.12746945
58	0xbe861b53	-0.26192722
59	0x3f381fa1	0.7192326
60	0xbfa7646b	-1.307752
61	0xbf90e8aa	-1.1321003
62	0x3df6a245	0.12042669
63	0x3e3873a0	0.18012857
64	0x3eb9ad84	0.36265194
65	0xc03baeb9	-2.9325392
66	0x3ff959ac	1.9480491
67	0x3e9bb96a	0.30414897
68	0x3e0d5e60	0.13805532
69	0x4017ebc4	2.373765
70	0xbd991657	-0.07474964
71	0x3f34e8f6	0.7066797
72	0xbd076b3a	-0.033061244
73	0x3bfb79c5	0.007674428
74	0x3d5b77c2	0.053581007
75	0x3f82ccc8	1.0218744
76	0xc04a373e	-3.1596217
77	0xbc12c4f2	-0.008958088
78	0xbe1843c7	-0.14869605
79	0xbe10275c	-0.14077514
80	0xc0778b9b	-3.8678958
81	0x3f86e23d	1.0537792
82	0x3b64a616	0.0034889034
83	0x3e713deb	0.23558776
84	0x3fc86672	1.5656264
85	0xc0139701	-2.3060915
86	0x3d9f640d	0.07782755
87	0x3fb079d0	1.3787174
88	0x3fb2e5ca	1.3976376
89	0xbfbd675c	-1.4797168
90	0xbf1ee7f7	-0.620727
91	0x3fca7f10	1.5820026
92	0xbeaea9a3	-0.34113798
93	0xbf223ba6	-0.63372266
94	0x3f01b526	0.50667036
95	0xc0478b03	-3.1178596
96	0xbfd4ca10	-1.6624165
97	0xc0005879	-2.0054
98	0xbff0bde2	-1.8807948
99	0x3ef40686	0.47661227
100	0x3eee9579	0.46598414
101	0xc048fa04	-3.1402597
102	0xbd35e2f3	-0.04440589
103	0x3b7d1a9f	0.0038620604
104	0x3d8aa9f3	0.067706965
105	0xbe9ed0ed	-0.31018773
106	0x3ed6769a	0.4188736
107	0xbc9cb52c	-0.019129358
108	0xbdab0334	-0.0835022
109	0xbc506d39	-0.012721353
110	0x3ce40738	0.027835473
111	0xbf6e4108	-0.9306798
112	0x3d589d65	0.052884478
113	0xbc873618	-0.016505286
114	0xbd5478a5	-0.051872868
115	0x3f5a8237	0.8535494
116	0xbfb6077f	-1.4221038
117	0x4011d338	2.2785168
118	0x4005c660	2.0902328
119	0xbf3b7449	-0.7322431
120	0xbf78cf44	-0.9719126
121	0x4036614e	2.849689
122	0xbca94779	-0.020663964
123	0x3e11ec67	0.14250337
124	0x3e605b38	0.21909797
125	0xc05c179b	-3.4389408
126	0xbd97e7d0	-0.074172616
127	0x3f064ad7	0.52457947
128	0x3f268b77	0.65056556
129	0xbf15ccdb	-0.5851571
130	0x3eadc49a	0.33939058
131	0x3ff85d14	1.9403405
132	0x3f8bfc6b	1.0936407
133	0x3f9bfacd	1.2185913
134	0x3d350adc	0.04419981
135	0x3ef715f1	0.48258927
136	0xbff972b1	-1.9488126
137	0x4052cada	3.293631
138	0x4059f654	3.4056597
139	0xbdcb54a6	-0.09928255
140	0xbeb46b9f	-0.35238358
141	0xc00b3681	-2.1752017
142	0xbffd47fc	-1.9787593
143	0xc004b45c	-2.0735083
144	0x3fba0c2b	1.4534963
145	0xbfa28e9c	-1.2699771
146	0xbdee601c	-0.11639425
147	0x3edebc2c	0.4350294
148	0x3f1eeb55	0.6207784
149	0xbfa6dad0	-1.3035526
150	0xc00bbf4a	-2.1835504
151	0x3edd01dd	0.43165484
152	0x3cefda7b	0.029278984
153	0x3dbb8f3c	0.09158179
154	0xbf88af46	-1.0678489
155	0xbee9c7cc	-0.45660245
156	0xbf5da112	-0.865739
157	0xbf0a057e	-0.5391463
158	0xbf43e314	-0.7651837
159	0x3ffc748f	1.9723071
160	0xbfbaea1d	-1.4602696
161	0x40248a6e	2.570949
162	0xbe4faad5	-0.20280011
163	0xbd5f34ee	-0.054493837
164	0xbec19472	-0.37808567
165	0xbe10f033	-0.14154129
166	0xbe384898	-0.17996442
167	0x3d68de86	0.05685284
168	0x3d6caefe	0.057784073
169	0xbdd14360	-0.10217929
170	0xbe04c7c3	-0.12966828
171	0x3ea41ca3	0.32053098
172	0xbc8ecdc3	-0.0174321
173	0xbe559ca8	-0.20860541
174	0xbedc9228	-0.43080258
175	0xc0889dbf	-4.269256
176	0xbe40f9ba	-0.18845263
177	0x401495a7	2.321634
178	0x40101314	2.2511644
179	0xc0019d0a	-2.02521
180	0xbe3e2e66	-0.18572387
181	0x3ffcb1c3	1.9741749
182	0x4016d1d8	2.3565578
183	0x4011d308	2.2785053
184	0x3ec63d60	0.387187
185	0xc05ea55b	-3.4788425
186	0xbe057d59	-0.13036098
187	0xbfa2b874	-1.2712541
188	0xbf7d9c06	-0.990662
189	0xbf0b02c9	-0.54301125
190	0x3e4921bf	0.1964178
191	0xbfb00c18	-1.3753691
192	0xbfa6f8f2	-1.3044722
193	0xbfaca648	-1.3488245
194	0xbf44841b	-0.76764077
195	0x3ca2cbbe	0.019872542
196	0x4009895a	2.1490083
197	0x3e409358	0.18806207
198	0x3e6fa70c	0.23403567
199	0xbecf6825	-0.40509143
200	0x3ea276d4	0.31731284
201	0xbfa4f271	-1.2886487
202	0xbf341d70	-0.7035742
203	0xbf3af844	-0.73035073
204	0xbe72d987	-0.23715793
205	0xbf8c8e1d	-1.098087
206	0x3fa0d9e7	1.2566499
207	0xbec61982	-0.38691336
208	0xbeb4f47c	-0.35342777
209	0x3f1defe2	0.6169416
210	0xc03bbdf9	-2.93347
211	0xbca6c615	-0.020358125
212	0x3ec5a13e	0.3859958
213	0x3edad5fa	0.42741376
214	0xbf78c02d	-0.97168237
215	0xbdf62192	-0.12018122
216	0x403a6e5a	2.9129853
217	0xbe6cdfa5	-0.23132189
218	0xbe926ad4	-0.28597128
219	0xbf10979a	-0.56481326
220	0xbe448caa	-0.19194284
221	0x3fe4a1c5	1.7861868
222	0x3c63edcb	0.013911675
223	0xbdc4c2d0	-0.0960747
224	0xbd949903	-0.07255747
225	0xbef294df	-0.47379205
226	0x3e429db6	0.19005474
227	0x3de64a98	0.112446964
228	0xbe07f315	-0.13276322
229	0xbe3abc2a	-0.18235841
230	0xbe4e9fb4	-0.2017811
231	0xbe3c5325	-0.18391092
232	0xbd1ffed9	-0.0390614
233	0x3da9b551	0.082865365
234	0x3d233618	0.03984651
235	0xbd8b8f7c	-0.06814477
236	0x3e0079bb	0.12546436
237	0xbdbb8bad	-0.091575004
238	0x3bc2e3ea	0.0059475796
239	0xbe854c56	-0.26034802
240	0x3e098bdf	0.13432263
241	0xbf9c1cb7	-1.2196263
242	0xbcf31f05	-0.029677877
243	0x3d71a777	0.058997598
244	0x3d5b36a2	0.0535189
245	0x3f26daab	0.6517741
246	0xc053ea77	-3.3111856
247	0xbd8835c3	-0.06650879
248	0xbdc9e2a9	-0.09857685
249	0xbcaf10e1	-0.021370353
250	0xc07467d3	-3.818837
251	0x3f782657	0.969335
252	0xbf284b8d	-0.6574028
253	0xbeffc99e	-0.4995851
254	0xbffc9c37	-1.9735173
255	0xbeac9e58	-0.33714557

lstm_layers.0.weight_hh_l0 f4 [256, 64]
0	0x3f10dea5	0.5658973
1	0xbeb75554	-0.35807288
2	0xbee40e24	-0.44542038
3	0x3f8f376f	1.1188792
4	0x40524dfe	3.2860103
5	0xc0361d8e	-2.8455539
6	0xbf21b829	-0.6317163
7	0x3fb03d37	1.3768681
8	0x3f420876	0.7579416
9	0x40247123	2.5694053
10	0xc096c362	-4.7113504
11	0xc05300ee	-3.2969317
12	0x3f45657d	0.77107984
13	0xbf0de64f	-0.5542955
14	0xbe972ad9	-0.29524878
15	0x3f893864	1.0720334
16	0xc05f9113	-3.4932296
17	0xbf625d7f	-0.88423914
18	0x3f37cf51	0.71800715
19	0xbf8abf16	-1.0839565
20	0x3fad76da	1.3551896
21	0x3fb3d10c	1.4048171
22	0xbc70a84c	-0.014688563
23	0xc0aa16a7	-5.315265
24	0xbf8ca9b1	-1.0989286
25	0xbf9b59dc	-1.2136798
26	0xbf180916	-0.59388864
27	0x40496962	3.147057
28	0xbf4efbcd	-0.8085297
29	0xc049e90e	-3.1548495
30	0xbfdbce49	-1.7172328
31	0x3f84dcc6	1.0379875
32	0xbf6b3583	-0.9187853
33	0x3f760fd9	0.9611793
34	0xbe293ed5	-0.16527875
35	0xbf0e6a83	-0.55631274
36	0x3f8b36af	1.0876063
37	0xbf8989d3	-1.0745186
38	0xbfa52104	-1.29007
39	0xbeee5126	-0.46546286
40	0xbfdf5821	-1.744877
41	0x3fff7038	1.9956121
42	0xbf8b208f	-1.0869311
43	0xbec0b3c9	-0.37637165
44	0xbfc4b664	-1.5368161
45	0x3f000c46	0.5001873
46	0xbfad3a53	-1.3533424
47	0x3ebe1d00	0.371315
48	0x3eeea1e3	0.46607885
49	0x3fdace99	1.7094299
50	0xbff26bf0	-1.893919
51	0xc050d2f7	-3.2628763
52	0xbfa78109	-1.3086253
53	0xbfc2419d	-1.5176274
54	0xc00ad896	-2.1694694
55	0x3f6ec582	0.93270123
56	0x3f1b94ac	0.6077373
57	0xc021cd90	-2.5281715
58	0x40165ebd	2.3495324
59	0x3ee01b60	0.43770885
60	0xbfa1af03	-1.2631534
61	0xbf634176	-0.8877176
62	0xbf888c1e	-1.066776
63	0x3fdda6d4	1.7316537
64	0xbfa8b8b5	-1.3181368
65	0xc0422f44	-3.0341349
66	0xc026ec30	-2.6081657
67	0xbfa5c700	-1.2951355
68	0x402f7613	2.7415817
69	0xbd2e0af4	-0.042490914
70	0x4097bf80	4.7421265
71	0x3fd00581	1.625168
72	0x3f7da203	0.99075335
73	0x3fb09ef2	1.3798506
74	0x3d910219	0.07080478
75	0x4089b5d3	4.3034453
76	0xbf8e4f58	-1.1117964
77	0x3f507f7d	0.8144453
78	0xc0c716c6	-6.22153
79	0x40aeeb4a	5.466222
80	0xbf4159be	-0.7552756
81	0x3fb7e37c	1.4366298
82	0xc003e6b5	-2.0609562
83	0xbf1f43f1	-0.62213045
84	0xc0187d53	-2.3826492
85	0xbee63d41	-0.44968608
86	0x4024cd42	2.575028
87	0x3e9b40ff	0.30323026
88	0xbf6b34e4	-0.9187758
89	0x4055e5b4	3.342145
90	0xbfabfe00	-1.343689
91	0x3ea400c4	0.32031834
92	0x4053df53	3.3105056
93	0xc043a2f6	-3.0568213
94	0x3f59124f	0.8479356
95	0xbf2c39be	-0.6727561
96	0xc014fe7f	-2.3280332
97	0x408970d8	4.295025
98	0xbf37046d	-0.7149113
99	0xbfe82524	-1.8136334
100	0x3f8800a1	1.0625192
101	0x3f95c6b7	1.1701268
102	0x3fa7c606	1.3107307
103	0xc0396871	-2.8969996
104	0xbf939670	-1.1530285
105	0xbf0c7129	-0.5486017
106	0x3c389e12	0.011268156
107	0xbf2bd9e2	-0.6712934
108	0x4026e2b7	2.6075876
109	0xbf911b04	-1.133637
110	0x3eb6fd4c	0.35740125
111	0x3dcc16cf	0.09965288
112	0x3f242d15	0.6413129
113	0xc1203dca	-10.015085
114	0xbd350cfc	-0.044201836
115	0xc0150b6d	-2.3288224
116	0x3f9c8262	1.222729
117	0x3e73c6b4	0.23806268
118	0xbfe5b375	-1.7945391
119	0xbf5a45f8	-0.85263014
120	0xbf2f9523	-0.6858694
121	0xbe352ff6	-0.17694077
122	0x406a39a0	3.6597672
123	0x3ff7a043	1.9345783
124	0xc0156f1c	-2.3349066
125	0xbfcd1a5c	-1.6023669
126	0xc088f350	-4.279701
127	0xbee12d68	-0.43979955
128	0xc028727a	-2.631987
129	0x3fc81cdc	1.5633807
130	0x3fb1fd84	1.3905492
131	0xbf2f5a33	-0.6849701
132	0x3eab66e5	0.3347694
133	0xc062fbe2	-3.5466237
134	0xbfb7fa97	-1.4373349
135	0xbffd2845	-1.9777914
136	0xbfa9efc0	-1.3276291
137	0xbfd388e9	-1.6526157
138	0x3e1ce5f1	0.1532209
139	0x403eb7ac	2.9799604
140	0xc0085510	-2.1301918
141	0xc00e81b8	-2.2266674
142	0x3e943e5e	0.28953832
143	0x3f1682e5	0.5879348
144	0x3fc8a495	1.5675226
145	0x3e4ea74a	0.20181003
146	0xbfae130d	-1.3599564
147	0x3e3ca7e4	0.1842342
148	0x3fa50b64	1.2894101
149	0x4049b3ba	3.1515946
150	0x3e407c3d	0.18797393
151	0xc0635ebf	-3.5526578
152	0x3f3c0f5b	0.7346093
153	0x3e91c030	0.2846694
154	0xc0039ec3	-2.056565
155	0x3f50b168	0.815207
156	0x3f2394c5	0.6389888
157	0xc03a19f4	-2.907834
158	0x3fbf88c4	1.4963613
159	0xbf2756f1	-0.6536704
160	0x4026119b	2.5948246
161	0x3fe5fc8b	1.7967695
162	0xbf01e0d7	-0.50733703
163	0xbfbffee4	-1.4999661
164	0x3fbfb9fa	1.497863
165	0x3f52086b	0.82044095
166	0x405bc281	3.4337466
167	0xc004d405	-2.0754406
168	0xbdeb2422	-0.11481501
169	0x3f9c72c2	1.2222521
170	0x3e99831e	0.29982847
171	0x3f3a5d08	0.72798204
172	0x4000a4aa	2.0100503
173	0xbd2c9895	-0.0421377
174	0xbf913704	-1.1344914
175	0xbf3e936a	-0.74443686
176	0x3ff154f6	1.8854053
177	0xbfdf5a2d	-1.7449394
178	0xbf51085a	-0.8165337
179	0xbf819d3e	-1.0126112
180	0x3fab8a3c	1.3401561
181	0x40201b3c	2.5016623
182	0x3f322ddf	0.69601244
183	0x3f025595	0.5091184
184	0xc0564167	-3.3477418
185	0xbec08d3a	-0.37607747
186	0xc043c59e	-3.0589366
187	0xbf8c73ec	-1.0972877
188	0x4019bf08	2.4022846
189	0xbd80e415	-0.06293503
190	0xc0116de7	-2.272333
191	0x3fb505a4	1.4142346
192	0x3e27bb0a	0.16379943
193	0xc07d66fd	-3.959411
194	0xbfad1183	-1.3520969
195	0x3f9f6a83	1.245438
196	0x4079a0a8	3.9004307
197	0x3fb2faa7	1.3982743
198	0x40c1763e	6.045684
199	0x3f88b57e	1.0680387
200	0xbead6a01	-0.33869937
201	0x40306169	2.7559454
202	0xc074c7aa	-3.8246865
203	0xbf7f0e3c	-0.99631095
204	0xbf8735c8	-1.0563288
205	0xbfb53412	-1.4156516
206	0x3f64f3f9	0.8943477
207	0xbcb1fc9d	-0.0217269
208	0xbd916fb7	-0.07101386
209	0x3ffcf9b2	1.9763701
210	0xbee01c0b	-0.43771395
211	0xbfdda0c7	-1.731469
212	0x3f9741d9	1.181697
213	0xbfde60dd	-1.737331
214	0x40212685	2.517976
215	0x4084245e	4.1294394
216	0xbeebbccb	-0.46042475
217	0xbf0b3707	-0.5438084
218	0xbe7115f9	-0.23543538
219	0x402154ee	2.5208087
220	0x4004e3ad	2.0763962
221	0x3fa51af7	1.2898854
222	0x3f106be1	0.5641461
223	0xbf8c8f6b	-1.0981268
224	0x3fe7b3ed	1.8101784
225	0xbfc8fc08	-1.5701914
226	0xbef1d79e	-0.47234815
227	0xbe7cc39a	-0.24683991
228	0xbd95faae	-0.07323204
229	0xbff36245	-1.9014364
230	0x3fa53554	1.29069
231	0xc07ffdea	-3.9998727
232	0xbfa0f776	-1.2575519
233	0x40610ee5	3.516534
234	0x3f6d7b20	0.92766
235	0x3fd7ff7b	1.6874841
236	0x3d68ede0	0.05686748
237	0x3f29971e	0.6624621
238	0x3f7c3be5	0.9852889
239	0x3fdd94b8	1.731101
240	0x3f712d86	0.9421009
241	0xc0020518	-2.031561
242	0xbefcd98d	-0.49384728
243	0x40535228	3.3018894
244	0x4006f7db	2.108878
245	0x3fd00566	1.6251647
246	0x3fd0a869	1.6301395
247	0x40015239	2.0206435
248	0x40be1dd2	5.94114
249	0x3fbf9a58	1.4968977
250	0x3eb051c1	0.34437373
251	0x3ec5a9e1	0.3860617
252	0xbffda250	-1.9815159
253	0xbf8db897	-1.1071957
254	0xbdb8f693	-0.09031405
255	0x400759d8	2.1148586

lstm_layers.0.bias_ih_l0 f4 [256]
0	0xc02a3912	-2.6597333
1	0xbfd111aa	-1.6333516
2	0x3e7639ff	0.24045561
3	0xbfe70e8b	-1.8051313
4	0x3f5b14ff	0.8557891
5	0xbfe7c69b	-1.8107485
6	0xc005251a	-2.0803895
7	0xc019cba5	-2.4030545
8	0xbf0436fb	-0.51646394
9	0x3fcf402c	1.6191459
10	0x3f13f68f	0.57798094
11	0xbfd1ac0b	-1.6380628
12	0xc0472ce7	-3.1121156
13	0xbf48898e	-0.7833489
14	0xbfb1342c	-1.3844047
15	0x3da83652	0.08213486
16	0xbf7c76d0	-0.98618793
17	0xbf842380	-1.0323334
18	0xbff029ce	-1.8762758
19	0xc007f017	-2.124029
20	0xc0524f5b	-3.2860935
21	0xbf9ca92b	-1.2239126
22	0xbfa34ab6	-1.2757175
23	0xbea98479	-0.3310888
24	0x3d0c47af	0.03424805
25	0xbfe42008	-1.7822275
26	0xc03c0e21	-2.9383624
27	0xc0081fe4	-2.1269464
28	0xc0205955	-2.5054524
29	0xbfbd8ea6	-1.4809158
30	0xbfeb0b61	-1.8362848
31	0xbf13d029	-0.577395
32	0xc037965f	-2.868553
33	0xbf9fbf80	-1.2480316
34	0x3f39a6aa	0.72519934
35	0xbfed3b58	-1.8533735
36	0xbf94399c	-1.1580081
37	0xbeefef0c	-0.46862066
38	0xbfc5d3f3	-1.5455307
39	0xc028e5fe	-2.6390376
40	0xbe6a963b	-0.22908871
41	0xbfe2fb0f	-1.7732867
42	0xc05399f7	-3.3062723
43	0xbfb1fc1f	-1.3905066
44	0xbf35e31d	-0.7104967
45	0xbfa20809	-1.2658702
46	0xbfa942fe	-1.3223569
47	0x3e475bb1	0.19468571
48	0xbfcd4161	-1.6035577
49	0xbfaad5f1	-1.334654
50	0xc01022e4	-2.2521296
51	0xbf4a5aed	-0.7904499
52	0x3f0b90ca	0.54517806
53	0xbfc5c000	-1.5449219
54	0xbf57e2b2	-0.84330285
55	0xc027af98	-2.6200924
56	0xbfda23ec	-1.7042212
57	0xbfc4bfe0	-1.5371056
58	0xbf7b79f9	-0.9823299
59	0xbe610cc1	-0.21977521
60	0xbf9d28bb	-1.2278055
61	0x3e70f43d	0.2353067
62	0xbff7ab53	-1.9349159
63	0xbff00f52	-1.8754675
64	0x3e411a91	0.1885779
65	0x3fb3c424	1.4044232
66	0xbffcda5d	-1.9754139
67	0x3fca9de5	1.5829436
68	0xc00c3d0b	-2.1912258
69	0xc005208e	-2.080112
70	0x3fb1316d	1.3843209
71	0xbfd2afc7	-1.6459893
72	0x4046a594	3.103856
73	0xbca06d62	-0.019583408
74	0xbf3007ee	-0.687621
75	0xbf6fa048	-0.93603945
76	0xc00a46f7	-2.1605814
77	0xbdebee90	-0.115201116
78	0x40014dc2	2.020371
79	0xbfb2e30e	-1.3975542
80	0xbf6b1201	-0.91824347
81	0xbe8750d5	-0.26428857
82	0x3fd8da65	1.6941649
83	0xc008f745	-2.1400921
84	0xbeb5d2ca	-0.35512382
85	0x3f1444bd	0.57917386
86	0x3fca54a7	1.5807084
87	0xbf67abf0	-0.9049673
88	0x3f4b3902	0.7938386
89	0xc02fc900	-2.746643
90	0xc034aa12	-2.8228803
91	0xbfc66b90	-1.5501575
92	0xbe381779	-0.17977704
93	0xc0308803	-2.7583015
94	0xc00167eb	-2.0219676
95	0xbe6b0768	-0.22952044
96	0xc025df38	-2.5917492
97	0x40542db4	3.3152895
98	0xbf5b5861	-0.8568173
99	0xbe93e939	-0.28888872
100	0xbff83c7c	-1.9393458
101	0xbfe78d31	-1.8089963
102	0xc005fbdd	-2.0934975
103	0xc00eb7f8	-2.2299786
104	0xc06055cc	-3.5052366
105	0xc046cc59	-3.1062224
106	0xbe3bd8ff	-0.18344496
107	0x3f07c32f	0.530322
108	0xbffa2c90	-1.9544849
109	0x401997f1	2.3998988
110	0x3f71b0d3	0.9441044
111	0xbff7df89	-1.9365093
112	0x3fe61784	1.7975926
113	0xc04eea94	-3.2330675
114	0xc0014a95	-2.0201771
115	0x3de40999	0.11134643
116	0xbf5410d4	-0.8283818
117	0xbff462c2	-1.9092638
118	0xbfa03f28	-1.2519274
119	0xbfce6611	-1.6124898
120	0xbf14f11b	-0.581804
121	0xbfac1f69	-1.3447086
122	0xc05345aa	-3.301127
123	0xbfe738c9	-1.8064204
124	0xbfbd53b0	-1.4791164
125	0xbfdca4bd	-1.7237774
126	0xbf6bd3bc	-0.92119956
127	0xbff8816d	-1.9414498
128	0x3ffae75c	1.9601855
129	0x400d4910	2.2075844
130	0x3e396645	0.18105419
131	0x3dab5635	0.08366052
132	0xc00d5a99	-2.2086546
133	0xbe11b5c7	-0.14229499
134	0xbf6d2f9c	-0.9265077
135	0x3d224a31	0.039621536
136	0xc0193dc2	-2.3943944
137	0xc0301402	-2.7512212
138	0x4044b422	3.0734944
139	0xbff611d9	-1.9224197
140	0x3fd1682d	1.6359917
141	0xbe4ec7af	-0.20193361
142	0xbf9a2dec	-1.2045264
143	0xbf8eb52c	-1.1149039
144	0x40052d1d	2.0808785
145	0x3d2e67c7	0.04257944
146	0xbf89f053	-1.0776466
147	0xbedee2f7	-0.43532535
148	0x3ebb80ba	0.36621648
149	0x3f505a63	0.8138792
150	0xbf7dc5c5	-0.991299
151	0x3f9a0a98	1.2034483
152	0x4040cb8f	3.0124242
153	0xbf4b874c	-0.7950332
154	0x3eb621c2	0.3557263
155	0xbb2b21b3	-0.0026112616
156	0xbf7173f9	-0.94317585
157	0x4001ceb5	2.0282414
158	0xbeed3e0b	-0.46336398
159	0xbf75de5b	-0.9604241
160	0xbf34ba9b	-0.7059724
161	0xbf521fc8	-0.82079744
162	0xbfb322d2	-1.3995001
163	0xbf1a26ed	-0.60215646
164	0x3fdd847f	1.730606
165	0x402042d8	2.5040798
166	0xbfd481db	-1.6602129
167	0x3eec6d1d	0.46176997
168	0x3fd8350e	1.6891191
169	0xbf5b6a71	-0.8570929
170	0x3d9829dc	0.07429859
171	0x3fd80ed0	1.687952
172	0xbe88bc60	-0.2670622
173	0xbf014489	-0.504952
174	0x3edccb40	0.43123817
175	0x3ea63448	0.32461762
176	0x3f951a1c	1.1648593
177	0x3fba3795	1.4548212
178	0xbf7455d8	-0.9544349
179	0xbf5ff810	-0.8748789
180	0x3f3adc3d	0.72992307
181	0x3f0b83b9	0.5449787
182	0x3e285119	0.16437186
183	0x3ee02d38	0.437845
184	0xbfb08db7	-1.3793248
185	0x3df8dc21	0.12151361
186	0xbe12f1e1	-0.14350082
187	0x3f84aa53	1.0364479
188	0xbfe5b9e8	-1.7947359
189	0x402f1432	2.7356076
190	0x3e83cb42	0.2574101
191	0x3f9215a6	1.1412857
192	0x3f8f7d83	1.1210178
193	0x3ea3d087	0.3199503
194	0xbfde4843	-1.7365803
195	0x3efb46bc	0.49077404
196	0xbfa269be	-1.268852
197	0xbf11c8f3	-0.5694725
198	0xbef44fa1	-0.47717002
199	0xbfca1dfa	-1.5790398
200	0x400f5c81	2.240021
201	0x3f6f1709	0.93394524
202	0xbfe1d989	-1.7644511
203	0xbedb8f17	-0.42882606
204	0xc04fe6ca	-3.2484612
205	0xbff03de9	-1.8768893
206	0x3f9db9c0	1.2322311
207	0xbed1479b	-0.40874943
208	0xbf2b7185	-0.6697009
209	0xbf905438	-1.1275702
210	0xbf8e7090	-1.1128101
211	0xc04af9ce	-3.1714969
212	0x3e0ceb72	0.1376169
213	0x3f013f64	0.5048735
214	0x3fe4a269	1.7862064
215	0xbef6a3e3	-0.4817191
216	0xbec911dd	-0.3927144
217	0xbffc0f13	-1.96921
218	0xc0474c67	-3.1140382
219	0xbf9be8c2	-1.2180407
220	0x3e3d7490	0.18501496
221	0xbf99163e	-1.1959913
222	0xc004ae26	-2.0731292
223	0xc01e8bba	-2.4772782
224	0xbdec0d15	-0.11525933
225	0xbee1e800	-0.44122314
226	0x3f694085	0.91114074
227	0xbfeae6df	-1.8351706
228	0xc000f541	-2.014969
229	0xbfcb2dfe	-1.5873411
230	0xbfb859db	-1.4402422
231	0xc00bf301	-2.1867068
232	0xbf3ca10a	-0.73683226
233	0xbf8cd7c7	-1.100335
234	0xc0359792	-2.837376
235	0xc0273e71	-2.6131861
236	0x3f8f6365	1.1202208
237	0x3f1cd4da	0.61262286
238	0x3fda6776	1.7062824
239	0x3ee577e0	0.4481802
240	0x3fc71465	1.5553099
241	0x3ec523c8	0.3850386
242	0xc0246d15	-2.5691578
243	0x3d89ba4c	0.067249864
244	0x3f89a1c2	1.075249
245	0xbf9a75e5	-1.2067229
246	0xc02346c3	-2.551194
247	0xc0004a04	-2.0045176
248	0xbfa3c221	-1.2793618
249	0xbf50e6d1	-0.816022
250	0xbfde630a	-1.7373974
251	0x3fa559e3	1.2918056
252	0xc02e0570	-2.7190819
253	0xbfbf42b7	-1.4942235
254	0xc00318c2	-2.048386
255	0xc01738db	-2.3628452

lstm_layers.0.bias_hh_l0 f4 [256]
0	0xc02a390b	-2.6597316
1	0xbfd111bb	-1.6333536
2	0x3e763a29	0.24045624
3	0xbfe70e83	-1.8051304
4	0x3f5b1504	0.8557894
5	0xbfe7c69a	-1.8107483
6	0xc005251c	-2.08039
7	0xc019cbab	-2.403056
8	0xbf0436f9	-0.5164638
9	0x3fcf402d	1.619146
10	0x3f13f699	0.57798153
11	0xbfd1ac0f	-1.6380633
12	0xc0472ce8	-3.1121159
13	0xbf48898a	-0.7833487
14	0xbfb13426	-1.384404
15	0x3da83608	0.08213431
16	0xbf7c76dc	-0.98618865
17	0xbf842387	-1.0323342
18	0xbff029d3	-1.8762764
19	0xc007f01d	-2.1240304
20	0xc0524f66	-3.286096
21	0xbf9ca926	-1.223912
22	0xbfa34aa0	-1.2757149
23	0xbea9847f	-0.331089
24	0x3d0c475e	0.03424775
25	0xbfe42008	-1.7822275
26	0xc03c0e1f	-2.938362
27	0xc0081fec	-2.1269484
28	0xc0205959	-2.5054533
29	0xbfbd8eb3	-1.4809173
30	0xbfeb0b65	-1.8362852
31	0xbf13d022	-0.5773946
32	0xc037965d	-2.8685524
33	0xbf9fbf7b	-1.248031
34	0x3f39a6a8	0.7251992
35	0xbfed3b5d	-1.8533741
36	0xbf943997	-1.1580075
37	0xbeefeefa	-0.46862012
38	0xbfc5d3f2	-1.5455306
39	0xc028e5ff	-2.6390378
40	0xbe6a9605	-0.2290879
41	0xbfe2fb0f	-1.7732867
42	0xc05399fc	-3.3062735
43	0xbfb1fc21	-1.3905069
44	0xbf35e314	-0.7104962
45	0xbfa2080e	-1.2658708
46	0xbfa94311	-1.3223592
47	0x3e475b8e	0.19468519
48	0xbfcd4166	-1.6035583
49	0xbfaad5e2	-1.3346522
50	0xc01022e0	-2.2521286
51	0xbf4a5ae3	-0.7904493
52	0x3f0b90be	0.54517734
53	0xbfc5c008	-1.5449228
54	0xbf57e2b8	-0.8433032
55	0xc027af97	-2.6200922
56	0xbfda23ee	-1.7042215
57	0xbfc4bfea	-1.5371068
58	0xbf7b79fb	-0.98233
59	0xbe610cb7	-0.21977507
60	0xbf9d28b6	-1.2278049
61	0x3e70f46d	0.23530741
62	0xbff7ab5c	-1.934917
63	0xbff00f51	-1.8754674
64	0x3e411a7b	0.18857758
65	0x3fb3c421	1.4044229
66	0xbffcda51	-1.9754125
67	0x3fca9ded	1.5829445
68	0xc00c3d0c	-2.191226
69	0xc005208a	-2.080111
70	0x3fb1316a	1.3843205
71	0xbfd2afc9	-1.6459895
72	0x4046a58e	3.1038547
73	0xbca06b86	-0.019582521
74	0xbf3007e6	-0.6876205
75	0xbf6fa046	-0.9360393
76	0xc00a46f8	-2.1605816
77	0xbdebee26	-0.115200326
78	0x40014dc1	2.0203707
79	0xbfb2e309	-1.3975536
80	0xbf6b1201	-0.91824347
81	0xbe8750d8	-0.26428866
82	0x3fd8da65	1.6941649
83	0xc008f743	-2.1400917
84	0xbeb5d2bb	-0.35512337
85	0x3f1444ce	0.5791749
86	0x3fca54ae	1.5807092
87	0xbf67ac07	-0.9049687
88	0x3f4b38f0	0.79383755
89	0xc02fc903	-2.7466438
90	0xc034aa14	-2.8228807
91	0xbfc66b8c	-1.5501571
92	0xbe381772	-0.17977694
93	0xc0308800	-2.7583008
94	0xc00167ea	-2.0219674
95	0xbe6b0775	-0.22952063
96	0xc025df40	-2.591751
97	0x40542db0	3.3152885
98	0xbf5b587c	-0.8568189
99	0xbe93e946	-0.2888891
100	0xbff83c8c	-1.9393477
101	0xbfe78d2b	-1.8089956
102	0xc005fbd6	-2.0934958
103	0xc00eb7f8	-2.2299786
104	0xc06055cb	-3.5052364
105	0xc046cc5b	-3.1062229
106	0xbe3bd926	-0.18344554
107	0x3f07c326	0.5303215
108	0xbffa2c9e	-1.9544866
109	0x401997ed	2.3998978
110	0x3f71b0ea	0.94410574
111	0xbff7df93	-1.9365104
112	0x3fe61776	1.797591
113	0xc04eea98	-3.2330685
114	0xc0014a96	-2.0201774
115	0x3de409f5	0.11134712
116	0xbf5410d4	-0.8283818
117	0xbff462ca	-1.9092648
118	0xbfa03f28	-1.2519274
119	0xbfce6619	-1.6124908
120	0xbf14f111	-0.5818034
121	0xbfac1f64	-1.344708
122	0xc05345ab	-3.3011272
123	0xbfe738c5	-1.80642
124	0xbfbd53b7	-1.4791173
125	0xbfdca4b7	-1.7237767
126	0xbf6bd3c1	-0.92119986
127	0xbff8816a	-1.9414494
128	0x3ffae75c	1.9601855
129	0x400d490c	2.2075834
130	0x3e3965fe	0.18105313
131	0x3dab5623	0.08366039
132	0xc00d5a97	-2.2086542
133	0xbe11b5c2	-0.14229491
134	0xbf6d2fb4	-0.92650914
135	0x3d224a28	0.039621502
136	0xc0193dc2	-2.3943944
137	0xc03013ff	-2.7512205
138	0x4044b420	3.073494
139	0xbff611d8	-1.9224195
140	0x3fd1682e	1.6359918
141	0xbe4ec7b9	-0.20193376
142	0xbf9a2df0	-1.2045269
143	0xbf8eb52b	-1.1149038
144	0x40052d19	2.0808775
145	0x3d2e67b1	0.042579357
146	0xbf89f04e	-1.077646
147	0xbedee2fd	-0.43532553
148	0x3ebb80ac	0.36621606
149	0x3f505a61	0.8138791
150	0xbf7dc5d8	-0.9913001
151	0x3f9a0a9a	1.2034485
152	0x4040cb8f	3.0124242
153	0xbf4b8738	-0.795032
154	0x3eb62198	0.35572505
155	0xbb2b2814	-0.0026116418
156	0xbf717410	-0.9431772
157	0x4001ceb4	2.0282412
158	0xbeed3e10	-0.46336412
159	0xbf75de5c	-0.9604242
160	0xbf34ba94	-0.70597196
161	0xbf521fb9	-0.82079655
162	0xbfb322dd	-1.3995014
163	0xbf1a26fd	-0.6021574
164	0x3fdd847f	1.730606
165	0x402042d8	2.5040798
166	0xbfd481e0	-1.6602135
167	0x3eec6d3b	0.46177086
168	0x3fd83509	1.6891185
169	0xbf5b6a71	-0.8570929
170	0x3d982a00	0.07429886
171	0x3fd80ed9	1.6879531
172	0xbe88bc67	-0.2670624
173	0xbf01448c	-0.5049522
174	0x3edccb50	0.43123865
175	0x3ea6341f	0.3246164
176	0x3f951a10	1.1648579
177	0x3fba3791	1.4548208
178	0xbf7455dc	-0.9544351
179	0xbf5ff803	-0.8748781
180	0x3f3adc2f	0.72992224
181	0x3f0b83b8	0.5449786
182	0x3e285150	0.16437268
183	0x3ee02d3b	0.43784508
184	0xbfb08db4	-1.3793244
185	0x3df8dbef	0.12151324
186	0xbe12f1f1	-0.14350106
187	0x3f84aa55	1.0364481
188	0xbfe5b9e8	-1.7947359
189	0x402f1433	2.7356079
190	0x3e83cb31	0.2574096
191	0x3f9215a3	1.1412853
192	0x3f8f7d8f	1.1210192
193	0x3ea3d06a	0.31994945
194	0xbfde4849	-1.736581
195	0x3efb46bb	0.490774
196	0xbfa269c4	-1.2688527
197	0xbf11c8f9	-0.56947285
198	0xbef44f85	-0.4771692
199	0xbfca1df7	-1.5790395
200	0x400f5c81	2.240021
201	0x3f6f1709	0.93394524
202	0xbfe1d97f	-1.76445
203	0xbedb8f10	-0.42882586
204	0xc04fe6c8	-3.2484608
205	0xbff03de9	-1.8768893
206	0x3f9db9c7	1.232232
207	0xbed14771	-0.40874818
208	0xbf2b7192	-0.6697017
209	0xbf905433	-1.1275696
210	0xbf8e708c	-1.1128097
211	0xc04af9d5	-3.1714985
212	0x3e0ceb84	0.13761717
213	0x3f013f60	0.5048733
214	0x3fe4a270	1.7862072
215	0xbef6a3e1	-0.48171905
216	0xbec911f3	-0.39271507
217	0xbffc0f13	-1.96921
218	0xc0474c5f	-3.1140363
219	0xbf9be8be	-1.2180402
220	0x3e3d7502	0.18501666
221	0xbf991639	-1.1959907
222	0xc004ae26	-2.0731292
223	0xc01e8bbc	-2.4772787
224	0xbdec0d59	-0.11525983
225	0xbee1e807	-0.44122335
226	0x3f69407e	0.9111403
227	0xbfeae6cb	-1.8351682
228	0xc000f544	-2.0149698
229	0xbfcb2df8	-1.5873404
230	0xbfb859d8	-1.4402418
231	0xc00bf300	-2.1867065
232	0xbf3ca10e	-0.7368325
233	0xbf8cd7c3	-1.1003345
234	0xc0359792	-2.837376
235	0xc0273e74	-2.6131868
236	0x3f8f635f	1.1202201
237	0x3f1cd4d2	0.6126224
238	0x3fda6774	1.7062821
239	0x3ee577d5	0.44817987
240	0x3fc7145a	1.5553086
241	0x3ec523c7	0.38503858
242	0xc0246d14	-2.5691576
243	0x3d89ba13	0.06724944
244	0x3f89a1c1	1.0752488
245	0xbf9a75ec	-1.2067237
246	0xc02346c2	-2.5511937
247	0xc00049ff	-2.0045164
248	0xbfa3c223	-1.2793621
249	0xbf50e6c7	-0.8160214
250	0xbfde631a	-1.7373993
251	0x3fa559e7	1.2918061
252	0xc02e0566	-2.7190795
253	0xbfbf42c8	-1.4942255
254	0xc00318c6	-2.048387
255	0xc01738e1	-2.3628466

output_layer.weight f4 [1, 64]
0	0x3fa27602	1.2692263
1	0x3e91bb20	0.28463078
2	0x3ef07392	0.46963173
3	0xbeef4f72	-0.467403
4	0x3f4a983d	0.7913855
5	0xbd2c43f0	-0.042056978
6	0xbf49c85d	-0.78821355
7	0xbe7e40c8	-0.248294
8	0x3cf1bb8f	0.02950838
9	0x3da08d85	0.07839493
10	0x3e59275d	0.21206422
11	0x3ebd09eb	0.3692163
12	0xbe3749ee	-0.17899296
13	0x3ee52c81	0.44760516
14	0x3ea623fe	0.32449335
15	0x3ef163a9	0.47146347
16	0x3e949d24	0.2902614
17	0xbf82bab8	-1.0213232
18	0xbf4bec73	-0.7965767
19	0x3fd679ed	1.6755959
20	0x3e9cc921	0.306222
21	0xbf557b33	-0.8339111
22	0x3f233123	0.6374685
23	0xbe1b7d09	-0.15184416
24	0xbf07a33d	-0.52983457
25	0x3f8f6e1a	1.1205475
26	0x3e9395fa	0.2882536
27	0x3ee7f58d	0.45304528
28	0x3eaaf5b9	0.33390597
29	0x3ee79e4f	0.45237967
30	0x3f91d2ce	1.1392457
31	0x3ffbbd2c	1.9667106
32	0xbeb25119	-0.34827498
33	0x3f1504dc	0.5821054
34	0x3ddc8d10	0.10769093
35	0xbe779627	-0.24178372
36	0x3ddad540	0.106852055
37	0x3e0eee30	0.13958049
38	0x3f21e5fa	0.6324154
39	0x3f4f96e3	0.8108961
40	0xbf0d4088	-0.5517659
41	0xbd828cfc	-0.06374547
42	0x3f5d9e03	0.8656923
43	0x3ef5216f	0.4787707
44	0x3e9293ea	0.28628474
45	0x3e49bb34	0.19700319
46	0xbec505c4	-0.3848096
47	0xbeaa9366	-0.3331558
48	0x3e9fee95	0.3123671
49	0xbf4ce685	-0.80039245
50	0xbe0f0022	-0.13964894
51	0x3ce38f6a	0.027778346
52	0x3fa992ab	1.3247885
53	0x3e09b398	0.13447416
54	0xbf115acf	-0.5677919
55	0x3ed7afb7	0.42126247
56	0x3d5e5d5e	0.05428826
57	0xbe91902b	-0.28430304
58	0x3e468f22	0.19390538
59	0xbeb25b2c	-0.34835184
60	0xbedc0def	-0.4297938
61	0x3d9099d8	0.07060593
62	0xbf2c4c83	-0.6730425
63	0x3edeb1b1	0.43494943
