models/lstm.pth (torch, 279793 bytes, 5 tensors)

lstm_layers.0.weight_ih_l0 f4 [512, 5]
0	0x3e4f80bb	0.2026395
1	0x3e68c1a4	0.22730118
2	0xbcb08eba	-0.021552432
3	0x3dad4ecb	0.08462294
4	0x3d58e3ba	0.052951552
5	0x3e1b2f32	0.15154722
6	0x3dbdd622	0.09269358
7	0x3d0d90f1	0.034562055
8	0xbd8f3dd7	-0.06994217
9	0xbdbbb2fa	-0.091649964
10	0x3e8a796e	0.27045768
11	0xbde842be	-0.11340855
12	0xbe259fd1	-0.16174246
13	0x3dacb801	0.084335335
14	0xbe0f67f8	-0.14004505
15	0x3e3f6225	0.18689783
16	0x3ce1f48d	0.027582431
17	0x3d925368	0.07144815
18	0x3de2c8f9	0.11073489
19	0x3dcaa2b3	0.09894314
20	0x3e0005db	0.12502234
21	0x3d728cec	0.059216425
22	0x3dbeac03	0.093101524
23	0x3b904363	0.0044025644
24	0xbcab8ac9	-0.020940201
25	0x3eb25b71	0.3483539
26	0xbe5887da	-0.21145573
27	0x3cc5b915	0.024136106
28	0x3c224896	0.009905001
29	0xbdd8fd96	-0.10595243
30	0x3e5cd290	0.21564698
31	0xbe5985ba	-0.21242419
32	0xbd1952e9	-0.037432585
33	0x3e2abd4e	0.16673777
34	0xbca1a353	-0.0197312
35	0xbd79f1ed	-0.061021734
36	0xbe96330c	-0.2933582
37	0xbe2a4469	-0.16627659
38	0xbdc9b066	-0.098480985
39	0x3b2e7f14	0.0026626037
40	0x3e815630	0.25261068
41	0x3dcb58b3	0.099290274
42	0xbe2c0f2c	-0.16802663
43	0xbe05c676	-0.13063988
44	0xbde9d34d	-0.114172556
45	0x3de6bc4c	0.112663835
46	0xbe378052	-0.17920044
47	0x3daee684	0.08540061
48	0xbcbe4f1f	-0.023231087
49	0x3cd2fa26	0.025754046
50	0xbda48f75	-0.08035175
51	0x3e0ff3e4	0.1405788
52	0x3ea0b7c7	0.3139021
53	0x3db8039e	0.08985065
54	0xbe20696e	-0.15665218
55	0x3ecfeee7	0.40611956
56	0xbde17d88	-0.11010271
57	0x3bac8e8c	0.0052660163
58	0xbdb18dc2	-0.08669616
59	0xbbe06882	-0.006848396
60	0x3e450d51	0.19243361
61	0x396a182d	0.00022324985
62	0x3e300969	0.1719109
63	0x3d7ac1b0	0.06121987
64	0x3cbdd215	0.023171464
65	0xbd3ca6ba	-0.04605744
66	0x3d55dd64	0.052213088
67	0xbe096c3e	-0.13420197
68	0xbdc2fddd	-0.09521077
69	0xbcf00e9f	-0.029303847
70	0x3e642700	0.22280502
71	0xbd5edaa3	-0.054407727
72	0x3ded694c	0.115923494
73	0x3db17b22	0.08666064
74	0x3d2d1517	0.04225644
75	0x3d6917cd	0.056907464
76	0x3d5ee48d	0.05441718
77	0x3ed5f670	0.4178958
78	0xbda9fe45	-0.08300451
79	0xbd2cf36a	-0.042224325
80	0x3e472cdc	0.19450706
81	0x3de7a7c4	0.11311296
82	0x3e265db1	0.16246678
83	0x3cfda1f0	0.030961007
84	0xbdb6615c	-0.089052886
85	0xbd855806	-0.0651093
86	0x3ea198d9	0.31561926
87	0x3d7d2029	0.06179825
88	0x3e13bd98	0.14427793
89	0x3e01d147	0.12677489
90	0xbd1af227	-0.03782859
91	0xbbaff94e	-0.0053702956
92	0x3c9d2862	0.019184295
93	0x3d91223d	0.070866086
94	0xbe5a733e	-0.21333024
95	0x3e61a8aa	0.22036996
96	0xbdedd4d2	-0.11612858
97	0x3c183473	0.009289849
98	0xbc384f09	-0.011249312
99	0x3db1116c	0.08645901
100	0xbe2bbd70	-0.16771483
101	0x3db6af9e	0.08920215
102	0x3bdd5166	0.006754088
103	0xbd67235f	-0.056430217
104	0x3d417304	0.047228828
105	0x3e6c2351	0.23060347
106	0x3ba5f715	0.005064855
107	0xbe8f6223	-0.2800456
108	0x3d042416	0.032260977
109	0xbe0a6f7b	-0.13519089
110	0xbd17d555	-0.037068684
111	0x3da1f456	0.079079315
112	0x3c9bd7b4	0.019023754
113	0xbe1d6486	-0.15370378
114	0x3ec5e8c7	0.38654158
115	0xbe3d2af6	-0.1847342
116	0x3e8010e0	0.25012875
117	0x3ddab52a	0.106790856
118	0xbdb27ce8	-0.0871523
119	0x3c90c59c	0.017672352
120	0x3d17eb39	0.03708956
121	0xbd60a1c2	-0.054841764
122	0xbdba7060	-0.09103465
123	0x3e01c556	0.12672934
124	0xbef430a8	-0.47693372
125	0xbd4f2d37	-0.05058023
126	0xbe4d52d3	-0.20051126
127	0xbd81dba2	-0.0634072
128	0x3e3b6c9f	0.18303154
129	0xbe22e507	-0.1590768
130	0x3db6004b	0.08886775
131	0x3db59040	0.08865404
132	0x3cba0fcd	0.022712613
133	0xbd7b60f1	-0.061371747
134	0xbca61ac0	-0.020276427
135	0x3e3b2d6c	0.18279046
136	0x3c81e18a	0.015854616
137	0xbd245cf9	-0.040127728
138	0x3d6e0bb2	0.058116622
139	0xbdd01088	-0.10159403
140	0xbd051774	-0.03249307
141	0xbe09eb64	-0.134687
142	0xbc825631	-0.01591024
143	0xbe6b163b	-0.22957699
144	0xbd6edf2f	-0.058318313
145	0xbc9fbfe5	-0.019500682
146	0xbdc99555	-0.09842936
147	0xbe118224	-0.14209801
148	0x3dd98fc0	0.10623121
149	0xbcc38cd5	-0.023870865
150	0x3d985486	0.074379966
151	0xbc9b2ac8	-0.018941298
152	0xbd86af40	-0.06576395
153	0x3dc9aade	0.098470435
154	0x3dc5f9fe	0.09666823
155	0x3e505b7e	0.20347401
156	0x3cc15ef8	0.023604855
157	0x3e1fb22a	0.15595308
158	0x3eed6bbe	0.46371263
159	0x3ebbe320	0.3669672
160	0x3cdedab5	0.027203897
161	0x3dad5df6	0.08465187
162	0x3dbcdec1	0.092221744
163	0xbe5505c8	-0.20802987
164	0x3d3d224d	0.04617529
165	0x3d808371	0.062750705
166	0xbc1f1a40	-0.009710848
167	0xbde7ef6f	-0.11324965
168	0xbdba6cd1	-0.09102786
169	0xbc76939c	-0.015049841
170	0x3e646070	0.22302413
171	0xbde5de3e	-0.1122403
172	0xbc0e7b64	-0.008696411
173	0x3d971b0c	0.07378206
174	0xbbe0a91c	-0.006856097
175	0xbe91a190	-0.28443575
176	0xbe7a43f2	-0.24439982
177	0xbe76f462	-0.24116662
178	0x3d2f00ed	0.042725492
179	0x3d0ae3e6	0.033908747
180	0xbc4caf65	-0.012492989
181	0x3e09b68b	0.13448541
182	0x3e8bf44e	0.27334827
183	0xbd5e111c	-0.054215536
184	0x3c87f7d1	0.01659766
185	0xbd980029	-0.074219055
186	0x3c155dec	0.009116631
187	0x3d1eb5fb	0.03874777
188	0x3daaccd0	0.08339846
189	0xbe9d3714	-0.30706084
190	0x3da25957	0.079271965
191	0xbe19109f	-0.14947747
192	0x3e97b1da	0.29627877
193	0x3dfd3b37	0.1236481
194	0x3e27c6d2	0.16384438
195	0x3e8d1441	0.27554515
196	0xbbdae80f	-0.0066804956
197	0x3de13863	0.10997083
198	0xbbb26c78	-0.0054450594
199	0x3c456ed7	0.012050352
200	0x3e56ea50	0.2098782
201	0xbcbeb05b	-0.023277452
202	0x3c35939a	0.011082554
203	0xbccba137	-0.024857147
204	0x3da4f67b	0.08054825
205	0x3edb921c	0.4288491
206	0xbdb56d31	-0.08858717
207	0xbe0f6a3e	-0.14005372
208	0xbd9c18ff	-0.07621955
209	0xbc254fe8	-0.010089852
210	0x3f0565d0	0.5210848
211	0x3da91c82	0.082573906
212	0xbdad7b45	-0.084707774
213	0x3d1257a5	0.035728116
214	0x3db36982	0.087603584
215	0x3e578a2d	0.21048804
216	0x3e360d45	0.177785
217	0x3e3e3e62	0.18578485
218	0xbd55b5f3	-0.052175473
219	0xbc029f72	-0.007972585
220	0xbea876c0	-0.329031
221	0x3d802416	0.06256883
222	0x3ea398a7	0.31952402
223	0x3df84c43	0.12123921
224	0x3da9c922	0.08290316
225	0xbdb4b804	-0.08824161
226	0x3e79dee5	0.24401434
227	0x3d8a8e08	0.067653716
228	0xbe445a2a	-0.1917502
229	0x3e569327	0.20954572
230	0x3e3c81ed	0.18408938
231	0xbdaf5b13	-0.08562293
232	0x3d98219a	0.07428284
233	0xbe2c1e68	-0.16808474
234	0x3e860f25	0.2618343
235	0xbcc07480	-0.023493052
236	0xbd4d8452	-0.05017502
237	0x3c825120	0.015907824
238	0x3d3ffde1	0.046872977
239	0xbd247dfe	-0.040159218
240	0x3e696f04	0.22796255
241	0xbd7d8e5c	-0.061903343
242	0xbae86c22	-0.0017732421
243	0xbc377e29	-0.0111995125
244	0x3e37e79c	0.17959446
245	0xbe2dcaab	-0.16971843
246	0xbc2d25a1	-0.010568053
247	0xbef14f77	-0.4713094
248	0x3c93f4b8	0.018061027
249	0xbdb5a6cd	-0.08869705
250	0xbd897627	-0.06711989
251	0xbd14ec8a	-0.036358394
252	0x3d93cd3c	0.0721688
253	0x3e9fb095	0.3118941
254	0x3e5b1d58	0.21397913
255	0x3d084e95	0.033278067

lstm_layers.0.weight_hh_l0 f4 [512, 128]
0	0x3daa5fb5	0.08319036
1	0xbe54c2ea	-0.20777479
2	0x3dc64186	0.09680466
3	0x3df7aeb1	0.120938666
4	0xbd885ba1	-0.06658102
5	0x3eac215f	0.3361921
6	0x3e52eeec	0.20598954
7	0xbe732a06	-0.237465
8	0xbd8f6255	-0.07001177
9	0x3e7f03df	0.2490382
10	0x3da051e4	0.078281194
11	0xbafc6798	-0.0019256948
12	0x385f9504	5.3306125e-05
13	0x3e1b2dc3	0.15154175
14	0xbd7a6742	-0.06113363
15	0xbdce05f3	-0.100597285
16	0x3e2623cb	0.16224591
17	0x3e30c1b8	0.17261398
18	0x3c9bf587	0.019037975
19	0x3da85897	0.08220022
20	0xbeb202bd	-0.34767714
21	0x3dfd9fd9	0.12384004
22	0xbd32a965	-0.04361858
23	0x3de2989b	0.110642634
24	0xbe755467	-0.23957978
25	0x3e68d9b1	0.22739293
26	0xbdaf75e5	-0.085674085
27	0xbe6f83b4	-0.23390085
28	0xbebff823	-0.37494
29	0xbe264432	-0.16236952
30	0xbe90e653	-0.28300723
31	0xbea13bfa	-0.3149107
32	0xbd7b8876	-0.061409436
33	0xbe922cfd	-0.28549948
34	0x3d1d2f7b	0.03837536
35	0xbdc62a2d	-0.09676013
36	0x3e620c59	0.22075023
37	0x3e13aa19	0.14420356
38	0xbebae847	-0.3650534
39	0xbe3c3b7e	-0.1838207
40	0xbd53fa39	-0.051752303
41	0x3cd7342d	0.026269997
42	0x3dfe4862	0.1241615
43	0xbcbc1c6e	-0.022962775
44	0xbd3ac00f	-0.045593318
45	0xbdb6f301	-0.08933068
46	0xbe8870fe	-0.26648706
47	0xbec0a37e	-0.37624735
48	0x3e2d1bd7	0.16905151
49	0x3da7a797	0.08186262
50	0xbe6753bc	-0.22590536
51	0xbde88b96	-0.11354749
52	0xbe005ce6	-0.12535438
53	0xbd18f747	-0.037345197
54	0xbd93a2ab	-0.07208761
55	0xbd276693	-0.040869307
56	0xbca39a41	-0.019971015
57	0xbb94e090	-0.0045433715
58	0x3cdda2ee	0.02705523
59	0xbe394c19	-0.18095435
60	0xbd883cb8	-0.06652206
61	0xbe2b437a	-0.16724959
62	0xbe0f41c3	-0.1398993
63	0x3ec770ab	0.38953146
64	0xbd517c4a	-0.051143922
65	0xbe25a38f	-0.16175674
66	0x3da56625	0.08076123
67	0xbe1ef7ea	-0.15524259
68	0x3e27a2b2	0.16370657
69	0x3d9cb822	0.07652308
70	0x3e21e5d7	0.15810333
71	0x3d815042	0.06314136
72	0xbd8464ce	-0.064645395
73	0x3d04fd50	0.03246814
74	0xbe1886fd	-0.14895244
75	0x3e8ef46b	0.2792085
76	0xbe0215a9	-0.12703575
77	0xbe6da4a1	-0.23207332
78	0xbc157f80	-0.009124637
79	0xbde2222d	-0.11041675
80	0x3e5a688e	0.21328947
81	0xbdba5a23	-0.090992235
82	0x3e0e23aa	0.13880792
83	0xbdac3be4	-0.08409861
84	0x3daacfde	0.08340429
85	0xbde7d798	-0.11320418
86	0x3e947291	0.28993657
87	0x3d8007e3	0.06251504
88	0x3da0ed95	0.07857815
89	0x3d0d344d	0.034473706
90	0xbe7c8925	-0.24661691
91	0x3c88fc67	0.016721917
92	0xbe1a4c05	-0.15068062
93	0xbdfc3053	-0.123139046
94	0x3db5f869	0.08885271
95	0x3dfbee34	0.12301293
96	0xbd3aba52	-0.045587845
97	0x3d9b033c	0.07568976
98	0x3e501c4c	0.20323294
99	0xbd491fd6	-0.049102627
100	0x3e37541c	0.17903179
101	0xbe044196	-0.12915644
102	0x3e15acdc	0.14616722
103	0x3d9d3a55	0.076771416
104	0x3d0f1f20	0.034941792
105	0x3e8d37c6	0.27581614
106	0xbe221891	-0.15829684
107	0x3d3f1683	0.04665233
108	0xbe0a1694	-0.13485175
109	0xbe62f8f3	-0.22165279
110	0x3e0f2b16	0.1398128
111	0xbdf82d6d	-0.12118039
112	0xbd97ec01	-0.07418061
113	0x3e1f6847	0.15567122
114	0xbdff7fa4	-0.124755174
115	0x3e9b2a60	0.30305767
116	0xbe20787e	-0.15670964
117	0x3da9da3d	0.08293579
118	0xbe865577	-0.2623708
119	0x3d728e98	0.05921802
120	0x3db2f5a0	0.087382555
121	0xbdeb34f6	-0.11484711
122	0xbc947bbf	-0.018125413
123	0xbd202703	-0.039099704
124	0x3e00984e	0.125581
125	0xbe1b4a94	-0.15165168
126	0xbda4150f	-0.08011829
127	0x3dd842e9	0.10559637
128	0xbe2197f8	-0.15780628
129	0x3ccb222d	0.02479657
130	0xbd9bf099	-0.0761425
131	0xbd74f0d8	-0.0598
132	0xbe1336d3	-0.14376383
133	0x3d974aa4	0.073872834
134	0x3ced3e6c	0.02896043
135	0x3e0b91da	0.13629857
136	0xbe06f1dd	-0.13178201
137	0x3c345454	0.0110064335
138	0xbd6c3bf6	-0.05767437
139	0xbd280e4f	-0.04102927
140	0x3c96e7f0	0.018421143
141	0xbd6bbe4d	-0.05755453
142	0x3db00ad1	0.08595813
143	0xbba4a9c4	-0.0050251205
144	0x3c4e30f4	0.0125849135
145	0x3cbf929a	0.023385335
146	0x3cb83cb9	0.022489892
147	0x3ca83463	0.020532792
148	0xbe770faf	-0.24127077
149	0xbd8c53cc	-0.068519205
150	0xbe151b51	-0.14561202
151	0x3c50c43b	0.0127420975
152	0xbd665dea	-0.056241907
153	0x3c9f0a41	0.01941407
154	0xbd7feb0a	-0.06248001
155	0x3d46c528	0.048527867
156	0x3d707af1	0.058710996
157	0xbd85adf9	-0.06527323
158	0x3ce1afdc	0.027549677
159	0x3e2b060e	0.16701528
160	0xbd28eb4b	-0.041240018
161	0x3d529893	0.051415037
162	0x3cbbc90b	0.022923013
163	0xbc868b45	-0.01642383
164	0x3c9fc000	0.019500732
165	0xbbdf6cdf	-0.0068183984
166	0xbd6d9ce6	-0.058010958
167	0x3c954bd6	0.018224638
168	0xbdd2a4f9	-0.10285372
169	0x3db74214	0.0894815
170	0xbc8f0da6	-0.017462563
171	0xbc90ca35	-0.017674545
172	0x3d85a8eb	0.06526359
173	0xbd3d45ef	-0.046209272
174	0x3c51b5c0	0.01279968
175	0x3e0b4f3e	0.13604447
176	0xbd979273	-0.0740098
177	0xbe383540	-0.17989063
178	0x3b824ffa	0.003976819
179	0x3dab150c	0.08353624
180	0x3d48bae7	0.04900637
181	0x3d6e384d	0.05815916
182	0xbe74cee7	-0.23907052
183	0x3e2e595a	0.17026272
184	0xbc7e9678	-0.015538804
185	0xbdd3a461	-0.10334087
186	0xbd8174f0	-0.06321132
187	0x3dcd01cb	0.100101076
188	0x3e21d8ef	0.1580541
189	0xbcad6dc2	-0.0211705
190	0x3ce52004	0.027969368
191	0x3d94a435	0.072578825
192	0x3d6b16a8	0.057394654
193	0x3dbb7321	0.091528185
194	0x3e28a906	0.16470727
195	0xbc72c602	-0.014817717
196	0x3d32c0f1	0.043641035
197	0xbc12b152	-0.008953409
198	0xbce98c05	-0.02850915
199	0xbc155cf6	-0.009116402
200	0xbd804813	-0.06263747
201	0x3b864c56	0.0040984554
202	0x3dc5b65f	0.09653925
203	0x3c99f930	0.01879558
204	0x3d0eea26	0.03489127
205	0x3bfac930	0.007653378
206	0x3e053b9a	0.13011017
207	0x3cfb2723	0.03065831
208	0x3dba9fc9	0.09112508
209	0xbd2d72c9	-0.042345796
210	0x3d2e85e5	0.04260816
211	0xbcfa4b87	-0.030553592
212	0x3daea1fc	0.0852699
213	0xbd69b778	-0.057059735
214	0x3dc51e47	0.096249156
215	0x3d1a055d	0.03760277
216	0xbd811a85	-0.06303886
217	0x3d7b7e9f	0.061400052
218	0x3db2358c	0.087016195
219	0x3e4f7a71	0.20261551
220	0xbbb8c5cf	-0.005638815
221	0x3dfcfad2	0.12352528
222	0x3da5d11e	0.080965266
223	0xbd3eb121	-0.046555642
224	0xbc665fa6	-0.01406089
225	0x3ba574ae	0.0050493097
226	0xbe1ac1c1	-0.15112974
227	0x3d734d42	0.05939985
228	0x3e228c9b	0.15873949
229	0xbd098f52	-0.033583947
230	0x3d68134c	0.056659028
231	0xbe1a4996	-0.15067133
232	0x3d0444f5	0.032292325
233	0x3dc41c51	0.095757134
234	0xbd0b7aab	-0.034052532
235	0xbde22d14	-0.11043754
236	0x3e2ce2f8	0.16883457
237	0xbd480449	-0.04883221
238	0xbddebf9e	-0.10876392
239	0x3d5214ef	0.051289495
240	0xbd67381f	-0.056450006
241	0x3caa0ce2	0.020758096
242	0x3d294b13	0.041331362
243	0x3dc107c6	0.09425311
244	0xbd1b591e	-0.037926786
245	0xbdab87d2	-0.08375515
246	0xbc0218b4	-0.00794046
247	0x3d982c0d	0.07430277
248	0x3c2c8f78	0.0105322525
249	0xbdd831ac	-0.10556349
250	0x3d1298da	0.0357903
251	0x3c79346b	0.015210251
252	0xbdd120a0	-0.10211301
253	0x3d31e067	0.043426897
254	0x3be198dc	0.0068846773
255	0xbda72938	-0.08162159

lstm_layers.0.bias_ih_l0 f4 [512]
0	0xbea4a559	-0.321574
1	0xbdf4f0ab	-0.11959966
2	0xbe1e352a	-0.15449968
3	0xbe0bbf92	-0.13647297
4	0xbda9a89c	-0.08284113
5	0xbde4f068	-0.11178666
6	0xbe80f35d	-0.2518567
7	0xbdf42f98	-0.1192314
8	0xbead0920	-0.33796024
9	0x3da6fb00	0.08153343
10	0x3d46663e	0.04843735
11	0xbe9e2b16	-0.30892247
12	0xbe20e968	-0.15714037
13	0xbe5f99ef	-0.21836065
14	0xbe4f602a	-0.20251527
15	0x3c93b698	0.018031403
16	0xbe18cfde	-0.14923045
17	0xbc26cc28	-0.010180511
18	0xbd97c37c	-0.074103326
19	0xbe2157c9	-0.15756144
20	0x3df1efcc	0.11813316
21	0xbe49d9a0	-0.19711924
22	0x3ccf987a	0.025341261
23	0xbc920cf3	-0.01782844
24	0xbda81473	-0.082070254
25	0xbe5ed7ee	-0.21762058
26	0xbda736a7	-0.08164721
27	0xbd9f6976	-0.07783787
28	0xbe35552d	-0.17708273
29	0xbe9aaa18	-0.30207896
30	0xbee6f9b7	-0.45112392
31	0xbedfef90	-0.4373746
32	0xbd3a23b1	-0.045444194
33	0xbe26033e	-0.16212174
34	0xbd8b8f48	-0.06814438
35	0xbe3e60f5	-0.18591674
36	0xbe382112	-0.17981365
37	0xbdf062b8	-0.11737579
38	0xbef56a19	-0.4793251
39	0xbe099b26	-0.1343809
40	0xbe5bfa4c	-0.214822
41	0xbe819501	-0.25308993
42	0xbed3e292	-0.41383797
43	0xbe44a13f	-0.19202136
44	0x3d801556	0.062540695
45	0x3de52f2d	0.11190639
46	0xbe749536	-0.23885044
47	0xbdd9d0dd	-0.10635541
48	0xbe4b487e	-0.19851872
49	0xbe4bc5ba	-0.19899645
50	0xbd805698	-0.062665164
51	0xbd963f48	-0.07336289
52	0xbeba182b	-0.36346564
53	0xbedf0d59	-0.4356487
54	0xbe900455	-0.28128305
55	0x3e0a1f11	0.13488413
56	0xbd49209d	-0.049103368
57	0xbef964a4	-0.48709595
58	0xbd00f46f	-0.03148311
59	0xbe683c5f	-0.2267928
60	0xbe2c0f76	-0.16802773
61	0xbe9ff6fb	-0.3124312
62	0xbe76d1e7	-0.24103509
63	0xbeb05b02	-0.34444433
64	0xbd4b8177	-0.049684014
65	0xbd8b1c2d	-0.067924835
66	0xbe9ea14a	-0.3098243
67	0xbd11998e	-0.03554683
68	0xbe164927	-0.14676343
69	0xbea0007b	-0.31250367
70	0xbdcd5695	-0.1002628
71	0xbe7d4d61	-0.24736549
72	0xbe92ec54	-0.2869593
73	0xbe0a06f3	-0.13479213
74	0xbe235d45	-0.15953548
75	0xbea41698	-0.32048488
76	0xbe2c598e	-0.16831037
77	0xbcffc99d	-0.031224066
78	0xbda8cb75	-0.08241931
79	0xbe81a449	-0.25320652
80	0xbe625fe0	-0.22106886
81	0x3e9fa220	0.3117838
82	0xbe526ec3	-0.20550065
83	0xbec24f2f	-0.37951037
84	0xbe1a13c4	-0.15046602
85	0xbe31ed9e	-0.173758
86	0xbe9f78da	-0.3114689
87	0xbe7c8a3c	-0.24662107
88	0xbcc49929	-0.023998814
89	0xbe61ce5b	-0.22051375
90	0xbe3aaee3	-0.18230776
91	0xbed27660	-0.41105938
92	0xbe9260c9	-0.28589466
93	0xbe0485c3	-0.12941651
94	0xbed6fd14	-0.41989958
95	0xbddbaaff	-0.10725974
96	0xbe86f4a8	-0.26358533
97	0xbe060cfb	-0.13090889
98	0xbe2f3be4	-0.1711269
99	0xbdc33179	-0.095309205
100	0xbe4e4b62	-0.20145944
101	0xbb48ac27	-0.003062019
102	0xbd2df84f	-0.042473134
103	0xbe33563e	-0.17513368
104	0xbed20ef9	-0.41027048
105	0xbc657e3b	-0.0140071465
106	0xbcf28f5b	-0.029609373
107	0xbd8cb639	-0.06870694
108	0xbecc840f	-0.39944503
109	0x3cb5316b	0.02211829
110	0xbd11deb8	-0.03561279
111	0xbd210565	-0.039311785
112	0xbe0f0703	-0.13967519
113	0xbddf282e	-0.108963355
114	0xbeece7cc	-0.46270597
115	0xbe96921a	-0.29408342
116	0xbda6b3d1	-0.08139766
117	0x3eae45a9	0.3403752
118	0xbd849f4b	-0.06475695
119	0xbda7a227	-0.08185225
120	0xbe1e7a09	-0.1547624
121	0xbe0a2243	-0.13489632
122	0xbddd341c	-0.10800955
123	0x3c01be88	0.007918961
124	0xbe131846	-0.14364728
125	0xbdc19418	-0.09452075
126	0xbd48011b	-0.04882918
127	0xbca90643	-0.020632869
128	0xbe6672af	-0.22504686
129	0xbdc79518	-0.09745234
130	0xbe1339d0	-0.14377522
131	0xbddcbcd5	-0.10778204
132	0xbe354f83	-0.17706113
133	0xbe729796	-0.23690638
134	0xbe926612	-0.28593498
135	0x3e536b16	0.20646319
136	0x3e04907f	0.12945746
137	0x3ec7e5a0	0.39042377
138	0xbcfff06f	-0.031242577
139	0xbe715f08	-0.23571408
140	0xbe0f41cc	-0.13989943
141	0xbe32c8fd	-0.17459483
142	0xbe247fc3	-0.16064362
143	0xbd6866ba	-0.056738593
144	0xbea1ccf6	-0.31601685
145	0xbb99c54f	-0.0046927105
146	0xbd9a4af3	-0.07533827
147	0xbe03d7c5	-0.12875278
148	0x3d0c5128	0.034257084
149	0xbde970d1	-0.11398471
150	0xbeb02a80	-0.34407425
151	0xbd0aabcf	-0.033855256
152	0xbd43589b	-0.047691923
153	0xbd5293ed	-0.051410604
154	0xbdb643f5	-0.088996805
155	0xbe302900	-0.1720314
156	0xbe288dee	-0.16460392
157	0xbe5c179c	-0.21493381
158	0xbe9a8d0f	-0.30185744
159	0x3e29cad2	0.16581276
160	0xbdb00f14	-0.08596626
161	0xbdfa9de9	-0.1223715
162	0xbe0cbcdf	-0.13743924
163	0xbed5d672	-0.4176517
164	0xbe569f18	-0.20959127
165	0xbdd9dfca	-0.106383875
166	0x3eb39793	0.3507658
167	0xbe448ae3	-0.19193606
168	0xbe33ef6d	-0.17571802
169	0xbe47f38d	-0.19526501
170	0xbe88036a	-0.26565105
171	0xbe46c7ca	-0.19412151
172	0xbdf711c3	-0.12063935
173	0xbe0a6b47	-0.13517486
174	0x3ed07d68	0.40720677
175	0xbe533128	-0.2062422
176	0xbe864bf6	-0.2622983
177	0xbdfa4ea4	-0.12222031
178	0xbdcbe9df	-0.09956717
179	0xbd90c011	-0.07067884
180	0xbe8b9f3d	-0.27269927
181	0xbee720bd	-0.45142165
182	0xbdec6e2e	-0.115444526
183	0x3e08cfc3	0.13360505
184	0xbde3c5f6	-0.111217424
185	0xbed8440b	-0.42239413
186	0xbdab9656	-0.08378284
187	0xbe977646	-0.29582423
188	0xbe8b73c0	-0.27236748
189	0xbea6b333	-0.32558593
190	0xbdf84056	-0.12121646
191	0xbe1f49e6	-0.15555534
192	0xbe2209fa	-0.15824118
193	0xbd77cbf8	-0.060497254
194	0xbeaaf6cd	-0.3339142
195	0xbe584fa8	-0.21124136
196	0xbdf2cf4f	-0.11855947
197	0xbe8a9f8a	-0.27074844
198	0xbdb2c5b1	-0.08729113
199	0xbe3ad18b	-0.18243997
200	0xbe7e2088	-0.24817097
201	0x3d96dd27	0.073664
202	0xbde2fa51	-0.110829
203	0xbe9a8492	-0.30179268
204	0xbe0f39d1	-0.13986899
205	0xbde25827	-0.1105197
206	0x3e6bdb52	0.23032883
207	0x3e183ff9	0.14868154
208	0xbdf01d3c	-0.11724326
209	0x3f661127	0.8986992
210	0xbe66a1c2	-0.22522643
211	0x3d930b97	0.07179945
212	0xbeae2094	-0.3400923
213	0xbe2e2c37	-0.17009054
214	0xbe3a37e1	-0.18185379
215	0xbe80cd8f	-0.2515683
216	0xbdc270dd	-0.09494183
217	0xbe2b1741	-0.1670809
218	0x3c87f4cf	0.016596226
219	0x3ea3ab37	0.31966564
220	0xbd346a48	-0.04404667
221	0xbdeb4794	-0.11488262
222	0xbdb90f17	-0.09036081
223	0xbe01effd	-0.12689205
224	0xbe621596	-0.22078547
225	0xbdd354b3	-0.103188895
226	0xbe140345	-0.14454372
227	0xbb9ed3f1	-0.0048470427
228	0xbe76262a	-0.24037996
229	0xbd083c88	-0.033260852
230	0xbd87c059	-0.06628484
231	0xbe140a6c	-0.144571
232	0xbe9cef09	-0.3065112
233	0xbe1c7d14	-0.15282089
234	0xbdc804de	-0.09766553
235	0xbe0b0b6d	-0.13578577
236	0xbe585667	-0.2112671
237	0xbdd550fa	-0.10415836
238	0x3d4a73da	0.04942689
239	0xbe7cde7e	-0.24694249
240	0xbd8e42a6	-0.06946306
241	0xbdd11835	-0.10209695
242	0xbdfe6eb2	-0.12423457
243	0xbe8129cf	-0.2522721
244	0x3bda3b5f	0.0066599096
245	0x3eba9342	0.36440474
246	0xbd1054fd	-0.0352373
247	0xbd87b8a4	-0.06627014
248	0xbe288e8f	-0.16460632
249	0xbcebbe20	-0.028777182
250	0x3b5f6c12	0.0034091515
251	0xbcbba1e5	-0.022904346
252	0xbe6d2b0e	-0.23160955
253	0xbda58185	-0.080813445
254	0xbd04b3ab	-0.032397907
255	0xbe8318f6	-0.2560498

lstm_layers.0.bias_hh_l0 f4 [512]
0	0xbea4a556	-0.3215739
1	0xbdf4f0ac	-0.11959967
2	0xbe1e352a	-0.15449968
3	0xbe0bbf93	-0.13647299
4	0xbda9a89c	-0.08284113
5	0xbde4f06b	-0.111786686
6	0xbe80f35e	-0.25185674
7	0xbdf42f9a	-0.11923142
8	0xbead0920	-0.33796024
9	0x3da6faff	0.081533425
10	0x3d46663d	0.048437346
11	0xbe9e2b18	-0.30892253
12	0xbe20e968	-0.15714037
13	0xbe5f99f0	-0.21836066
14	0xbe4f602c	-0.2025153
15	0x3c93b698	0.018031403
16	0xbe18cfdc	-0.14923042
17	0xbc26cc4c	-0.010180544
18	0xbd97c37a	-0.07410331
19	0xbe2157cc	-0.15756148
20	0x3df1efcc	0.11813316
21	0xbe49d9a2	-0.19711927
22	0x3ccf986d	0.025341237
23	0xbc920ce7	-0.017828418
24	0xbda81471	-0.08207024
25	0xbe5ed7f0	-0.21762061
26	0xbda736a6	-0.0816472
27	0xbd9f6979	-0.07783789
28	0xbe35552d	-0.17708273
29	0xbe9aaa17	-0.30207893
30	0xbee6f9b7	-0.45112392
31	0xbedfef8e	-0.43737453
32	0xbd3a23b8	-0.04544422
33	0xbe26033c	-0.16212171
34	0xbd8b8f4c	-0.06814441
35	0xbe3e60f3	-0.1859167
36	0xbe38210f	-0.17981361
37	0xbdf062b9	-0.1173758
38	0xbef56a1b	-0.47932515
39	0xbe099b27	-0.13438092
40	0xbe5bfa4d	-0.21482201
41	0xbe8194ff	-0.25308987
42	0xbed3e291	-0.41383794
43	0xbe44a13e	-0.19202134
44	0x3d801557	0.0625407
45	0x3de52f26	0.111906335
46	0xbe749532	-0.23885038
47	0xbdd9d0e4	-0.10635546
48	0xbe4b4880	-0.19851875
49	0xbe4bc5bb	-0.19899647
50	0xbd80569a	-0.06266518
51	0xbd963f49	-0.073362894
52	0xbeba1829	-0.36346558
53	0xbedf0d58	-0.43564868
54	0xbe900455	-0.28128305
55	0x3e0a1f10	0.13488412
56	0xbd4920a3	-0.04910339
57	0xbef964a3	-0.48709592
58	0xbd00f468	-0.031483084
59	0xbe683c64	-0.22679287
60	0xbe2c0f79	-0.16802777
61	0xbe9ff6fa	-0.31243116
62	0xbe76d1e8	-0.2410351
63	0xbeb05b04	-0.3444444
64	0xbd4b8176	-0.04968401
65	0xbd8b1c2a	-0.06792481
66	0xbe9ea146	-0.30982417
67	0xbd119990	-0.03554684
68	0xbe164928	-0.14676344
69	0xbea0007e	-0.31250376
70	0xbdcd569b	-0.10026284
71	0xbe7d4d61	-0.24736549
72	0xbe92ec55	-0.28695932
73	0xbe0a06f7	-0.1347922
74	0xbe235d44	-0.15953547
75	0xbea41698	-0.32048488
76	0xbe2c598f	-0.16831039
77	0xbcffc98d	-0.031224037
78	0xbda8cb73	-0.0824193
79	0xbe81a448	-0.2532065
80	0xbe625fe1	-0.22106887
81	0x3e9fa21d	0.3117837
82	0xbe526ec1	-0.20550062
83	0xbec24f32	-0.37951046
84	0xbe1a13c0	-0.15046597
85	0xbe31ed9b	-0.17375796
86	0xbe9f78d8	-0.31146884
87	0xbe7c8a3e	-0.2466211
88	0xbcc4991d	-0.023998791
89	0xbe61ce5d	-0.22051378
90	0xbe3aaee7	-0.18230782
91	0xbed27662	-0.41105944
92	0xbe9260c9	-0.28589466
93	0xbe0485c5	-0.12941654
94	0xbed6fd15	-0.4198996
95	0xbddbaafb	-0.10725971
96	0xbe86f4a8	-0.26358533
97	0xbe060cfa	-0.13090888
98	0xbe2f3be5	-0.17112692
99	0xbdc33178	-0.0953092
100	0xbe4e4b60	-0.20145941
101	0xbb48ac00	-0.0030620098
102	0xbd2df84e	-0.04247313
103	0xbe33563e	-0.17513368
104	0xbed20efb	-0.41027054
105	0xbc657e57	-0.014007173
106	0xbcf28f56	-0.029609364
107	0xbd8cb638	-0.06870693
108	0xbecc8415	-0.3994452
109	0x3cb5315f	0.022118269
110	0xbd11dec8	-0.03561285
111	0xbd21055d	-0.039311755
112	0xbe0f0705	-0.13967521
113	0xbddf282e	-0.108963355
114	0xbeece7cd	-0.462706
115	0xbe96921b	-0.29408345
116	0xbda6b3cf	-0.081397645
117	0x3eae45a8	0.34037519
118	0xbd849f4b	-0.06475695
119	0xbda7a22b	-0.08185228
120	0xbe1e7a08	-0.15476239
121	0xbe0a2241	-0.1348963
122	0xbddd341a	-0.10800953
123	0x3c01be86	0.0079189595
124	0xbe131845	-0.14364727
125	0xbdc19417	-0.09452074
126	0xbd480116	-0.04882916
127	0xbca90635	-0.020632843
128	0xbe6672aa	-0.22504678
129	0xbdc79518	-0.09745234
130	0xbe1339d0	-0.14377522
131	0xbddcbcd5	-0.10778204
132	0xbe354f85	-0.17706116
133	0xbe729796	-0.23690638
134	0xbe926611	-0.28593495
135	0x3e536b1a	0.20646325
136	0x3e04907f	0.12945746
137	0x3ec7e5a0	0.39042377
138	0xbcfff06d	-0.031242574
139	0xbe715f08	-0.23571408
140	0xbe0f41cc	-0.13989943
141	0xbe32c8fd	-0.17459483
142	0xbe247fc4	-0.16064364
143	0xbd6866b5	-0.056738574
144	0xbea1ccf5	-0.31601682
145	0xbb99c54d	-0.0046927095
146	0xbd9a4af6	-0.07533829
147	0xbe03d7c6	-0.1287528
148	0x3d0c5132	0.03425712
149	0xbde970cf	-0.1139847
150	0xbeb02a82	-0.3440743
151	0xbd0aabce	-0.033855252
152	0xbd435899	-0.047691915
153	0xbd5293eb	-0.051410597
154	0xbdb643f5	-0.088996805
155	0xbe3028ff	-0.17203139
156	0xbe288df0	-0.16460395
157	0xbe5c179e	-0.21493384
158	0xbe9a8d0f	-0.30185744
159	0x3e29cacb	0.16581266
160	0xbdb00f17	-0.08596628
161	0xbdfa9dea	-0.12237151
162	0xbe0cbcdf	-0.13743924
163	0xbed5d671	-0.41765168
164	0xbe569f1b	-0.20959131
165	0xbdd9dfc8	-0.10638386
166	0x3eb39791	0.35076573
167	0xbe448ae2	-0.19193605
168	0xbe33ef6d	-0.17571802
169	0xbe47f388	-0.19526494
170	0xbe88036b	-0.26565108
171	0xbe46c7c8	-0.19412148
172	0xbdf711c6	-0.12063937
173	0xbe0a6b4a	-0.1351749
174	0x3ed07d66	0.4072067
175	0xbe53312c	-0.20624226
176	0xbe864bf5	-0.26229826
177	0xbdfa4ea6	-0.12222032
178	0xbdcbe9e6	-0.09956722
179	0xbd90c00f	-0.07067882
180	0xbe8b9f3c	-0.27269924
181	0xbee720bf	-0.4514217
182	0xbdec6e36	-0.115444586
183	0x3e08cfc0	0.133605
184	0xbde3c5f2	-0.111217394
185	0xbed8440c	-0.42239416
186	0xbdab9655	-0.08378283
187	0xbe977645	-0.2958242
188	0xbe8b73c1	-0.2723675
189	0xbea6b336	-0.32558602
190	0xbdf84054	-0.121216446
191	0xbe1f49e4	-0.15555531
192	0xbe2209f9	-0.15824117
193	0xbd77cbf5	-0.060497243
194	0xbeaaf6cf	-0.33391425
195	0xbe584fac	-0.21124142
196	0xbdf2cf4d	-0.11855946
197	0xbe8a9f88	-0.27074838
198	0xbdb2c5b3	-0.087291144
199	0xbe3ad18d	-0.18244
200	0xbe7e2087	-0.24817096
201	0x3d96dd27	0.073664
202	0xbde2fa52	-0.11082901
203	0xbe9a8492	-0.30179268
204	0xbe0f39d0	-0.13986897
205	0xbde25822	-0.11051966
206	0x3e6bdb4c	0.23032874
207	0x3e183ff9	0.14868154
208	0xbdf01d44	-0.11724332
209	0x3f661128	0.8986993
210	0xbe66a1c4	-0.22522646
211	0x3d930b99	0.071799465
212	0xbeae2097	-0.3400924
213	0xbe2e2c3a	-0.17009059
214	0xbe3a37e0	-0.18185377
215	0xbe80cd8f	-0.2515683
216	0xbdc270d9	-0.0949418
217	0xbe2b1741	-0.1670809
218	0x3c87f4c5	0.016596207
219	0x3ea3ab38	0.31966567
220	0xbd346a4d	-0.04404669
221	0xbdeb4793	-0.11488261
222	0xbdb90f12	-0.090360776
223	0xbe01effc	-0.12689203
224	0xbe621596	-0.22078547
225	0xbdd354b3	-0.103188895
226	0xbe140343	-0.14454369
227	0xbb9ed3c8	-0.0048470236
228	0xbe762628	-0.24037993
229	0xbd083c87	-0.03326085
230	0xbd87c057	-0.06628483
231	0xbe140a69	-0.14457096
232	0xbe9cef09	-0.3065112
233	0xbe1c7d13	-0.15282087
234	0xbdc804da	-0.0976655
235	0xbe0b0b6c	-0.13578576
236	0xbe585667	-0.2112671
237	0xbdd550fc	-0.10415837
238	0x3d4a73d3	0.049426865
239	0xbe7cde80	-0.24694252
240	0xbd8e42a7	-0.06946307
241	0xbdd11833	-0.10209694
242	0xbdfe6eb6	-0.1242346
243	0xbe8129ce	-0.25227207
244	0x3bda3b63	0.0066599115
245	0x3eba9344	0.3644048
246	0xbd1054fc	-0.035237297
247	0xbd87b8a6	-0.06627016
248	0xbe288e8c	-0.16460627
249	0xbcebbe22	-0.028777186
250	0x3b5f6c20	0.0034091547
251	0xbcbba1e5	-0.022904346
252	0xbe6d2b0c	-0.23160952
253	0xbda58183	-0.08081343
254	0xbd04b3ac	-0.03239791
255	0xbe8318f8	-0.25604987

output_layer.weight f4 [1, 128]
0	0x3df59de5	0.119930066
1	0xbd671a8d	-0.056421805
2	0x3d2ad6f9	0.04170892
3	0x3d80b960	0.062853575
4	0x3e1331c3	0.14374451
5	0x3c8f2385	0.017472992
6	0x3da32054	0.079651505
7	0xbbb46cfa	-0.005506155
8	0x3e42f2b7	0.19037901
9	0x3d2df629	0.042471085
10	0x3e1a2c4c	0.1505596
11	0xbde53d70	-0.11193359
12	0xbca3f712	-0.020015273
13	0x3d9f2009	0.07769782
14	0xbdb99de6	-0.0906332
15	0xbdbd223c	-0.09235045
16	0x3e0cf905	0.13766868
17	0x3e495b97	0.19663845
18	0x3e2f40e8	0.17114604
19	0x3dbd8214	0.09253326
20	0x3d2567a3	0.04038204
21	0x3d95fb25	0.07323293
22	0xbd083f37	-0.03326341
23	0x3e05907b	0.13043396
24	0xbd0f68fa	-0.035012223
25	0x3e634ed8	0.22198045
26	0xbb49ee9e	-0.0030812393
27	0xbdc64974	-0.09681979
28	0xbd676149	-0.056489263
29	0xbc9d8077	-0.019226296
30	0xbdaf68ce	-0.08564912
31	0x3d9126ec	0.07087502
32	0xbe3c3cfb	-0.18382637
33	0xbdcc0676	-0.0996217
34	0x3e212b64	0.15739208
35	0xbe684c1f	-0.22685288
36	0xbbbc1544	-0.0057398397
37	0xbab9057f	-0.0014116018
38	0x3db4e033	0.08831825
39	0xbdb2f23a	-0.08737607
40	0x3d14003a	0.03613303
41	0x3c8fcb8a	0.01755311
42	0xbb4bac9f	-0.0031078232
43	0xbd8dccf9	-0.06923861
44	0xbe840d5c	-0.25791442
45	0xbe610a9c	-0.21976703
46	0x3c1629d5	0.009165247
47	0xbd9e5909	-0.07731826
48	0x3da0c822	0.07850672
49	0x3d9cc2fc	0.07654378
50	0xbdf7fe92	-0.12109102
51	0xbd579b26	-0.052638195
52	0xbdacb214	-0.08432403
53	0xbcbcfd55	-0.023070017
54	0xbd4e0b18	-0.05030355
55	0xbde35e61	-0.11101986
56	0x3dbf1686	0.09330468
57	0x3d623f70	0.05523628
58	0x3e683b8b	0.22678964
59	0xbe43d8d2	-0.19125679
60	0x3da5f0c9	0.08102567
61	0xbd5e293b	-0.05423854
62	0xbe0c803f	-0.13720797
63	0x3d17155b	0.0368856
64	0xbe1e1614	-0.1543811
65	0xbd39bb3e	-0.045344584
66	0x3d568a2e	0.052377872
67	0xbe8afefb	-0.2714766
68	0x3e3348cc	0.17508239
69	0x3df0825e	0.117436156
70	0x3e5e18e8	0.21689188
71	0x3db20805	0.08692936
72	0x3c3b23c2	0.0114221
73	0xbe58380e	-0.21115133
74	0xbdc9fc69	-0.098625965
75	0x3c9df84b	0.019283434
76	0xbd652d3a	-0.055951335
77	0xbe5ce69c	-0.21572345
78	0xbe538ab7	-0.20658384
79	0x3e132d9f	0.14372872
80	0x3d9d0baa	0.0766824
81	0x3cd513d5	0.026010433
82	0x3d4ef335	0.05052491
83	0xbdab6347	-0.08368545
84	0x3e1cc2d5	0.15308698
85	0xbdc36f91	-0.09542764
86	0x3d9ec723	0.07752826
87	0x3dd963c4	0.10614732
88	0x3e78067c	0.24221224
89	0xbd8903d3	-0.066901825
90	0xbdcfb73b	-0.1014237
91	0x3d465fd9	0.04843125
92	0xbe3aee08	-0.18254864
93	0xbc36a0fd	-0.011146781
94	0x3b00b31c	0.0019638008
95	0x3e2ed450	0.17073178
96	0xbc4abcec	-0.012374144
97	0xbd5487f4	-0.051887468
98	0x3d5a7e1f	0.053342935
99	0xbe22c8c7	-0.15896903
100	0x3d82b145	0.06381468
101	0xbd637c9d	-0.055538762
102	0x3deb3216	0.114841625
103	0xbc21a0c1	-0.009864987
104	0x3dd61279	0.10452742
105	0x3e884084	0.26611722
106	0xbdcc1761	-0.09965397
107	0x3e6e1727	0.2325102
108	0xbce95edc	-0.028487615
109	0xbe446b3d	-0.19181533
110	0x3e4afa3d	0.19822021
111	0xbe41b3b1	-0.18916203
112	0x3d6ab151	0.05729801
113	0x3da024da	0.07819529
114	0xbd23661e	-0.03989231
115	0x3d6426e5	0.055701155
116	0xbe473bc7	-0.19456397
117	0x3ebf0614	0.37309325
118	0xbdeefdac	-0.11669478
119	0x3cffada9	0.031210737
120	0x3c893935	0.016750911
121	0x3c28516c	0.010273319
122	0x3e862e15	0.26207033
123	0xbdbbc261	-0.09167934
124	0x3e358aae	0.17728683
125	0xbd277fae	-0.04089325
126	0x3dedaa7e	0.116047844
127	0x3d8b85b1	0.06812609
