models/lstm.pth (torch, 279793 bytes, 5 tensors)

lstm_layers.0.weight_ih_l0 f4 [512, 5]
0	0x3f17e5e7	0.5933518
1	0xc05a4464	-3.4104242
2	0xbe023a09	-0.12717451
3	0xbe5725d4	-0.21010524
4	0xbdfcbb60	-0.123404264
5	0xbf971c48	-1.1805506
6	0xbed437f7	-0.41448948
7	0x3ecb0cc7	0.39658186
8	0x3eccbe43	0.39988908
9	0x3e66d05e	0.22540423
10	0xbfc680e3	-1.5508083
11	0xbf84a7e3	-1.0363735
12	0xbe3527a4	-0.17690903
13	0xbe8078c8	-0.2509215
14	0xbe169d48	-0.14708436
15	0xc01eb0a2	-2.4795308
16	0xbfaffc44	-1.374886
17	0xbd977b1e	-0.073965296
18	0x3def905f	0.116974585
19	0xbe2fb19a	-0.17157593
20	0xbfbfb51f	-1.4977149
21	0x3ea7b999	0.32758787
22	0xbf1da52d	-0.61580163
23	0xbf1d4d6d	-0.6144627
24	0xbe156409	-0.14588942
25	0x3f42a2b7	0.76029533
26	0xbf8b385e	-1.0876577
27	0x3edda441	0.43289378
28	0x3ea6a192	0.32545143
29	0x3d75aed0	0.059981167
30	0xbfc1a650	-1.512888
31	0x3f6212a1	0.88309675
32	0xbe07e864	-0.13272244
33	0xbe5333e3	-0.20625262
34	0xbf27f4e8	-0.6560807
35	0xbfbbb9e0	-1.46661
36	0x3f07e621	0.53085524
37	0x3e9e5a14	0.309281
38	0x3e194478	0.14967525
39	0xbf3aeeb1	-0.73020464
40	0x3d776685	0.060400505
41	0x3fa92af3	1.3216232
42	0x3d52fae4	0.0515088
43	0x3ce08d96	0.027411263
44	0xbdefa1ff	-0.1170082
45	0xc09c6dd5	-4.888407
46	0xbf382681	-0.7193375
47	0x3dd0dcf8	0.101983964
48	0x3dcfc3fc	0.10144803
49	0x3fac3827	1.3454636
50	0xc06117a3	-3.5170677
51	0xc0155b96	-2.333715
52	0xbd66808a	-0.05627493
53	0xbe4eec71	-0.20207383
54	0xbefc3613	-0.49260005
55	0xc0127b0e	-2.2887607
56	0x3cc037ff	0.023464201
57	0xbcf57274	-0.029961802
58	0x3c6517f7	0.013982764
59	0xbed6c4d7	-0.41947052
60	0x3ed1f313	0.41005763
61	0x3f8ca04c	1.0986419
62	0xbf2069f9	-0.626617
63	0xbf13d674	-0.57749104
64	0xbf93ad76	-1.1537311
65	0xbe123d64	-0.14281231
66	0x401afffd	2.4218743
67	0xbe41acdc	-0.18913597
68	0xbe9126d5	-0.2834994
69	0x3e282d18	0.16423452
70	0xbe803ec2	-0.2504788
71	0x3fedb11b	1.8569673
72	0x3f584650	0.8448229
73	0x3f758db0	0.9591932
74	0x3e6c837d	0.23097034
75	0xbf8617d4	-1.0476022
76	0x3f992338	1.1963873
77	0x3f893f80	1.0722504
78	0x3f89df6e	1.077131
79	0x3e8f8e00	0.28038025
80	0xbfa3591a	-1.2761567
81	0x3ee066fd	0.43828574
82	0x3c9c4ebd	0.019080514
83	0x3e087327	0.13325177
84	0xbf2a3ca1	-0.6649876
85	0xbfe0f707	-1.7575387
86	0xbe2649ca	-0.16239086
87	0xbdda229a	-0.10651131
88	0xbdcbe5fc	-0.099559754
89	0xbef85385	-0.4850122
90	0xbf03033d	-0.51176816
91	0x3f8d62ce	1.1045778
92	0xbd4aa121	-0.04947007
93	0xbdca1b7e	-0.09868525
94	0xbeba6fc0	-0.36413383
95	0xc06d0ff2	-3.7040982
96	0xbe875d57	-0.264384
97	0x3e63c140	0.22241688
98	0x3e257c7a	0.16160765
99	0x3f52192f	0.8206968
100	0xc004f61a	-2.0775208
101	0xbe97f549	-0.29679325
102	0x3e433793	0.19064169
103	0x3e1aac61	0.1510482
104	0xbe9fc412	-0.31204277
105	0xc085e7fd	-4.184569
106	0xbf6898fd	-0.9085844
107	0x3f268601	0.65048224
108	0x3f4da397	0.80327743
109	0xbf216dea	-0.6305834
110	0xc018a2b8	-2.3849316
111	0x3d959187	0.07303148
112	0xbe1e2875	-0.1544512
113	0xbe1fb345	-0.1559573
114	0x3dc69746	0.09696822
115	0xc02be5a3	-2.685891
116	0xbf8024ba	-1.0011208
117	0xbde6fc80	-0.11278629
118	0x3c374503	0.011185887
119	0x3fa4f909	1.28885
120	0xbf806d8d	-1.0033432
121	0x3f02ee5d	0.51144964
122	0x3e4bde2c	0.1990897
123	0x3e3aa7c0	0.18228054
124	0x3d40ac91	0.047039572
125	0xbfdf7bdc	-1.7459674
126	0x3fc86019	1.5654327
127	0xbe09f01b	-0.13470499
128	0xbdc763be	-0.09735821
129	0xbe1532eb	-0.14570205
130	0xbe0de722	-0.13857701
131	0x400fe0c7	2.2480943
132	0xbe0bc4d1	-0.13649298
133	0xbe6713b1	-0.22566105
134	0xbd1f0060	-0.038818717
135	0xbf9ab054	-1.2085061
136	0xbf72521a	-0.9465653
137	0x3fbdd86b	1.483167
138	0x3fc94141	1.5723039
139	0xbf7ba385	-0.98296386
140	0xc041fcac	-3.0310469
141	0x3fa80ad2	1.3128302
142	0xbf7d57fc	-0.9896238
143	0xbf80703f	-1.0034255
144	0xbefa5e15	-0.48899904
145	0xbfc3146c	-1.5240607
146	0xbe9eb9a1	-0.31001
147	0xbf1d2de2	-0.61398137
148	0xbf14a2ae	-0.5806073
149	0x3fbcbfdf	1.4746054
150	0xc0292ddf	-2.6434247
151	0xbf4d9897	-0.8031096
152	0xbed20fea	-0.41027766
153	0xbe7dbfd2	-0.24780205
154	0x3f037344	0.51347756
155	0xbe648ae8	-0.22318614
156	0x3fe5a0ff	1.7939757
157	0xbe324cf0	-0.17412162
158	0xbe738628	-0.23781645
159	0xbe24b0b2	-0.16083029
160	0xc0889d6c	-4.2692165
161	0x3f0ffdd8	0.5624671
162	0x3f0b9f7c	0.5454023
163	0x3f063ac6	0.5243343
164	0xbf972796	-1.1808956
165	0xc08117cd	-4.0341554
166	0x3e6e6319	0.2327999
167	0x3f035c77	0.51312965
168	0x3f045962	0.5169889
169	0xbf38e2f5	-0.7222131
170	0x3ecd33e3	0.4007865
171	0x3f7ea2f1	0.9946738
172	0xbf9a281d	-1.2043492
173	0xbf992925	-1.1965681
174	0x3f266fea	0.6501452
175	0xc023dcea	-2.5603585
176	0xbe8b476c	-0.27202928
177	0xbe810d60	-0.25205517
178	0xbe918d8c	-0.28428304
179	0xbec7a34b	-0.3899177
180	0xbeb66d1d	-0.35630122
181	0xbf450f25	-0.76976234
182	0xbc283d91	-0.010268585
183	0x3c7993b3	0.015232968
184	0xbce50fa9	-0.027961569
185	0xc092a435	-4.582545
186	0xbfc036c4	-1.5016713
187	0xbecb1332	-0.39663082
188	0xbeeeb8ce	-0.4662537
189	0x3f084c69	0.5324159
190	0xbfd8174d	-1.6882111
191	0x3ea4f48d	0.32217827
192	0xbe03910e	-0.12848303
193	0xbe30d704	-0.17269522
194	0x3d108f4a	0.0352929
195	0xbfbc28f5	-1.4699999
196	0x3ee3c946	0.44489497
197	0xbf5a867e	-0.8536147
198	0xbf31b01a	-0.69409335
199	0xbd4f3aaa	-0.050593056
200	0x3f7567b6	0.95861375
201	0xbe81043f	-0.25198552
202	0x3f853598	1.040698
203	0x3f77ec2c	0.96844745
204	0x3eabc7ea	0.3355096
205	0xc03e4f65	-2.9735959
206	0xbf873079	-1.0561668
207	0xbf7cfc7a	-0.9882275
208	0xbf675a89	-0.9037252
209	0x3ed9cfb0	0.42541265
210	0x3d2e499d	0.04255067
211	0x3ec27b54	0.37984717
212	0x3c28c6fe	0.01030135
213	0xbd2db89e	-0.042412393
214	0xbe6abe3d	-0.22924133
215	0xc0392c26	-2.8933196
216	0xbf6fa9ad	-0.9361828
217	0xbefbb56b	-0.49161848
218	0xbf07b006	-0.53002965
219	0xbe1b06f2	-0.15139368
220	0xbecce3c1	-0.40017512
221	0xc05e4b16	-3.473333
222	0x3e8a57ef	0.27020213
223	0x3eaca257	0.33717605
224	0xbdd22434	-0.102608114
225	0xbe1cd404	-0.15315253
226	0x3ca0f8a1	0.019649806
227	0x3cdba9e4	0.026814409
228	0xbc09d357	-0.008412204
229	0x3dd596f7	0.10429185
230	0xc0207e85	-2.5077221
231	0x3ed2235d	0.41042605
232	0x3d4999a8	0.049218804
233	0x3dfee8db	0.124467574
234	0xbd9107ca	-0.07081564
235	0xc058f19a	-3.3897462
236	0xbd697278	-0.05699393
237	0xbf31b9ac	-0.6942394
238	0xbf289332	-0.658496
239	0xbe1ed7b7	-0.15511976
240	0xbff4c1bf	-1.9121627
241	0xbd3768b4	-0.044777587
242	0xbeb821cc	-0.35963285
243	0xbead42ae	-0.33839935
244	0xbed4f62c	-0.41594064
245	0xbf54d34d	-0.8313492
246	0x3ff85956	1.9402263
247	0xbdb91580	-0.09037304
248	0xbdbc1428	-0.09183532
249	0xbee80331	-0.45314935
250	0xbff310dd	-1.8989521
251	0xbcfa8435	-0.03058062
252	0x3d8ebb0b	0.06969269
253	0xbc02c1ad	-0.007980746
254	0xbf2a03fe	-0.6641234
255	0xc0adb67c	-5.428526

lstm_layers.0.weight_hh_l0 f4 [512, 128]
0	0xbf97b016	-1.1850612
1	0xbe64b0f0	-0.22333121
2	0x3f513617	0.8172316
3	0xbd8523f0	-0.06500995
4	0xbf8a37b7	-1.0798253
5	0xc00c625d	-2.1935036
6	0x3f960ee7	1.1723298
7	0xbf6ef046	-0.9333538
8	0xbe3e6e4c	-0.18596762
9	0x3fb96697	1.4484433
10	0x3f9bf2dc	1.218349
11	0xbff4e435	-1.9132143
12	0xbfc21904	-1.5163884
13	0xbf169429	-0.58819824
14	0x3f6cbf68	0.9247956
15	0xbf1ff378	-0.6248088
16	0x3fd86b64	1.6907773
17	0x3f2acaa9	0.66715485
18	0xbd96d170	-0.07364166
19	0x3e1b7607	0.15181743
20	0xbdeffffe	-0.117187485
21	0xbf6c3ce8	-0.92280436
22	0xbe94ae86	-0.290394
23	0xbf21d400	-0.6321411
24	0xbfcd55e4	-1.6041837
25	0x3d78c7c5	0.06073739
26	0x3fc5b8d3	1.5447029
27	0x3f77c454	0.9678395
28	0xbfd78038	-1.6836004
29	0xbee6899a	-0.45026857
30	0xbeefa0a9	-0.4680226
31	0x3fb5221d	1.4151036
32	0x3e08e012	0.13366726
33	0xbf6d1847	-0.9261517
34	0xbeffa65a	-0.49931604
35	0x3faa67df	1.3312949
36	0x3fd82efd	1.688934
37	0x3f85bf00	1.0448914
38	0xbf9e736e	-1.2378976
39	0xbeb7dfbf	-0.35912892
40	0x3fcf6556	1.62028
41	0xbf841ffb	-1.032226
42	0x40016678	2.0218792
43	0xbe34081d	-0.1758122
44	0x3ff4b1fe	1.9116819
45	0xbf54cf20	-0.8312855
46	0xbef23edc	-0.47313583
47	0xbf06cff5	-0.5266107
48	0x3fcf2cfd	1.6185604
49	0x3e4a38eb	0.19748275
50	0xbf75d26c	-0.96024203
51	0x3fde763b	1.7379831
52	0xc0578422	-3.3674397
53	0x3f309d3d	0.68989927
54	0xbfc8214e	-1.5635164
55	0x3f841fe9	1.0322238
56	0x3f18cf06	0.5969089
57	0xc0712ae4	-3.7682428
58	0xbf60005d	-0.87500554
59	0xbdb0b4ae	-0.08628212
60	0x3f2c3d4c	0.6728103
61	0x3f915c3b	1.1356272
62	0xbf909b81	-1.1297456
63	0x3f12a436	0.57281816
64	0x3e6aa4fd	0.229145
65	0xbe46f466	-0.19429168
66	0x3f77e5ed	0.96835214
67	0xc0269f0f	-2.6034582
68	0xbe65b430	-0.22432017
69	0xbded30ab	-0.11581548
70	0xbea4c18a	-0.3217891
71	0xbfaadf78	-1.3349447
72	0xbf6b62ca	-0.91947615
73	0xbebc26c0	-0.36748314
74	0x4000610e	2.0059237
75	0xbfcb94f6	-1.5904834
76	0xbf24280a	-0.64123595
77	0x3f556203	0.8335268
78	0x3e65d967	0.22446214
79	0xbf22327d	-0.6335829
80	0x3ec698d7	0.38788483
81	0xbebe4b7f	-0.37166974
82	0xbf589582	-0.8460313
83	0xbe6e16a5	-0.23250826
84	0xbf03c69d	-0.51474935
85	0x3f190bea	0.59783804
86	0x3f36a9e2	0.7135297
87	0xbe3e4ba9	-0.1858355
88	0xc00b6503	-2.1780403
89	0x3fc481a6	1.5352066
90	0x3f29fde4	0.6640303
91	0x3f97006b	1.1797003
92	0xbed4b34d	-0.41543046
93	0xbf1c2e04	-0.61007714
94	0xbf10f5de	-0.56625164
95	0x3fe89771	1.8171216
96	0x3f6250e9	0.8840471
97	0xbf57db1e	-0.8431872
98	0xbfa0d439	-1.2564765
99	0x3f5962d9	0.84916455
100	0xbffe4e83	-1.986771
101	0xbf932d6e	-1.1498239
102	0x3de79b21	0.11308885
103	0x3d8b14c9	0.06791074
104	0x3f59fa21	0.8514729
105	0xbf1d5036	-0.6145052
106	0xbf4b7441	-0.79474264
107	0xbff5c7ed	-1.9201638
108	0xbce50d92	-0.027960572
109	0xbfd869d0	-1.6907291
110	0xbf6c5f43	-0.9233286
111	0xbf23d208	-0.6399236
112	0xbf833979	-1.0251914
113	0x3f599f0b	0.85008305
114	0x3eac1afb	0.33614334
115	0xbe11a94a	-0.14224735
116	0x3f10dfd1	0.56591517
117	0x40268431	2.6018183
118	0xbf64da29	-0.89395386
119	0x407033dd	3.7531655
120	0xbf6d95f2	-0.92806923
121	0x3dd13bb0	0.102164626
122	0x3e0aaea8	0.13543189
123	0x3f94df2b	1.1630605
124	0x3f7a6de9	0.9782396
125	0x3f6d19df	0.926176
126	0x3eba0996	0.36335438
127	0xc01361c5	-2.3028424
128	0xbfe03a1d	-1.7517735
129	0x3f8d0e04	1.1019902
130	0xbdb93d63	-0.09044912
131	0x3e1744a7	0.14772283
132	0xbf546e4d	-0.82980806
133	0x3de60e27	0.11233168
134	0xbd1aa46c	-0.03775446
135	0x3f354352	0.7080585
136	0x3d9c7d39	0.07641072
137	0xbe77c342	-0.24195579
138	0xbeba8e45	-0.36436668
139	0x3f063199	0.5241943
140	0xbf15242b	-0.5825831
141	0x3e88d45e	0.26724523
142	0x3f8fe412	1.1241477
143	0xbf2717c5	-0.65270644
144	0xbf43142c	-0.76202655
145	0x3e1fe34f	0.15614055
146	0xbfc8bae8	-1.5682039
147	0x3e0df01e	0.13861129
148	0x3ce61614	0.0280867
149	0x3f6d55f1	0.9270926
150	0x3d46d889	0.048546348
151	0xbe22f652	-0.15914276
152	0x3f80c574	1.0060258
153	0xbf40314f	-0.7507524
154	0x3fc56b99	1.5423461
155	0xbfdb4fac	-1.7133689
156	0xbeb82a11	-0.35969594
157	0xbe872637	-0.26396343
158	0x3fc1754c	1.5113921
159	0x3eef6f9d	0.46764842
160	0x3db381b1	0.08764971
161	0xbf82fa56	-1.0232646
162	0xbf2fcaa7	-0.686686
163	0xbedf7dc9	-0.43650654
164	0xbef2d282	-0.4742623
165	0xbef09603	-0.4698945
166	0xbdf65d60	-0.120295286
167	0xbf2b8bf8	-0.6701045
168	0xbf36f44a	-0.71466506
169	0x3ecefcb5	0.40427175
170	0x3fa780e5	1.308621
171	0xbf18c500	-0.596756
172	0xbe7c4a5b	-0.2463774
173	0x3eba83f2	0.3642879
174	0x3e85a79b	0.26104435
175	0x3f3b10b3	0.73072356
176	0xbed2b888	-0.4115641
177	0xbfb67dc0	-1.4257126
178	0xbe23da92	-0.16001347
179	0xbe978782	-0.29595572
180	0x3fa4462e	1.2833917
181	0x3f992ffc	1.1967769
182	0x3f8b04aa	1.0860798
183	0xbe7cb2e6	-0.2467762
184	0xbebb72d6	-0.3661105
185	0x3fb94e84	1.4477086
186	0xbeaee5e5	-0.3415977
187	0x3f3de590	0.7417841
188	0x3fb5e121	1.4209329
189	0xbf53f075	-0.82788783
190	0x3f146cf4	0.5797875
191	0xbe98599c	-0.29755867
192	0x3d706e50	0.058698952
193	0xbeca6656	-0.395312
194	0x3ed8ffcd	0.4238266
195	0x3f9ede12	1.241152
196	0x3eb9ce9c	0.36290443
197	0x3e63638b	0.22205941
198	0xbe7ce5de	-0.24697062
199	0x3eba02e3	0.36330327
200	0xbe4a6f61	-0.1976905
201	0x3f937784	1.1520848
202	0x3e965407	0.29360983
203	0xbf55016a	-0.8320528
204	0x3e173105	0.14764793
205	0x3fdc890f	1.7229327
206	0xbda809d2	-0.08204998
207	0x3eca6fb7	0.39538357
208	0x3f9ace0d	1.2094132
209	0x3e6603ef	0.22462438
210	0x3eebe8fa	0.46076185
211	0xbf8b3339	-1.0875007
212	0x3e90968f	0.28239867
213	0x3f90fb17	1.1326627
214	0xbf0d8c56	-0.5529226
215	0xbcb265de	-0.02177709
216	0xbf31d045	-0.6945842
217	0xbcb0cd33	-0.021582222
218	0xbe4fb058	-0.20282114
219	0xbd35e6ed	-0.04440968
220	0xbdd72c8a	-0.10506542
221	0x3e75b326	0.23994121
222	0x3f13f4e7	0.57795566
223	0xbfda3b69	-1.704938
224	0x3ebcd713	0.3688284
225	0xbe2c3b73	-0.16819553
226	0x3e621f9b	0.22082369
227	0x3fb498fc	1.4109187
228	0xbf2b1a72	-0.6683723
229	0x3f3dbf84	0.74120355
230	0x3d89c903	0.06727793
231	0xbf7e7d6b	-0.9941012
232	0x3dc7886f	0.097428195
233	0x3e3c4bed	0.18388338
234	0x3db74c8d	0.08950148
235	0xbf891354	-1.0709023
236	0x3f2bfff5	0.67187434
237	0x3f7935a3	0.9734747
238	0xbec69b63	-0.38790426
239	0x3ba91118	0.0051595084
240	0x3e2c7906	0.16843042
241	0x3dc396c2	0.09550239
242	0xbe7c6d6b	-0.24651115
243	0xbdf11b99	-0.11772842
244	0xbe9e4035	-0.3090836
245	0x3eff20c0	0.49829674
246	0xbf2468d1	-0.6422244
247	0xbf8cae86	-1.099076
248	0x3ff6e279	1.9287864
249	0x3fe28d31	1.7699338
250	0xbfc4591c	-1.5339694
251	0xbfa37467	-1.2769898
252	0x3f31646d	0.6929386
253	0x3f412d5a	0.75459826
254	0xbe513140	-0.20428944
255	0x3e4e4853	0.20144777

lstm_layers.0.bias_ih_l0 f4 [512]
0	0x3f028361	0.5098172
1	0xbf867b30	-1.0506344
2	0xc010ed8a	-2.2644982
3	0xbfa7098e	-1.3049791
4	0xbf2e555f	-0.68099016
5	0x3f570577	0.83992714
6	0xc00bcfed	-2.1845658
7	0xc015ab16	-2.3385673
8	0xbef4bc82	-0.4780007
9	0xbfaae8da	-1.3352311
10	0xbf3ee28e	-0.74564445
11	0xbffd4cf4	-1.9789109
12	0x3e7ed010	0.24884057
13	0xc0073ee3	-2.1132133
14	0xc006b6bf	-2.104904
15	0xbf243428	-0.64142084
16	0xc015ccab	-2.340617
17	0xbfde4f39	-1.7367927
18	0xc008d871	-2.1382105
19	0xbf7a55b3	-0.97787017
20	0xc00230ed	-2.0342362
21	0xbfe3dc22	-1.7801554
22	0xbfac78c8	-1.347436
23	0xbfb3ad29	-1.4037219
24	0xc01ffb76	-2.499723
25	0x3faddf66	1.3583801
26	0xc01dc8f7	-2.465391
27	0xbfc62041	-1.5478593
28	0xc0006bc8	-2.0065784
29	0xbfc2895f	-1.5198172
30	0xc0027eef	-2.0389974
31	0xbf20dae2	-0.6283399
32	0xbdd69534	-0.10477677
33	0xbf9f9268	-1.2466555
34	0xbfd8f40a	-1.6949475
35	0xc01abe87	-2.4178789
36	0xbfc2716b	-1.5190862
37	0xc00e22c4	-2.220872
38	0xbff325d3	-1.8995918
39	0xc024f919	-2.5777037
40	0xbf8f78d1	-1.1208745
41	0xbfde01d5	-1.7344309
42	0xbea29582	-0.3175469
43	0xbff66eed	-1.9252602
44	0xbfb43cfc	-1.4081111
45	0xc005d266	-2.0909667
46	0xbfe130c8	-1.7593012
47	0xbfabc3d6	-1.3419139
48	0xc00a9429	-2.165293
49	0xc012c506	-2.2932754
50	0xbfe52748	-1.7902613
51	0x3efe44cc	0.49661863
52	0xbfe8d118	-1.818881
53	0x3dff0e11	0.12453855
54	0xbf55ac6f	-0.8346624
55	0xc00eb673	-2.2298858
56	0xc01fb835	-2.495618
57	0xbfb43dc8	-1.4081354
58	0xc01c43d4	-2.44164
59	0xc00f06df	-2.2347944
60	0xbf817790	-1.0114613
61	0xc0163188	-2.3467731
62	0x3ffdef67	1.9838685
63	0xbfd0f77d	-1.6325527
64	0xc00a6d8b	-2.162936
65	0xbff2b8ec	-1.8962684
66	0xc007fd69	-2.124842
67	0xbfa415cf	-1.2819155
68	0xbfd33937	-1.6501836
69	0xbfd02264	-1.6260495
70	0xbf47f609	-0.78109795
71	0xc00681ea	-2.1016793
72	0xc00997b3	-2.149884
73	0xc006d2b4	-2.1066103
74	0xbfbccca4	-1.4749951
75	0xbd4ba4f2	-0.04971785
76	0xbfcd9a72	-1.6062758
77	0xc0135442	-2.3020177
78	0x3fa3024d	1.2735077
79	0xbfedfe26	-1.8593185
80	0xbfaf0b1a	-1.3675263
81	0xbff3f3a3	-1.9058727
82	0xbfadfb8a	-1.3592389
83	0xbfb68330	-1.4258785
84	0x3e10a3c5	0.14124973
85	0xbfb83e0f	-1.4393939
86	0xbf873d24	-1.0565534
87	0xc011d423	-2.2785728
88	0xbfd659ff	-1.6746215
89	0xbfae805e	-1.3632925
90	0xbf82d573	-1.022139
91	0xbfdd6226	-1.7295578
92	0xc021256e	-2.5179095
93	0xbf314136	-0.6924013
94	0xbea9943a	-0.331209
95	0xbfc38083	-1.5273594
96	0xbf81efaa	-1.0151265
97	0xbfe36d90	-1.7767811
98	0xbf0ff69f	-0.5623569
99	0xbfb5f483	-1.4215244
100	0xbfc1b24c	-1.5132537
101	0x3ed00b2d	0.40633526
102	0xbffaaf73	-1.9584793
103	0xbfea7601	-1.8317262
104	0xc0093eaa	-2.1444497
105	0xbfcf52fe	-1.6197202
106	0xc003abd3	-2.0573623
107	0xbdd8ec35	-0.10591928
108	0xbfe580a4	-1.7929883
109	0x3e9cb84a	0.3060935
110	0xbfb99c4a	-1.4500821
111	0xc0158cb5	-2.336713
112	0xbfe3c2aa	-1.7793782
113	0xbfc8bc4d	-1.5682465
114	0xbfac037a	-1.3438561
115	0xc013cb73	-2.3092926
116	0xbfc2253c	-1.5167613
117	0xbf8c079b	-1.0939821
118	0x3e788a79	0.24271573
119	0xbfe456a6	-1.7838943
120	0xbd2433bf	-0.04008841
121	0xbf95bc05	-1.1698004
122	0xc02033b4	-2.5031557
123	0xbed9bc4e	-0.42526478
124	0xbf40bb4f	-0.7528581
125	0xbff4b2cb	-1.9117063
126	0xbfaf3090	-1.3686695
127	0x3f18fa41	0.5975686
128	0xbf881e48	-1.0634241
129	0xbe93e27f	-0.2888374
130	0xbfa69545	-1.3014303
131	0xbf232063	-0.63721293
132	0xbead2846	-0.3381979
133	0xbf54de61	-0.83151823
134	0xbfb6c246	-1.4278038
135	0xbfe66552	-1.799967
136	0x3f807b33	1.0037597
137	0xbfe2de70	-1.7724133
138	0xc00b395f	-2.1753767
139	0xbf8480ab	-1.0351766
140	0xc000a501	-2.010071
141	0xbff64612	-1.9240134
142	0xbea7effd	-0.32800284
143	0x3e599d92	0.21251515
144	0xbfc8879e	-1.5666387
145	0xbfd159dc	-1.6355548
146	0xbf58e7fa	-0.8472897
147	0xbf91d9b2	-1.139456
148	0xbfa338c8	-1.2751703
149	0xbf845376	-1.033797
150	0x3f4fd5cd	0.8118561
151	0xbf0c5fb3	-0.54833525
152	0xbfc69958	-1.5515547
153	0x3f7283b1	0.94732195
154	0xbfd878ae	-1.6911829
155	0xbf0d79de	-0.5526408
156	0xbf53c093	-0.8271572
157	0x3f0caccd	0.54951173
158	0xbfc2edc7	-1.5228814
159	0xc01b5503	-2.4270637
160	0x3e9eae44	0.3099233
161	0xbfe92789	-1.821519
162	0xbf993af9	-1.1971122
163	0xbf81f0a1	-1.0151559
164	0x3fef2929	1.8684436
165	0xbf0d2a50	-0.5514269
166	0xbfa64064	-1.29884
167	0xbffc3d9c	-1.9706302
168	0xbfd94e9c	-1.6977115
169	0xbfb94c4b	-1.4476408
170	0x3f97c282	1.1856234
171	0xbfadf41c	-1.3590121
172	0xc01a3aa4	-2.4098291
173	0x3f45e6f3	0.77305526
174	0xbfbc08c8	-1.469018
175	0xbfa87c33	-1.3162903
176	0xbfdf178c	-1.7429061
177	0xc00ce69b	-2.201575
178	0xbfcd2e53	-1.6029762
179	0xbf38e241	-0.72220236
180	0xbfd5b267	-1.6695069
181	0xbfcfedde	-1.6244466
182	0xc012f217	-2.296026
183	0xbfb83686	-1.4391639
184	0xbf0dff1d	-0.55467397
185	0xbfded48b	-1.7408613
186	0xbfc9e73b	-1.5773691
187	0xbf9aba0c	-1.2088027
188	0xbfe2c9fa	-1.7717888
189	0x3f6c2402	0.92242444
190	0x3edfb182	0.43690115
191	0xbfa72dcc	-1.3060851
192	0xbf9fddd2	-1.2489569
193	0xbf921768	-1.1413393
194	0xbff7d6c9	-1.9362422
195	0xbf2c199c	-0.67226577
196	0xbfb67419	-1.425418
197	0xbf97a873	-1.1848282
198	0x3fed0e1d	1.8519932
199	0xbf4f2369	-0.80913407
200	0xbf875b4f	-1.057474
201	0xbfc2da7a	-1.5222924
202	0xbe6dc935	-0.23221286
203	0xc00b0d74	-2.172696
204	0xbfa4f70e	-1.2887895
205	0x3e9d3365	0.30703273
206	0x3fd0e4ad	1.6319786
207	0xbfa03be3	-1.2518276
208	0x3f9e46f5	1.2365404
209	0xbf92783f	-1.1442946
210	0x3fef5ee6	1.8700836
211	0x3fc8b828	1.56812
212	0xc0053336	-2.0812507
213	0x401d4cf7	2.4578226
214	0x3f04178b	0.51598424
215	0xbfea01ae	-1.8281763
216	0x3f5b6eb9	0.85715824
217	0xc0111b07	-2.2672746
218	0x3ff52a17	1.915347
219	0xc007623f	-2.1153715
220	0xbfbc44a6	-1.470845
221	0xbff4a3f0	-1.911253
222	0x3f5eb4b1	0.86994463
223	0xbf1df360	-0.61699486
224	0xc011e640	-2.2796783
225	0xbf7bf32c	-0.98417926
226	0x3f10eaf4	0.5660851
227	0xbfc2b7a1	-1.5212289
228	0x3fcaddc1	1.5848924
229	0xbfb1a268	-1.3877687
230	0xbfb0a3ab	-1.3799948
231	0xbbd3a224	-0.0064585377
232	0xbf3d262d	-0.73886377
233	0xbcf40cdf	-0.029791294
234	0xbf9be316	-1.2178676
235	0xbf8ba03f	-1.0908278
236	0xbfc1221f	-1.5088538
237	0xbfc77766	-1.5583313
238	0xc021de52	-2.5291944
239	0xbfa21446	-1.2662437
240	0xc0045513	-2.0676925
241	0xbfc44994	-1.5334954
242	0xbfc5dee1	-1.5458642
243	0xbfac0db7	-1.3441685
244	0xc00034af	-2.0032156
245	0xbff2936c	-1.895124
246	0xbfda93ce	-1.7076356
247	0xbf8975f0	-1.0739117
248	0xc016423d	-2.3477929
249	0x3e95bcd9	0.29245642
250	0xc00d4f30	-2.2079582
251	0xbff4799b	-1.9099611
252	0xbf5e93db	-0.8694436
253	0xbfdf9e66	-1.7470214
254	0xc00ad371	-2.1691554
255	0xbf71c309	-0.94438225

lstm_layers.0.bias_hh_l0 f4 [512]
0	0x3f028365	0.5098174
1	0xbf867b2d	-1.050634
2	0xc010ed89	-2.264498
3	0xbfa70996	-1.30498
4	0xbf2e5568	-0.6809907
5	0x3f57057b	0.8399274
6	0xc00bcfed	-2.1845658
7	0xc015ab19	-2.338568
8	0xbef4bc82	-0.4780007
9	0xbfaae8d0	-1.3352299
10	0xbf3ee295	-0.74564487
11	0xbffd4ce7	-1.9789094
12	0x3e7ed00c	0.24884051
13	0xc0073ee5	-2.1132138
14	0xc006b6c0	-2.1049042
15	0xbf243431	-0.6414214
16	0xc015ccae	-2.3406177
17	0xbfde4f3a	-1.7367928
18	0xc008d870	-2.1382103
19	0xbf7a55b8	-0.97787046
20	0xc00230ee	-2.0342364
21	0xbfe3dc22	-1.7801554
22	0xbfac78ca	-1.3474362
23	0xbfb3ad29	-1.4037219
24	0xc01ffb76	-2.499723
25	0x3faddf61	1.3583795
26	0xc01dc8f7	-2.465391
27	0xbfc62042	-1.5478594
28	0xc0006bc7	-2.0065782
29	0xbfc2895c	-1.5198169
30	0xc0027eed	-2.038997
31	0xbf20dae9	-0.6283403
32	0xbdd694fd	-0.10477636
33	0xbf9f9269	-1.2466556
34	0xbfd8f408	-1.6949472
35	0xc01abe84	-2.4178782
36	0xbfc2716b	-1.5190862
37	0xc00e22c2	-2.2208714
38	0xbff325d4	-1.8995919
39	0xc024f91b	-2.5777042
40	0xbf8f78d7	-1.1208752
41	0xbfde01ce	-1.7344301
42	0xbea29583	-0.31754693
43	0xbff66eee	-1.9252603
44	0xbfb43cf1	-1.4081098
45	0xc005d25e	-2.0909648
46	0xbfe130cb	-1.7593015
47	0xbfabc3de	-1.3419149
48	0xc00a9429	-2.165293
49	0xc012c506	-2.2932754
50	0xbfe5274a	-1.7902615
51	0x3efe44d8	0.496619
52	0xbfe8d10c	-1.8188796
53	0x3dff0e23	0.12453868
54	0xbf55ac67	-0.8346619
55	0xc00eb671	-2.2298853
56	0xc01fb838	-2.4956188
57	0xbfb43dbf	-1.4081343
58	0xc01c43d1	-2.4416392
59	0xc00f06df	-2.2347944
60	0xbf817788	-1.0114603
61	0xc016318e	-2.3467746
62	0x3ffdef63	1.983868
63	0xbfd0f780	-1.6325531
64	0xc00a6d89	-2.1629355
65	0xbff2b8e8	-1.8962679
66	0xc007fd6a	-2.1248422
67	0xbfa415d2	-1.2819159
68	0xbfd33936	-1.6501834
69	0xbfd02262	-1.6260493
70	0xbf47f60a	-0.781098
71	0xc00681eb	-2.1016796
72	0xc00997b5	-2.1498845
73	0xc006d2b4	-2.1066103
74	0xbfbccca2	-1.4749949
75	0xbd4ba529	-0.049718056
76	0xbfcd9a69	-1.6062747
77	0xc0135440	-2.3020172
78	0x3fa3024e	1.2735078
79	0xbfedfe23	-1.8593181
80	0xbfaf0b26	-1.3675277
81	0xbff3f3a2	-1.9058726
82	0xbfadfb80	-1.3592377
83	0xbfb68333	-1.4258789
84	0x3e10a3f0	0.14125037
85	0xbfb83e07	-1.4393929
86	0xbf873d22	-1.0565531
87	0xc011d422	-2.2785726
88	0xbfd659f8	-1.6746206
89	0xbfae8060	-1.3632927
90	0xbf82d572	-1.0221388
91	0xbfdd622d	-1.7295586
92	0xc0212569	-2.5179083
93	0xbf31412f	-0.6924009
94	0xbea99439	-0.33120897
95	0xbfc38088	-1.52736
96	0xbf81efa3	-1.0151256
97	0xbfe36d8e	-1.7767808
98	0xbf0ff690	-0.562356
99	0xbfb5f485	-1.4215246
100	0xbfc1b249	-1.5132533
101	0x3ed00b18	0.40633464
102	0xbffaaf6c	-1.9584785
103	0xbfea7609	-1.8317271
104	0xc0093eab	-2.14445
105	0xbfcf5308	-1.6197214
106	0xc003abd2	-2.057362
107	0xbdd8ebea	-0.10591872
108	0xbfe580ac	-1.7929893
109	0x3e9cb845	0.30609336
110	0xbfb99c4e	-1.4500825
111	0xc0158cb5	-2.336713
112	0xbfe3c2a9	-1.779378
113	0xbfc8bc4d	-1.5682465
114	0xbfac0378	-1.3438559
115	0xc013cb76	-2.3092933
116	0xbfc22538	-1.5167608
117	0xbf8c07a6	-1.0939834
118	0x3e788a8a	0.24271598
119	0xbfe4569d	-1.7838932
120	0xbd24335c	-0.040088043
121	0xbf95bc05	-1.1698004
122	0xc02033b8	-2.5031567
123	0xbed9bc42	-0.42526442
124	0xbf40bb50	-0.75285816
125	0xbff4b2d1	-1.911707
126	0xbfaf308b	-1.3686689
127	0x3f18fa45	0.5975688
128	0xbf881e3f	-1.063423
129	0xbe93e282	-0.2888375
130	0xbfa69544	-1.3014302
131	0xbf23205d	-0.6372126
132	0xbead283c	-0.3381976
133	0xbf54de69	-0.8315187
134	0xbfb6c248	-1.427804
135	0xbfe6654b	-1.7999662
136	0x3f807b33	1.0037597
137	0xbfe2de71	-1.7724134
138	0xc00b395f	-2.1753767
139	0xbf8480a8	-1.0351763
140	0xc000a500	-2.0100708
141	0xbff64612	-1.9240134
142	0xbea7f003	-0.32800302
143	0x3e599dad	0.21251555
144	0xbfc8879c	-1.5666385
145	0xbfd159dc	-1.6355548
146	0xbf58e7eb	-0.8472888
147	0xbf91d9b3	-1.1394562
148	0xbfa338c7	-1.2751702
149	0xbf845379	-1.0337974
150	0x3f4fd5ce	0.81185615
151	0xbf0c5fb4	-0.5483353
152	0xbfc69958	-1.5515547
153	0x3f7283cd	0.9473236
154	0xbfd878ac	-1.6911826
155	0xbf0d79d6	-0.5526403
156	0xbf53c08c	-0.8271568
157	0x3f0caccc	0.5495117
158	0xbfc2edc9	-1.5228816
159	0xc01b5505	-2.4270642
160	0x3e9eae4b	0.3099235
161	0xbfe9278a	-1.8215191
162	0xbf993b00	-1.197113
163	0xbf81f0a6	-1.0151565
164	0x3fef2920	1.8684425
165	0xbf0d2a57	-0.5514273
166	0xbfa64064	-1.29884
167	0xbffc3d98	-1.9706297
168	0xbfd94e95	-1.6977106
169	0xbfb94c48	-1.4476404
170	0x3f97c283	1.1856235
171	0xbfadf41c	-1.3590121
172	0xc01a3aa3	-2.409829
173	0x3f45e6e9	0.77305466
174	0xbfbc08c9	-1.4690181
175	0xbfa87c35	-1.3162905
176	0xbfdf178a	-1.7429059
177	0xc00ce69b	-2.201575
178	0xbfcd2e53	-1.6029762
179	0xbf38e246	-0.72220266
180	0xbfd5b265	-1.6695067
181	0xbfcfedde	-1.6244466
182	0xc012f217	-2.296026
183	0xbfb83686	-1.4391639
184	0xbf0dff1c	-0.5546739
185	0xbfded489	-1.740861
186	0xbfc9e738	-1.5773687
187	0xbf9aba0c	-1.2088027
188	0xbfe2c9fc	-1.7717891
189	0x3f6c23fa	0.92242396
190	0x3edfb188	0.43690133
191	0xbfa72dce	-1.3060853
192	0xbf9fddce	-1.2489564
193	0xbf921768	-1.1413393
194	0xbff7d6cb	-1.9362425
195	0xbf2c199a	-0.67226565
196	0xbfb67417	-1.4254178
197	0xbf97a878	-1.1848288
198	0x3fed0e1c	1.8519931
199	0xbf4f236d	-0.8091343
200	0xbf875b4e	-1.0574739
201	0xbfc2da7e	-1.5222929
202	0xbe6dc917	-0.23221241
203	0xc00b0d72	-2.1726956
204	0xbfa4f710	-1.2887897
205	0x3e9d335d	0.3070325
206	0x3fd0e4b0	1.631979
207	0xbfa03be2	-1.2518275
208	0x3f9e46f5	1.2365404
209	0xbf92783e	-1.1442945
210	0x3fef5ee6	1.8700836
211	0x3fc8b825	1.5681196
212	0xc0053337	-2.081251
213	0x401d4cf8	2.4578228
214	0x3f041785	0.5159839
215	0xbfea01ac	-1.828176
216	0x3f5b6ebb	0.85715836
217	0xc0111b05	-2.2672741
218	0x3ff52a17	1.915347
219	0xc0076244	-2.1153727
220	0xbfbc44a8	-1.4708452
221	0xbff4a3ec	-1.9112525
222	0x3f5eb4b6	0.86994493
223	0xbf1df364	-0.6169951
224	0xc011e640	-2.2796783
225	0xbf7bf32c	-0.98417926
226	0x3f10eaf7	0.5660853
227	0xbfc2b79f	-1.5212287
228	0x3fcaddb5	1.584891
229	0xbfb1a263	-1.3877681
230	0xbfb0a3a9	-1.3799945
231	0xbbd3a454	-0.0064587984
232	0xbf3d262e	-0.7388638
233	0xbcf40e08	-0.029791847
234	0xbf9be319	-1.217868
235	0xbf8ba03e	-1.0908277
236	0xbfc1221c	-1.5088534
237	0xbfc7776d	-1.5583321
238	0xc021de58	-2.5291958
239	0xbfa21443	-1.2662433
240	0xc0045514	-2.0676928
241	0xbfc44993	-1.5334953
242	0xbfc5dee3	-1.5458645
243	0xbfac0dbd	-1.3441693
244	0xc00034ae	-2.0032153
245	0xbff29367	-1.8951234
246	0xbfda93d2	-1.7076361
247	0xbf8975f4	-1.0739121
248	0xc016423d	-2.3477929
249	0x3e95bcdc	0.2924565
250	0xc00d4f34	-2.2079592
251	0xbff47999	-1.9099609
252	0xbf5e93e8	-0.8694444
253	0xbfdf9e65	-1.7470213
254	0xc00ad372	-2.1691556
255	0xbf71c309	-0.94438225

output_layer.weight f4 [1, 128]
0	0xbea07e90	-0.3134656
1	0xbceb468b	-0.028720161
2	0xbbab7948	-0.0052329637
3	0x3f2a481b	0.66516274
4	0xbd1d036f	-0.038333353
5	0x3f111339	0.56669956
6	0x3c3c988a	0.0115109775
7	0xbd9e9722	-0.0774367
8	0xbe4df910	-0.20114541
9	0xbdf3732a	-0.118872
10	0xbe7ec284	-0.2487889
11	0x3e5fe2bd	0.21863838
12	0x3d3f971f	0.04677498
13	0xbeb3c136	-0.35108346
14	0x3e9cfb1a	0.30660325
15	0xbf230c44	-0.6369059
16	0xbe2d6855	-0.16934331
17	0x3db715f9	0.08939738
18	0x3ebc5b11	0.36788228
19	0x3f0b01e6	0.5429977
20	0xbd6f3972	-0.058404393
21	0xbe9095e1	-0.2823935
22	0x3ed5f65c	0.4178952
23	0xbdbab023	-0.09115627
24	0x3e2839d2	0.16428307
25	0x3ef3fe6d	0.4765505
26	0x3ed87b3d	0.42281523
27	0x3da4a95c	0.08040115
28	0x3eb5c959	0.3550518
29	0x3c906566	0.017626476
30	0x3cfe7f1d	0.031066472
31	0x3e596ec9	0.21233667
32	0xbd9b90b6	-0.07595961
33	0x3ebeda9d	0.37276164
34	0x3db02738	0.086012304
35	0xbe08f55f	-0.13374852
36	0x3eecfede	0.46288198
37	0xbe2f3e22	-0.17113546
38	0x3e69c131	0.22827603
39	0xbd365105	-0.04451086
40	0xbee84aa5	-0.4536945
41	0xbe94979b	-0.29021916
42	0xbeb238b6	-0.34808892
43	0xbc9a8f8d	-0.018867278
44	0x3ea20fd7	0.3165271
45	0xbe08954d	-0.13338204
46	0x3d726c72	0.059185453
47	0xbdc78082	-0.09741308
48	0x3e51e4c4	0.20497423
49	0x3ef61c2b	0.48068365
50	0xbe560814	-0.20901519
51	0x3f0f797f	0.56044763
52	0x3e0a5912	0.1351054
53	0x3efde5a9	0.4958928
54	0xbeb7305b	-0.3577908
55	0xbde130c8	-0.109956324
56	0x3dad0e91	0.08450044
57	0xba918c76	-0.0011104483
58	0xbe2c1d91	-0.16808154
59	0x3c05a38c	0.008156668
60	0x3f12eee9	0.573958
61	0xbd30e9b0	-0.04319161
62	0x3d2882d5	0.041140396
63	0x3e42f881	0.19040109
64	0xbdf06bc2	-0.11739303
65	0xbca15754	-0.019694962
66	0xbe2ac4a4	-0.16676575
67	0xbc31cb50	-0.010851696
68	0xbddedb1a	-0.10881634
69	0xbefd4c6d	-0.4947237
70	0x3e911ff7	0.283447
71	0x3e2af4d6	0.1669496
72	0x3efb168b	0.49040636
73	0xbf7d4ae6	-0.9894241
74	0x3e0aaf05	0.13543327
75	0x3e9486c4	0.29009068
76	0x3e2d80de	0.1694369
77	0x3f62f59c	0.8865602
78	0xbf22347f	-0.6336135
79	0xbca16415	-0.019701043
80	0x3c83427d	0.016022915
81	0x3bd4b658	0.0064914636
82	0xbd565754	-0.052329376
83	0xbf0c2c8b	-0.5475547
84	0xbe5174c4	-0.20454699
85	0xbe268924	-0.16263252
86	0xbf0d9a13	-0.55313224
87	0x3dd4191d	0.103563525
88	0x3dd6af93	0.10482707
89	0xbe719044	-0.23590189
90	0xbe11bafd	-0.14231487
91	0x3e9177a1	0.28411582
92	0xbf164ca9	-0.58710724
93	0x3eaa4379	0.33254603
94	0x3dfc4a63	0.12318876
95	0x3ec9762e	0.39347976
96	0xbe4696e9	-0.19393505
97	0xbd3afc9c	-0.045651063
98	0x3e402b50	0.18766522
99	0xbdcd32be	-0.10019444
100	0xbed1302c	-0.40857065
101	0x3e74825c	0.23877853
102	0x3ea06e3d	0.31334105
103	0xbe9f6540	-0.31131935
104	0xbe20a659	-0.15688457
105	0x3c9a412e	0.018829908
106	0x3d2515f9	0.040304158
107	0xbe60e85b	-0.21963637
108	0xbd9a0ab8	-0.07521576
109	0x3ed795f5	0.42106596
110	0xbdd2b0b3	-0.10287609
111	0x3e0dca2a	0.1384665
112	0x3bc375ee	0.005964986
113	0xbe85afa3	-0.26110563
114	0x3f1ddad8	0.61662054
115	0x3d937c85	0.072014846
116	0xbdba20a6	-0.090882584
117	0xbf04b551	-0.51839167
118	0xbe80803a	-0.2509783
119	0xbe71ab46	-0.23600492
120	0xbed2db90	-0.41183138
121	0xbf18fd50	-0.59761524
122	0x3dc7f939	0.09764332
123	0xbea9d546	-0.33170527
124	0xbe225e79	-0.15856351
125	0x3d3c6690	0.04599625
126	0xbf190049	-0.5976606
127	0x3dd1f378	0.10251516
